models/autoencoder_32.pth (torch, 843717 bytes, 8 tensors)

encoder.1.weight f4 [128, 784]
000000 ca d7 13 bc 40 24 c7 3c 3c 51 6b 3c 1c d6 cd bb
       -0.009023616 0.024309278 0.0143626295 -0.0062816273
000010 8e c2 fd bc b4 ff 5c 3c ca 04 7f bc 08 09 b3 3b
       -0.03097656 0.013488699 -0.015565107 0.005463723
000020 08 20 a6 bc b8 db a5 3c 58 ed 80 bb c0 7a 6f bc
       -0.020278946 0.020246372 -0.0039345436 -0.014616668
000030 41 06 4d 3c 0c b0 22 bd 8b 5d f3 bd c1 f0 0e bd
       0.012513698 -0.039718673 -0.11883076 -0.03489757
000040 22 ac a3 3c 05 1b 06 3d 30 ce b9 bb ca 43 b8 3c
       0.01997954 0.03274061 -0.0056703314 0.022493262
000050 b0 fc bc 3c aa 8f ce 3c 2c e9 a5 bc 4a e0 bd bc
       0.02306971 0.025214989 -0.020252787 -0.023178238
000060 52 ef 8b 3c 12 a3 96 3c 80 d8 2d bc 40 17 e3 3a
       0.01708189 0.018388305 -0.0106107 0.0017325655
000070 c2 24 f4 3c 28 07 91 3b 12 4c dc 3c 38 69 a6 bc
       0.029802684 0.004425902 0.026891742 -0.020313844
000080 4a 2c 03 bd 70 5c ae bb e5 bb 7c 3d a9 c7 f1 bc
       -0.03202466 -0.005321078 0.061702628 -0.02951415
000090 93 03 40 3d 5c 20 22 3d 65 8d 00 bd 7d 24 73 bd
       0.04687841 0.03958164 -0.031384844 -0.05936097
0000a0 18 20 b1 bb 16 7b 2d bd e3 bd 7f 3c d6 ec c1 3c
       -0.005405437 -0.042353712 0.015609237 0.023672502
0000b0 de d2 af bc 5d 2a 2b bd cc fa 3c 3d 3a 38 13 3d
       -0.021462854 -0.041788448 0.046137616 0.035942294
0000c0 d5 9d d3 3d 9e 83 4a 3e dd 2b c2 bc 6a d8 b0 bd
       0.103328384 0.1977677 -0.023702556 -0.08635028
0000d0 46 f3 4c bc 2a b1 98 bc 84 84 5f 3c f2 c6 61 bc
       -0.012509173 -0.018639166 0.013642434 -0.013780342
0000e0 ce 5d 3a bc 18 ae b1 3c 46 03 d6 3d 26 7f 8c bd
       -0.011374904 0.02168946 0.10449843 -0.06860189
0000f0 d7 ff 98 bd 6b b9 0a be b7 a5 17 b9 ab 79 8e bd
       -0.074706726 -0.13547294 -0.00014462216 -0.069568
000100 c9 6d 7e bd 82 58 3b 3d 25 52 9c bd 54 73 64 bd
       -0.062116418 0.045738705 -0.07632855 -0.055774048
000110 e6 88 04 bd 79 52 59 bd ce ad 3a bd 5a 42 eb bd
       -0.03235712 -0.053057168 -0.04557591 -0.11487265
000120 8c dd 9d bd 93 71 7c bd 62 f3 c5 bd 0d bb 89 bd
       -0.07708272 -0.06163175 -0.09665562 -0.0672513
000130 c2 36 9f 3b 10 f5 91 3c 5b 2c 81 3d ca a9 17 3e
       0.0048588226 0.01781705 0.06307288 0.14810863
000140 b4 61 fe 3d 2e 1e 00 bd 00 80 1f bb 3c a4 86 bc
       0.12420979 -0.03127878 -0.0024337769 -0.016435735
000150 60 41 c6 ba d4 8c 1a 3c ef fe 09 3e 7c 95 28 3d
       -0.0015125684 0.00943299 0.13476156 0.041158184
000160 62 db de bd 01 40 5e bd be 95 3e bd 13 36 32 3c
       -0.10881688 -0.054260258 -0.046529524 0.01087715
000170 f7 bd b6 bb be 16 ce 3c 1c b9 ad 3c 00 a0 ea 3c
       -0.005576845 0.025157329 0.021206431 0.028640747
000180 0e 3e e5 3c ab e8 21 3b d6 f8 f2 3c f7 f7 81 3d
       0.027983692 0.0024705331 0.02965967 0.06346124
000190 f1 90 e4 3c cc 53 81 bb 1a 29 a8 bd 35 4e 1c bd
       0.027901145 -0.003946757 -0.082109645 -0.03816052
0001a0 b9 55 b5 bc 98 b9 58 3d d5 72 d8 3c 88 a6 12 3d
       -0.022135602 0.05291137 0.026421944 0.035803348
0001b0 c3 36 a5 bd 25 30 b3 3b 8a 16 0a 3e 18 aa 01 3c
       -0.080670856 0.0054683858 0.1348516 0.007914089
0001c0 d4 76 9e bb ce 40 0d 3e 57 79 9c 3c 23 24 7d bd
       -0.0048359428 0.13794252 0.019100828 -0.06180204
0001d0 10 bc a2 bd 3e a7 8d bc 9e ad 9c bd 43 26 98 bd
       -0.07946026 -0.017291661 -0.07650302 -0.07429173
0001e0 3c 62 3e bd 5a 26 ba bc 17 a0 5c bc 6b f4 68 bd
       -0.046480402 -0.022723366 -0.013465903 -0.05687372
0001f0 5c 48 dc bb ab e1 83 3a b2 7f 47 3d 0d c2 46 3d
       -0.006722493 0.0010061761 0.048705764 0.048524905
000200 05 04 c0 3c d5 53 87 3d 08 a3 55 3d 27 45 07 3d
       0.023439417 0.066077866 0.05215743 0.033024933
000210 ac 78 44 bc 4b 82 81 3d ef 48 94 3c 85 aa 1b 3d
       -0.011991661 0.063236795 0.018101184 0.038004417
000220 d5 0d 16 bd d2 f7 54 bd c9 67 f3 bd 94 5d c7 3c
       -0.036634285 -0.051994152 -0.1188503 0.024336614
000230 38 c6 cf bc 3c 79 dc bc 6d 3e 50 bd c8 6b 86 3c
       -0.025363073 -0.026913278 -0.050840784 0.016408816
000240 dc 63 b9 bd 88 57 0c be 66 2d 86 bd fb 95 41 bd
       -0.0905225 -0.13705266 -0.06551628 -0.047262173
000250 3b a5 16 bc 4c cf 9e 3a 4c e1 ae bc 18 4b c2 bd
       -0.009194667 0.0012116223 -0.021347664 -0.09486979
000260 fd 3a 46 bd e2 76 96 bd f1 34 17 bd 72 67 08 bb
       -0.0483961 -0.07346894 -0.036915723 -0.0020813611
000270 4f 54 45 3d ea ab 81 3d 37 26 ac 3d f6 04 c2 3d
       0.048176106 0.06331618 0.084057264 0.094736025
000280 9b 74 3e 3d 51 ba df 3c 58 7f eb 3c 5b a0 d2 3c
       0.046497922 0.027310522 0.028747246 0.02571123
000290 00 85 63 3c 0b cf 73 bd 1d 11 18 3e d7 9f f0 3d
       0.01388669 -0.059523623 0.14850278 0.11749237
0002a0 1c 37 55 bc 1d af bb 3c a0 e0 1d be 63 f0 c5 bd
       -0.013013627 0.022910649 -0.15417719 -0.09664991
0002b0 97 e5 f8 bc 41 43 29 be 37 63 c9 bd 0d 92 31 bd
       -0.030382914 -0.16529562 -0.09833377 -0.043352176
0002c0 8d 47 82 bd 44 e3 37 bd c1 1e 47 bd ae 13 51 bd
       -0.063613035 -0.04489447 -0.048613314 -0.05104416
0002d0 a8 b0 ac bd a8 7b d0 bd 6d 63 62 bd 12 e6 45 bd
       -0.08432132 -0.101798356 -0.0552706 -0.048315115
0002e0 b0 2e 92 3d 96 8f 87 3d 63 71 0e 3d 94 84 58 3d
       0.07137811 0.06619184 0.034776103 0.05286081
0002f0 7a e5 bf bc a3 49 7f bd cc c3 0a bd cb 86 ee bc
       -0.023424853 -0.062326085 -0.033878133 -0.029117009
000300 1a e6 24 bd 5a fb f2 bc 9c c3 a2 bc 77 cf 2b be
       -0.040258504 -0.02966087 -0.019868664 -0.1677836
000310 6f a8 80 3b 39 10 53 bb 60 d9 a0 bd 5f 30 01 3d
       0.003926329 -0.0032205714 -0.07853961 0.03154027
000320 1d 53 17 bd ba 1a 44 bd 7d ba 24 bd 03 35 66 bd
       -0.036944497 -0.04787705 -0.04021691 -0.0562029
000330 51 20 39 bd b4 26 82 bc 4c 1d 06 bd 80 37 c1 bd
       -0.045196835 -0.015887596 -0.032742783 -0.09434414
000340 fd 51 ca bd 47 9a 07 be 16 36 90 bd dc 1f 5f 3c
       -0.09878919 -0.13242446 -0.07041566 0.013618436
000350 44 31 e8 3d 4e 98 e2 3d 4e 2a ab 3d ed 67 83 3d
       0.11337522 0.11064206 0.08357678 0.06416307
000360 2c 30 49 bc b0 2e 85 bd 4d fd a6 bd 15 7f 8c bd
       -0.0122795515 -0.065030456 -0.08153782 -0.068601765
000370 c1 f3 73 bd 63 fd 66 bd 4f a4 c4 bb 6b a1 9c bd
       -0.059558634 -0.056393992 -0.0060010324 -0.076479755
000380 f3 a1 7b 3d c7 2a 13 bc 14 39 80 3d 65 ad 05 bb
       0.061433744 -0.008982367 0.06260887 -0.002039754
000390 69 6c 17 3d 2f b5 84 bd 14 9f d6 bd dc 60 6f bd
       0.036968622 -0.064798705 -0.104795605 -0.05844198
0003a0 43 32 55 bc 04 a4 f3 3c fd c1 95 bd 44 4b c0 bd
       -0.013012472 0.029741295 -0.07312391 -0.09389356
0003b0 29 da a1 bd 4d ee b7 bd da 4e e3 bc f6 7d 69 3d
       -0.07902939 -0.08980999 -0.02774756 0.05700489
0003c0 c6 87 de 3d f1 b8 c1 3d 22 2b 6c 3d 33 6b 40 3d
       0.108657405 0.09459103 0.057658322 0.046977233
0003d0 86 ab 17 bd f6 a7 7f bd 69 f8 a7 bd c6 11 64 bd
       -0.037028812 -0.06241604 -0.08201677 -0.055681013
0003e0 b1 33 36 bd bc fb 83 bd 54 7e 4a bc 05 20 c0 bc
       -0.04448289 -0.06444499 -0.012359221 -0.023452768
0003f0 77 8e b8 3d 1f b1 f1 bb 96 6b b1 3d c3 02 a5 3d
       0.09011548 -0.007375851 0.086630985 0.080571674

encoder.1.bias f4 [128]
000000 27 0a 5d 3f a6 e5 ae bc b1 95 a0 3c 70 d4 a8 3c
       0.86343616 -0.02134974 0.019602628 0.02060911
000010 4e 4c 29 bd 31 13 2e bd d4 87 9e bd cd 14 aa 3c
       -0.041332535 -0.04249877 -0.07740751 0.020761872
000020 85 24 3e 3f ad 20 39 bd 00 3a 2f bd 8f 4e b6 be
       0.74274474 -0.045197178 -0.042779922 -0.3560681
000030 60 44 96 be ab 2c 17 bf 95 ad fa 3e 8e 3e 83 be
       -0.2934904 -0.5905253 0.48960558 -0.25633663
000040 2c 0c ff bc 47 a7 d5 3e c6 5c 7e be 3e de 78 be
       -0.031133734 0.41729185 -0.24840078 -0.24303529
000050 93 e9 a3 bc 77 41 24 3f b1 95 1b 3f d8 1b 84 bd
       -0.020008838 0.6416239 0.60775286 -0.06450623
000060 53 43 ba 3e 56 77 a3 bd d4 80 f3 bc 3f 28 a2 bc
       0.3637949 -0.07981746 -0.029724516 -0.019794581
000070 4d ba 7b bd 35 cf 4a be ac 5f f4 be 24 bc c3 3c
       -0.061456967 -0.19805606 -0.47729242 0.023893423
000080 93 48 da bd 23 de 81 3f e1 d5 b3 bd 9f be 2b bc
       -0.10658374 1.0145916 -0.087810285 -0.010482459
000090 b8 27 40 bc d6 f0 a5 3c 59 99 b2 bc 6a 85 0a be
       -0.01172822 0.020256441 -0.021801637 -0.13527456
0000a0 14 51 11 3d 63 1b 71 3d 03 ab 7d 3e d2 67 93 be
       0.035477713 0.05886401 0.24772267 -0.28790146
0000b0 b2 16 dc bb b8 0a 1a be 19 f1 f1 3e 68 87 b4 bc
       -0.0067165727 -0.15043151 0.47254255 -0.022037223
0000c0 e6 cd 1a 3f 24 82 b0 3c a7 2f 03 3c 17 9a 26 bd
       0.60470426 0.02154643 0.008006967 -0.040674295
0000d0 74 8a d7 be e4 60 79 3c 7d 66 94 3b c5 08 1f bd
       -0.4209782 0.015220854 0.004528819 -0.038826723
0000e0 20 ed ef bc 9b 98 e5 be 4a 64 f8 be cb c5 95 bc
       -0.029287875 -0.4484299 -0.48514014 -0.018282792
0000f0 35 43 3d 3f c9 1a 19 3f 8f 84 37 bd 5a 03 b6 bc
       0.73930675 0.59806496 -0.044804152 -0.022218395
000100 ba d8 0a bd f2 a8 98 bc 91 7a 75 3f 72 33 f4 3e
       -0.033898093 -0.018635247 0.95890146 0.476955
000110 af da 10 3f 4a 22 de be 1f 51 24 bf d3 7b ca be
       0.56583685 -0.43385535 -0.6418628 -0.39547595
000120 4d 5c e2 3e d9 c4 fa 3e 73 85 97 bb 40 81 7b 3d
       0.44211045 0.48978308 -0.0046240627 0.06140256
000130 7a ab ee 3b 47 3d 00 3c e5 fc b4 be e8 01 8c be
       0.007283625 0.00782711 -0.35349193 -0.27345204
000140 5e 04 51 be ea 28 47 3d 6b d1 81 bb d0 46 8c 3e
       -0.20411822 0.048623003 -0.003961732 0.27397776
000150 64 2f 44 3f 1a 18 fa bd 82 fc a8 3e 09 96 45 3f
       0.7663481 -0.12211628 0.33005148 0.7718206
000160 28 b8 2e bd 45 51 e3 3e 7d e2 d4 3e 89 0e 92 3e
       -0.042656094 0.4439794 0.41579047 0.28526714
000170 0f 8d 22 3f 2b 59 fd 3e 6f 40 24 bd ae b9 17 3c
       0.6349649 0.49482092 -0.04010051 0.009260578
000180 ac 31 cf be d2 4f 02 3f 27 11 b4 be e0 3b 4b 3e
       -0.40467584 0.50903046 -0.35169336 0.19847059
000190 cc 07 a6 3e 17 90 fa 3e d7 71 93 3c a1 ca a2 bc
       0.32427824 0.48938057 0.017998619 -0.019872012
0001a0 41 bb 46 be 91 3b 6b 3b 15 74 5c bc 9d 25 0e 3e
       -0.19407369 0.0035893659 -0.0134554105 0.13881536
0001b0 bb 97 35 bc b0 68 2a bd dc a5 93 3c 56 57 00 bd
       -0.011083539 -0.041603744 0.018023424 -0.03133329
0001c0 9b f5 e6 3e 72 46 1a 3f b0 fc a1 be 9b 59 9f 3b
       0.45109257 0.6026374 -0.31638098 0.0048629767
0001d0 9c 81 41 3f 93 80 63 3f 6d 3d f0 be 45 4d b3 bc
       0.75588393 0.88868064 -0.46921864 -0.02188743
0001e0 d2 31 c2 3e 06 d7 09 3d 5d 58 e4 bb 95 ec 91 3c
       0.37928635 0.033652328 -0.0069685415 0.017813006
0001f0 ef 3b 11 3f 67 47 72 ba cd 2c 32 bd 7b d1 65 bc
       0.56732076 -0.0009242207 -0.043499757 -0.014026995

encoder.3.weight f4 [32, 128]
000000 7a 2f 11 3d 59 af 57 3a 25 cb 70 3d 00 e8 45 3d
       0.035445668 0.0008227728 0.058787484 0.048316956
000010 ce ca 5e 3d 85 d9 a4 bd 5c 90 b5 3d eb 8d 39 bd
       0.05439263 -0.08049301 0.08865425 -0.04530136
000020 5f f5 ca bd fa f2 8f 3c 82 b6 3a bc 82 b8 da bb
       -0.09910082 0.017571915 -0.011396052 -0.006674827
000030 bb d1 dc 3d aa 1f b9 bd ca 4a 9f 3e 2f c6 6a bd
       0.107821904 -0.090392426 0.31111747 -0.05731791
000040 c4 e9 eb 3c 97 a5 6c 3e 8a 6b 37 be dd b6 90 bd
       0.028797992 0.23110043 -0.17912117 -0.070661284
000050 4e ef c7 3d fc 09 39 3e 81 6e 83 3e 3f f5 23 be
       0.097624406 0.18070215 0.25670245 -0.16011523
000060 dd bd 5a 3e 1b 6f 48 3e 6d b4 45 bd 03 63 be 3d
       0.2136149 0.19573633 -0.04826777 0.09296229
000070 ed 73 e0 bc f1 57 4e 3e 49 32 83 be 35 52 d7 bd
       -0.027399028 0.20150734 -0.25624302 -0.105137266
000080 bc e8 33 be 77 86 d6 3e dd 40 b7 bd 3c 6a 17 be
       -0.1756925 0.41899464 -0.089479186 -0.14786619
000090 49 52 3c 3d cc 6f 76 3d 45 35 94 bd 6d 36 e1 bc
       0.04597691 0.06016521 -0.07236723 -0.027491773
0000a0 d5 d3 18 3e 39 e2 8a 3e aa 92 1a be 64 1b 0c 3e
       0.14924558 0.2712572 -0.1509501 0.13682324
0000b0 27 ca 3a bd da 9e 25 3e ee 15 7e 3d c0 b7 3a 3d
       -0.045602944 0.16173878 0.062032633 0.045585394
0000c0 ed 93 26 be 2e b7 08 bd 85 59 87 3c c5 1b 85 bd
       -0.16267367 -0.03337782 0.016522178 -0.06499437
0000d0 54 0e 7c bd 70 1a 40 3d 30 c7 b7 3d 2f 8e 32 3d
       -0.061537102 0.046900213 0.08973539 0.043592628
0000e0 aa 17 91 bd 99 8f c0 3d d0 bf a9 3d ab 70 80 3d
       -0.07084592 0.09402389 0.082885385 0.0627149
0000f0 49 4a bf 3d c1 3a 8f 3d fb 1e c0 3d 27 d8 4e bd
       0.09340341 0.06993628 0.09380909 -0.050499108
000100 63 66 04 bd 02 82 87 bc 27 eb b1 be 81 17 1a 3e
       -0.032324206 -0.016541485 -0.3474972 0.15048029
000110 e7 88 83 be 85 aa 12 be 35 04 39 be e5 34 c5 ba
       -0.25690386 -0.1432286 -0.18068011 -0.0015045671
000120 29 f0 94 3d 37 67 2f be 25 20 ca 3d 78 9c f3 3c
       0.072723694 -0.17129217 0.09869412 0.029737696
000130 8e 19 f0 bd f3 55 b0 3d 6d 24 0e bd dc 88 72 be
       -0.11723624 0.086101435 -0.034702707 -0.2368502
000140 b1 b1 6b 3e 7c 2b 54 3e 8c 46 b9 3d 65 2f 03 3d
       0.23017003 0.20719713 0.09046659 0.03202762
000150 da 61 82 3d 95 8f b1 3d 7c 98 b8 bd 08 80 13 be
       0.0636632 0.08669964 -0.09013459 -0.14404309
000160 29 5c 9c bb 87 fd 8c bd ec d6 1b bd 34 8c 36 3b
       -0.0047717285 -0.06884294 -0.038046762 0.0027854564
000170 35 55 de bb cf 93 81 3e 80 9d 2a bd 7f 66 50 bd
       -0.00678506 0.25308082 -0.04165411 -0.050878998
000180 79 64 8c bd c2 7d 15 3e f1 66 f3 bd 60 b9 1a bd
       -0.06855101 0.14598754 -0.11884869 -0.037774444
000190 b2 b9 98 bd d2 65 57 be 11 a9 1f 3d 30 c8 07 bd
       -0.074572936 -0.21034935 0.038979594 -0.033149898
0001a0 6d 3c d0 bd c0 63 1f 3d c5 65 6f bc a2 40 00 3e
       -0.10167775 0.03891349 -0.014611666 0.12524655
0001b0 a3 d6 38 bd ed 71 43 3d 8e 0a 0f 3c 38 b7 2d bd
       -0.04512657 0.04771607 0.008730544 -0.04241106
0001c0 85 30 97 bd de de 1f 3e 23 d4 d5 bd 87 21 92 bc
       -0.07382301 0.15612361 -0.104408525 -0.017838253
0001d0 ad a7 0e 3e 46 95 25 3e ba 73 fc bc a1 b4 3e bd
       0.1393115 0.16170225 -0.030816901 -0.04655898
0001e0 62 f7 ed 3d 1c 4c 36 3c bb 25 38 bb 03 2d f1 3c
       0.1161945 0.011126544 -0.002809866 0.029440409
0001f0 54 88 b3 3d 33 a8 43 bd d6 02 42 be 97 2a a0 bc
       0.08766237 -0.04776783 -0.18946394 -0.019551558
000200 b3 66 bd 3e b3 8b d3 bc 6c 22 89 3d cf 66 ad bc
       0.36992416 -0.02582345 0.066960186 -0.021167187
000210 2d 24 34 bd fd 43 91 bd 39 b2 13 3d 9a 94 81 3d
       -0.043979812 -0.07093046 0.03605864 0.063271716
000220 9a 6c 8d 3c f2 57 ca 3d 84 ca 4a bd ef 30 14 bd
       0.0172637 0.098800555 -0.04950954 -0.03617948
000230 4b 2b 01 be 38 f1 06 3e 62 85 a4 be 08 48 1b 3e
       -0.12614171 0.13177955 -0.32133013 0.15164196
000240 d4 92 3b bd 6f 3b 4d be bb ca 41 bd 77 e6 0f be
       -0.045794323 -0.20042203 -0.04731248 -0.14052759
000250 3c b2 05 3d e1 f3 c0 3d da 74 2f 3e be 5d b7 3d
       0.03264068 0.09421516 0.17134419 0.08953427
000260 12 9d 32 bd 9f 6e 7f 3d ed 02 3d 3e a7 73 0f bd
       -0.043606825 0.062361356 0.18458147 -0.035022404
000270 f7 c0 93 3d 65 63 af bd 70 ae 5b be 9c 51 da 3c
       0.072145395 -0.0856388 -0.21453261 0.026650243
000280 02 69 a4 bc 47 94 41 be fb d6 39 3e a9 c0 03 be
       -0.020069603 -0.1890422 0.18148415 -0.12866463
000290 2f 98 e7 bb 3d c8 8d bc be 35 28 3c 08 b5 3f be
       -0.0070677022 -0.017307395 0.010266719 -0.18721402
0002a0 fa b8 79 3e 98 88 fa 3d 33 11 0f 3e f8 c7 a0 bd
       0.24386969 0.122330844 0.13971405 -0.07850641
0002b0 d0 3a 8c 3d 92 56 f2 3d 59 eb 38 3e 17 f9 a2 bd
       0.06847155 0.11832918 0.18058528 -0.07957666
0002c0 33 fc d0 3e 75 bb 39 bd e8 7a 8f bc e4 d9 51 bd
       0.40817413 -0.04534479 -0.017514661 -0.051233187
0002d0 b4 bd dd bd a0 ca 25 bd a5 d6 71 bd 88 ff 58 3d
       -0.108271986 -0.04047644 -0.05904259 0.05297807
0002e0 31 b2 c8 3d d6 7d e1 3d f7 d1 8c bd b3 4b fe bc
       0.09799612 0.110103294 -0.06875985 -0.031041956
0002f0 35 ec e7 3d ae 8a 5f bb 37 cd 29 3e 34 77 22 bb
       0.1132435 -0.003410976 0.1658219 -0.002479029
000300 bd 03 48 bd 29 e4 bf 3c e7 bf 93 be 55 87 a5 bd
       -0.04883169 0.023424225 -0.28857347 -0.08082453
000310 76 88 38 3e 89 e2 be bd 95 27 60 bd 1e fa af 3d
       0.18020806 -0.09320552 -0.05472525 0.08592628
000320 ee 35 4f bd 42 c5 b1 be 14 58 8a bd ba 59 7d bd
       -0.05058854 -0.34720808 -0.06755081 -0.061853148
000330 96 3e 83 3d aa 4a 8e bd a6 d8 e5 3d fb 03 0c be
       0.06408422 -0.06947835 0.11222963 -0.13673393
000340 9a fc 13 3d f4 d4 88 be f0 62 a7 3d 91 05 b2 3d
       0.03612957 -0.2672497 0.08173168 0.08692468
000350 e6 6c ad 3e b2 70 c9 bd d6 ff d1 3d 1e 22 16 be
       0.33872145 -0.09835948 0.10253875 -0.14661452
000360 ad a0 cc 3d 16 f2 88 bd 1c c6 86 3e 9e ed 16 bd
       0.09991584 -0.06686799 0.2632302 -0.036847703
000370 85 b7 78 3e 2b c9 83 3e 13 1b 96 bd aa 76 45 bc
       0.24288757 0.25739416 -0.07329383 -0.0120522175
000380 b4 57 7b bd 34 a4 ab 3e 97 bd 76 3c ce 75 bf 3d
       -0.061362937 0.33523715 0.01505985 0.09348641
000390 91 3a b5 bd fd 34 68 3e fb cd 4f bd 86 de 4f bd
       -0.08849061 0.22676463 -0.050733548 -0.050749324
0003a0 ab a8 8d be 7e 6e 7d 3d bb 7c 13 bd f5 9f 58 3e
       -0.27667746 0.06187295 -0.036007624 0.21154769
0003b0 5c aa 85 bd e1 da 8a 3d 53 30 91 3d 0a d8 a1 3c
       -0.06526634 0.06780029 0.07089295 0.019756336
0003c0 a6 90 e6 bd cd be 5f be a8 29 17 3e 43 d9 97 3c
       -0.11258058 -0.21850128 0.14761984 0.018536216
0003d0 2f ea 38 be 43 82 a5 bc 6a 4e 38 3d 2b 4d 13 3d
       -0.18058084 -0.020203715 0.044996656 0.035962265
0003e0 04 8f c1 38 46 5e 68 3e 3b 9e bb 3d 73 60 67 bd
       9.229596e-05 0.22692212 0.091610394 -0.056488466
0003f0 91 3e cf bc f2 da d1 3c 9e 34 c3 bd 2a d9 25 bd
       -0.025298389 0.025617097 -0.0953152 -0.040490307

encoder.3.bias f4 [32]
000000 9c 7b 86 3e a9 16 24 3e b5 02 f9 be bb 1b ab 3e
       0.2626618 0.16024269 -0.48634878 0.33419594
000010 12 17 0a bf a4 91 49 3e 9c 4a 30 3f 71 36 02 3f
       -0.5394145 0.19684464 0.68863845 0.5086432
000020 73 eb 14 bd 19 ad 88 be 33 58 c8 be 1f ab 03 3f
       -0.036357354 -0.26694563 -0.3912979 0.51432985
000030 d0 cc c1 3e 74 c4 4a be ff f1 1e be 56 d5 34 3d
       0.37851572 -0.19801503 -0.15522002 0.044148766
000040 78 95 ea 3e 94 c6 ed 3e 9d 4e 40 be e2 f0 bc bd
       0.4581716 0.46440566 -0.18779989 -0.09225632
000050 0e b3 83 be 77 45 31 be 44 9c 12 3e 91 ee 91 3e
       -0.25722545 -0.17311655 0.14317423 0.28502324
000060 05 23 9d be d4 c3 d2 be 8d f6 37 3f 97 4d a3 3e
       -0.3069078 -0.4116503 0.7186058 0.31895134
000070 0b ec 0c bc 6c f2 27 3f 0d cd df be 13 ee 29 bd
       -0.008601199 0.6560428 -0.4371113 -0.04148681

decoder.0.weight f4 [128, 32]
000000 e8 46 70 bd 96 28 5e 3d 10 36 ed bd 24 09 52 be
       -0.05866137 0.054237925 -0.11582577 -0.205113
000010 d1 e2 85 bd 4c da 59 3d a2 3b 40 be 56 67 43 3e
       -0.065374024 0.0531867 -0.18772748 0.19082388
000020 5d 92 e5 3d f4 fa f0 bc dd 86 0c 3e 03 e5 79 ba
       0.11209557 -0.029416539 0.13723321 -0.00095327216
000030 24 aa 98 3e 1b e7 ba be d8 4f 8a be 88 8c 8f 3e
       0.29817307 -0.36504444 -0.2701404 0.28036904
000040 a7 1b 0c 3e 01 63 83 bd 8b 5f a5 bd e1 19 07 be
       0.13682424 -0.06415368 -0.08074864 -0.13193466
000050 f2 5c d9 3d 4d 52 3c be 3d 65 29 bd 1f 1e 0a be
       0.10613431 -0.1839077 -0.041356314 -0.13488053
000060 f0 9c 2a 3e 2a 37 05 3e ef d1 64 be ab 8d 2a 3e
       0.1666143 0.13009325 -0.22345708 0.16655605
000070 2b cd 82 be d4 3b 71 3e c3 13 b8 3d 31 17 3d 3d
       -0.25547156 0.23557979 0.08988144 0.046164695
000080 56 c7 68 be 22 2d 51 3d 06 c0 82 bd c6 ec b8 3e
       -0.2273229 0.051068433 -0.06384282 0.36118144
000090 6a 60 1b bd 3b f1 58 be 55 69 31 be 92 88 31 3d
       -0.037933744 -0.21185772 -0.17325337 0.043343134
0000a0 bd e4 96 bd 0f 6c b4 3d 63 ba 30 3c e1 03 16 be
       -0.07367847 0.08809673 0.010786626 -0.14649917
0000b0 4a 36 d3 3d 1e de 26 bd f7 ed 56 bc a7 27 ab 3d
       0.10313089 -0.04073917 -0.013118259 0.083571725
0000c0 58 64 7d be c7 87 90 3e 06 40 01 3e cb 1e d8 b9
       -0.2474531 0.2822859 0.12622079 -0.00041221673
0000d0 e6 ae 37 3e 8f d5 f6 3c 8b db 45 3e a9 97 87 be
       0.17937812 0.03013113 0.1932203 -0.26482895
0000e0 6d a5 5c bc 92 4a c0 be 00 1a 3c be 97 a3 bf 3c
       -0.013467175 -0.37556893 -0.18369293 0.023393435
0000f0 c2 c8 1b be b6 36 87 3e ae 37 0b be 88 b0 14 bd
       -0.15213302 0.2640893 -0.13595459 -0.036301166
000100 b5 22 50 be 7b 3b 6b be 00 a7 4c 3d e7 60 0e bd
       -0.2032574 -0.22971909 0.04996395 -0.034760382
000110 4c f3 22 3d 32 e6 5e bd 56 77 07 be 5c df ff bd
       0.039782807 -0.05441875 -0.13229117 -0.12493774
000120 0d 67 40 be 90 ff bf 3d 5f ad 02 3e 5b af 56 3e
       -0.18789311 0.093749166 0.12761448 0.2096533
000130 0c 2f da 3d c9 a9 b9 3d 6b ff 83 bd 36 2f 74 bb
       0.10653505 0.09065587 -0.064452015 -0.0037259585
000140 e5 fa c7 bb c4 b4 3e bd 06 17 03 be 5f e8 c5 3d
       -0.006102907 -0.04655911 -0.12801751 0.09663462
000150 0d a5 c4 bd 44 5d db 3c 62 9a 1f 3e 65 e8 1c bc
       -0.096017934 0.026777871 0.15586236 -0.009576892
000160 ae 58 6a be 57 fb cd bc 1a 6b 52 3d 75 9d 70 be
       -0.22885391 -0.025144262 0.05137167 -0.23497565
000170 a5 fb 18 be fd 87 19 3d 28 e3 bf 3b e7 69 b6 3c
       -0.14939745 0.037483204 0.0058559366 0.022267295
000180 f3 af 35 3e b8 49 d5 bd 33 f0 f3 bd 6c 54 7b 3e
       0.177429 -0.10414451 -0.11911049 0.24543923
000190 99 37 f4 be f3 76 53 bd fb 1e 5f bc 3a d1 03 3d
       -0.47698668 -0.05162711 -0.013618226 0.032181956
0001a0 ec 66 c9 3d 86 19 f0 3d a1 f6 a1 3c 62 88 71 bd
       0.09834084 0.11723618 0.019770922 -0.058967955
0001b0 c5 cf 92 3e 22 60 dc bd 8c f7 59 3b 78 92 9e 3d
       0.2867414 -0.107605234 0.0033259122 0.077427804
0001c0 81 32 32 3d b9 44 8d 3d 8d 6f 9b 3e 20 05 a9 3d
       0.043505196 0.068978734 0.30358544 0.08252931
0001d0 b5 09 52 be 76 65 d7 bc ed f2 ba 3e e9 5c 12 3e
       -0.20511515 -0.026293498 0.36513463 0.14293255
0001e0 5c ed 89 be 9b 0f 8f 3e ae 73 a3 3d 52 9e ac 3e
       -0.26938903 0.27941594 0.079810485 0.3371454
0001f0 e5 49 26 be c2 b6 0d be ed ba e3 3e d4 2f 06 bf
       -0.16239126 -0.13839248 0.4447855 -0.5241673
000200 bd 48 e4 3d 4f f6 94 3d 73 5b 94 3d 22 b3 86 3e
       0.11146686 0.07273542 0.07244005 0.26308542
000210 81 11 92 bd a9 09 4c bd 63 cc 3e 3e ba 91 ef bc
       -0.07132245 -0.0498139 0.18632655 -0.029244293
000220 59 f0 f9 3d 6b 60 3c 3e a7 bd ab bd 83 70 40 be
       0.12204046 0.18396156 -0.08385783 -0.1879292
000230 96 f5 d5 3c 39 54 88 be c0 71 38 3d af ca 16 3e
       0.026118081 -0.26626757 0.045030355 0.14725755
000240 17 e8 f5 3d 4f 14 c8 be fa c3 c5 bc 71 bc e2 3c
       0.12007158 -0.39077994 -0.0241413 0.027677746
000250 ba d8 bc 3d d1 77 ca bd a4 43 95 be 2e ac 05 3c
       0.09221025 -0.098861344 -0.29153168 0.008158727
000260 82 f1 5b bd a4 3d f0 bb c4 d2 43 3e c8 03 4a 3e
       -0.053697117 -0.007331567 0.1912337 0.19728005
000270 d0 0e 83 bc e9 6c a7 bc 25 b9 89 be 5a 22 00 bc
       -0.015998274 -0.020437675 -0.26899067 -0.00782069
000280 97 f7 a5 be ef 3d 8e be 4e c2 63 ba 44 8e c5 3d
       -0.3241546 -0.27781627 -0.00086883164 0.09646276
000290 9f 90 4e be e2 e3 87 3e fd d7 ba 3d 7b b6 1c 3e
       -0.20172356 0.26541048 0.09123228 0.15303986
0002a0 ac 7f 23 3e be 35 98 be 70 59 f3 bc ea a4 74 be
       0.15966672 -0.29728502 -0.029705733 -0.23891035
0002b0 f3 e2 23 3e ae d8 fe 3d ba 7b 81 be 1d ac e0 bd
       0.16004543 0.12443672 -0.25289708 -0.10970328
0002c0 14 7a 28 bd 80 ac 81 3c 21 d1 db bb de 57 c1 bb
       -0.041132048 0.015829325 -0.0067082797 -0.005900367
0002d0 9b 34 4d be ae 03 7b 3e 9f 35 0a bd 23 e4 4b bd
       -0.20039599 0.24513122 -0.033742543 -0.049778115
0002e0 0e d3 df 3c a8 06 57 3e 39 e9 f5 3d b0 0e 8a 3d
       0.027322318 0.20998633 0.12007374 0.06741083
0002f0 78 b5 26 3d 30 c9 90 3d 58 2d d8 bd b3 0f c2 3d
       0.040700406 0.070696235 -0.10555524 0.09475651
000300 00 43 42 3e 49 dc 39 3e 81 c1 f7 3d 9b 57 e3 3d
       0.18970871 0.18150438 0.12097455 0.11100694
000310 b1 6d 2b 3e 6d 4f c6 3d e2 6b 2e be 98 0f c7 3c
       0.16741063 0.09683118 -0.17033342 0.024299428
000320 51 30 21 3e 16 b1 e8 bd 09 e3 0b 3e 44 ce ed bd
       0.15741087 -0.113619015 0.13660826 -0.11611608
000330 b4 81 af be b6 1a 78 3e e2 0a 58 3c 26 46 62 3e
       -0.34278643 0.2422894 0.013186188 0.22097072
000340 db 55 ab 3d c2 e6 2f 3d 2d 6f a8 bd 94 bf d0 3e
       0.08365985 0.042944677 -0.0822433 0.40771163
000350 c6 16 90 3d ec fd 4b bd 89 9d a7 3d b5 4e 07 3e
       0.07035594 -0.049802706 0.08184344 0.13213618
000360 94 fc e1 3d b5 89 3b be cc f1 fb bd 78 1f 18 3e
       0.110345036 -0.1831425 -0.123019785 0.14855754
000370 7d 12 78 bd 98 54 38 3e b8 af 35 bd 49 7f 6a 3c
       -0.060564507 0.1800102 -0.04435703 0.014312574
000380 07 a8 8f 3e 9c fb 82 3e e9 4c 0a bd 5b 59 61 bd
       0.28057882 0.25582588 -0.033764753 -0.055016857
000390 d1 37 ee bd 2e f4 81 3c 96 cf 04 bd 28 57 f6 bc
       -0.1163174 0.015863504 -0.032424532 -0.030070856
0003a0 0c f7 2b 3e 03 98 47 bd ae 39 84 3e 30 08 10 3c
       0.1679346 -0.048728954 0.25825256 0.008791015
0003b0 3d 65 f0 bd 51 2d 07 bd b2 ef 33 be 31 12 91 3d
       -0.1173806 -0.0330022 -0.17571905 0.07083548
0003c0 78 20 7b be 4a d6 e4 3c d2 5b a7 bb 4d 63 63 bd
       -0.24524105 0.027934212 -0.0051073814 -0.055514622
0003d0 87 ad 65 3e 74 0a 54 bd 26 91 b4 3d 8c 14 b9 bd
       0.22429477 -0.05176778 0.08816747 -0.09037122
0003e0 a2 92 a1 3a a1 9a e4 3d f8 d8 27 be b5 3f 03 3e
       0.0012327025 0.111623056 -0.16391361 0.12817271
0003f0 2b ac 20 bd e0 48 f5 bc 80 17 7f bb 72 69 ce bc
       -0.039226692 -0.029941976 -0.003892392 -0.025196765

decoder.0.bias f4 [128]
000000 3a 8d 3b 3f 4e bd 84 3d e5 43 3f be 8e 7a af 3e
       0.7326237 0.064814195 -0.18678243 0.3427319
000010 5a 9c 18 3f 97 34 a4 3e aa 8f cc 3e a6 43 a7 be
       0.59613574 0.32071373 0.39953357 -0.326688
000020 6c 56 61 bf 55 ce 2a bf 87 8e 0f 3f 49 20 b7 3e
       -0.88022494 -0.6672109 0.56076854 0.3576682
000030 43 e9 f0 3e 7b 3b 0c 3f cf 61 f5 3e dc 4a e2 3c
       0.47052965 0.5477826 0.47926185 0.027623586
000040 67 19 1c 3f e4 44 86 3e 32 b6 12 3f 65 8f 9d be
       0.6097626 0.26224434 0.5730926 -0.30773464
000050 ab 2f 8c 3e 93 81 60 3e e8 b0 4e 3f 5e 1b 17 3f
       0.27380118 0.21924429 0.8073869 0.59026134
000060 9d 36 82 3f cf 68 e3 3e 8a 79 2c 3f 77 46 3b bf
       1.0172917 0.444159 0.67372954 -0.73154396
000070 a5 5f 8f 3e 5d 0a 39 3f d2 d6 a9 3d c1 66 19 bf
       0.28002658 0.7228144 0.08292927 -0.59922415
000080 04 cb 0d 3f 9f 51 eb 3e 1e 7e a4 be ff 3d b4 3e
       0.553879 0.4596071 -0.3212747 0.3520355
000090 b3 25 95 3d 9b fb bf 3e 97 c5 3e 3f 5d 35 48 bf
       0.07282581 0.37496647 0.7452025 -0.78206426
0000a0 8d 10 18 bf e5 09 48 bf 98 21 89 3f 0c 71 ba 3e
       -0.59400254 -0.781401 1.0713377 0.36414373
0000b0 79 a1 33 3f 66 a0 53 3f 27 cc 3d 3f c9 b2 c1 3e
       0.7016826 0.82666624 0.74139637 0.37831715
0000c0 9b 9a 01 bf 16 ed 2c bf 1b b6 38 3f fd ca 9e bb
       -0.50626534 -0.67549264 0.7215287 -0.0048459754
0000d0 a6 3b b9 3d 92 a8 cb 3e e8 88 6c 3f 96 f7 10 3e
       0.0904458 0.39777046 0.923964 0.14156947
0000e0 b7 a1 08 3d bb 57 c5 bd 8f 24 19 3e 4c 92 9a bd
       0.03335735 -0.09635874 0.14955352 -0.07547435
0000f0 69 78 34 be c6 63 38 bf d4 bb 60 bf 0a dd 2d 3e
       -0.17624058 -0.7202724 -0.877866 0.16978851
000100 b1 a9 0b 3f 6e 6a 31 3e 82 e8 60 3e a3 b5 bb 3e
       0.54555804 0.17325756 0.21963695 0.36662015
000110 a1 86 02 3d 72 22 53 3f d2 90 4c 3f 69 2b a3 be
       0.031866673 0.82474434 0.7990848 -0.31869057
000120 88 ec 0c 3d de 4e 8b bd 1f f7 c2 3e 00 99 8e 3c
       0.03440526 -0.06802152 0.38079163 0.01740694
000130 1d 47 2b 3e 37 04 74 3f a7 32 71 3e bf d2 1a bf
       0.16726346 0.9531893 0.23554479 -0.60477823
000140 41 4e 81 3d 18 4b 9c be d4 ee 97 3d b7 4c 3a be
       0.06313754 -0.30526042 0.074186 -0.18193327
000150 82 fa 42 3f 6b d3 eb 3e 87 52 8e bd 68 43 42 3f
       0.76163495 0.46059737 -0.069493346 0.75884104
000160 d3 64 9a be 8a 94 60 be 90 aa 9b 3e ef 45 7a 3e
       -0.30155048 -0.21931663 0.30403566 0.2444074
000170 ec 8f 10 3f 92 63 bd bd e6 17 08 bf 6b 8a c4 3e
       0.5646961 -0.09247507 -0.53161466 0.38386855
000180 21 c1 fe 3e 9b ae d9 3e 93 9c 6d 3f f7 7e 7a 3d
       0.4975672 0.42516026 0.9281704 0.06115624
000190 29 ec 62 3e c5 0e 0b bf 4f 5f 97 3e ab 41 84 bf
       0.221604 -0.5431941 0.29564902 -1.033254
0001a0 42 6a db 3e c2 df 87 3d e2 5f c7 3e db 34 f4 be
       0.42854506 0.06634475 0.3894034 -0.47696576
0001b0 07 9d 49 3e f6 11 0a bf 76 8f ad 3e fb 43 73 bc
       0.19688807 -0.53933656 0.33898515 -0.014847751
0001c0 ba 5b 7d 3f 35 e3 55 3f b3 df 48 3f 05 ea 35 3f
       0.9896809 0.83549815 0.7846634 0.7106021
0001d0 0c 0c bf 3d 8f 66 a1 3e 9c dc 61 bd f3 57 a0 3e
       0.0932847 0.31523558 -0.05514203 0.313171
0001e0 75 2e 54 be 13 ca 2a 3e 58 32 40 3e 40 69 e4 3e
       -0.20720847 0.16678648 0.18769205 0.4461155
0001f0 3f 90 a0 3e e4 86 5d 3e d7 b9 a0 3d f7 99 39 3f
       0.3136005 0.21633488 0.07847946 0.72500557

decoder.2.weight f4 [784, 128]
000000 73 75 9f 3c 15 26 85 bd 70 ec 9b 3d ac 65 c4 bd
       0.019465184 -0.06501404 0.07613456 -0.09589705
000010 03 85 fb bd af 15 d4 bd 64 c8 0a 3d 67 09 30 3d
       -0.12281229 -0.10355698 0.033882514 0.042977717
000020 25 38 37 be 7f 2c f0 3c 29 83 62 be e4 8b 29 bd
       -0.17892511 0.029318092 -0.22120346 -0.041393176
000030 03 45 a9 bd be 42 49 be df f9 e7 bd 00 1b 6e bc
       -0.08265116 -0.19654366 -0.11326956 -0.0145328045
000040 fd b2 90 bd 5b 14 e3 bd 3d 11 be bd 55 c3 e4 3c
       -0.07065389 -0.11087867 -0.09280632 0.027925173
000050 4c dd 4b 3d fa 72 05 3d ee ec 17 bd a2 c3 b8 bd
       0.049771592 0.032580353 -0.037091188 -0.09021689
000060 b7 76 54 3d 1e 53 73 3d dc f5 11 b8 4c 4e d4 bd
       0.051871028 0.05940544 -3.479967e-05 -0.103664964
000070 16 e3 21 3d 22 3e 70 bd f9 9e 22 bc fb 34 82 3b
       0.039523207 -0.058653004 -0.009925597 0.003973601
000080 d3 ca 54 3d e4 ab 71 bd c5 dc 50 be 36 95 16 bd
       0.05195124 -0.05900182 -0.20396717 -0.036763392
000090 b6 b4 c0 bd 8f 2a 67 3d 08 13 59 3c bd 9f b9 bd
       -0.09409468 0.05643707 0.013249166 -0.09063671
0000a0 c1 86 89 bd b9 93 78 3d 59 27 a2 bd d0 ad 30 be
       -0.067151554 0.060687754 -0.07917661 -0.17253804
0000b0 1b 86 e8 3c 31 45 d3 bd f7 9f 9c 3d 53 25 9f bc
       0.028384259 -0.103159316 0.076476984 -0.019426977
0000c0 ad 5e 8c bd ba ba ac bd 67 52 2b bd 1f 40 51 bd
       -0.068539955 -0.08434053 -0.041826632 -0.05108654
0000d0 f3 c6 0d bc 1f 65 9c bd d3 71 01 bd e3 26 97 bd
       -0.00865339 -0.07636475 -0.03160269 -0.07380464
0000e0 07 cb 93 bc 7c 73 93 bc 34 ea b8 bb 8b 2c 91 bc
       -0.018041147 -0.017999403 -0.0056431536 -0.017721435
0000f0 b7 5d 35 be 13 83 2f 3d 05 c7 05 bd a3 f9 d0 bc
       -0.1771153 0.04284961 -0.032660503 -0.025509661
000100 ea 03 7f bd bc f6 d7 bd db 95 7f 3c 11 fa b7 bd
       -0.062259592 -0.10545108 0.015599693 -0.08983243
000110 35 01 e7 bd 9a 9f d5 bc f4 6b 38 bc b5 8b 90 bd
       -0.11279527 -0.02607708 -0.011256207 -0.07057897
000120 1c 67 81 bd 3d 74 3e bc 10 b6 94 bd da 9e 87 bd
       -0.06318495 -0.011624393 -0.07261288 -0.066220954
000130 4c e2 6e 3c a2 a0 f3 bd 81 bb 9f bd 50 6b 4f bd
       0.014580321 -0.11895873 -0.077994354 -0.05063945
000140 c7 70 be bd 72 73 8a bd b1 91 d4 bc e9 0f 01 be
       -0.09298854 -0.06760301 -0.025948377 -0.12603725
000150 16 01 e4 bd 97 10 17 be 06 4e 48 bd 3f 4e 69 3d
       -0.111330196 -0.14752422 -0.048902534 0.056959387
000160 5a d1 cf 3c d5 b6 5e bd 12 51 dd bd 8d 29 28 3d
       0.025368381 -0.05437358 -0.108064786 0.04105525
000170 46 40 80 bd 13 eb 72 bd c5 9e e0 bd 6e 5a ad bd
       -0.06262259 -0.059306215 -0.10967783 -0.08464514
000180 2c 3e 2c 3d 52 e9 9b bd ef d3 83 bd a0 3b 6e bd
       0.04205148 -0.07612862 -0.064369075 -0.05816233
000190 2d 2e 1f bd cb de 2b bd 6a df 4f 3c 2e 54 a8 bd
       -0.038862396 -0.04196052 0.012687543 -0.08219181
0001a0 4e 75 d9 bd 91 fb 1c 3d a4 be e0 bd 92 a8 e0 3c
       -0.10618077 0.03832585 -0.10973862 0.02742413
0001b0 a3 34 6c bc f7 a8 de bd ae 31 24 3d d1 72 70 3d
       -0.014416846 -0.10872071 0.04008644 0.058703247
0001c0 12 12 80 bd f8 24 bb bd 03 da 58 bd a4 e7 44 be
       -0.06253447 -0.091379106 -0.052942287 -0.19228989
0001d0 fb 4c 22 be ca a5 5d 3d 86 8e c4 bc 9f db e6 bc
       -0.15849678 0.054113187 -0.023993742 -0.028180895
0001e0 c5 db 8b 3c a4 20 0a bd c2 c7 c8 bb 6e 5a c8 bc
       0.017072568 -0.033722535 -0.0061273286 -0.024457183
0001f0 55 86 5f bd ec f1 0a bd 9e 51 70 3d d1 c3 26 be
       -0.05457147 -0.03392212 0.058671586 -0.16285636
000200 a3 21 33 bd 5a b0 ee 3c 3e 77 36 bc 0b 61 b4 3b
       -0.04373325 0.029136825 -0.011136828 0.0055047325
000210 bc 0d b2 bd b5 c0 4d 3c c0 c8 81 bc ef 96 0a 3d
       -0.08694026 0.012558152 -0.015842795 0.033835348
000220 c3 be 1f be ac ec 55 bd 02 83 7f be 29 95 f4 bd
       -0.15600114 -0.05222766 -0.2495232 -0.119425125
000230 73 3b 8a bd 90 51 08 be 0b 53 00 be 5e fc cd bd
       -0.0674962 -0.13312364 -0.12531678 -0.10057901
000240 5a b9 89 bc 29 3d a1 bd 84 fa 1e bd 87 df 30 3d
       -0.016812015 -0.078729935 -0.03881313 0.043181922
000250 e6 b3 2d bd 25 67 6a bd 2f 2d 47 bc ed 01 6e bd
       -0.042407893 -0.057227273 -0.012156769 -0.058107305
000260 60 24 8d 3c fd 48 40 3d 81 a2 4e 3d 0b c0 e6 3c
       0.017229259 0.046944607 0.050447945 0.028167745
000270 a5 a0 3d bd a7 df a1 bd 5b 55 4f bd 84 f3 fd bc
       -0.04629578 -0.079039864 -0.05061851 -0.030999906
000280 92 91 82 3c 88 f6 a9 3b 1b 36 85 be f5 23 ab bd
       0.015938554 0.0051868595 -0.26017842 -0.08356468
000290 f0 21 d1 bc bf e8 cd bb dd 53 e4 bc 74 7b 28 bd
       -0.025528878 -0.006283849 -0.02787202 -0.04113336
0002a0 d2 56 a2 bd 89 9f 8e bd f1 93 51 3c ce 64 24 be
       -0.07926716 -0.06964023 0.01279162 -0.16054079
0002b0 35 13 07 bc fd 2c c5 bd 55 12 ba bd fb b3 19 3c
       -0.008244325 -0.096277215 -0.09085528 0.00938129
0002c0 d3 48 2c be 94 f9 d5 bd eb 4b 78 bd 63 17 f1 bd
       -0.16824655 -0.10447994 -0.060619276 -0.11772039
0002d0 6b a9 68 3d ca 07 8e bd 80 27 8c 3d 79 ba 00 3d
       0.056802195 -0.069350794 0.068434715 0.031427834
0002e0 44 77 6e 3b 97 af 3e 3d 8b 97 97 3d f6 d4 83 bc
       0.0036387006 0.046554174 0.074019514 -0.016092759
0002f0 bf 72 2c be a2 74 7a bd fc ad 69 bd 60 6c 7e bd
       -0.16840647 -0.061146386 -0.05705069 -0.062115073
000300 e1 bd e4 bd 88 77 ed bd fa 2d 84 bd 43 b3 55 bd
       -0.11169029 -0.115950644 -0.06454082 -0.05217291
000310 1e 93 69 bd 06 3a 0e 3d a0 c8 48 3d e0 29 d1 bd
       -0.057025068 0.034723304 0.049019456 -0.10213065
000320 d0 38 f0 bc 0d b4 c7 bc 3b 75 9b bd 3f a4 a1 bd
       -0.029323965 -0.024377847 -0.07590719 -0.078926556
000330 29 a6 8b bc 94 33 81 b9 ed bc 99 bd b9 bb 33 bb
       -0.017047005 -0.00024643226 -0.07506738 -0.0027425124
000340 6e 92 ef bd 1b 7e 67 bd 4e 5a e7 3b fb da 20 be
       -0.11697851 -0.056516748 0.0070603257 -0.15708534
000350 7a 36 32 be 9a b9 56 bd a7 e6 c6 bc eb 64 2b bd
       -0.17403594 -0.052423097 -0.024279905 -0.04184429
000360 b8 2f 35 bd f9 d2 3d 3d 8f 6a 54 bd 8c 88 c1 bc
       -0.04423496 0.046343777 -0.051859435 -0.023624681
000370 f9 d8 d3 3a 64 f6 21 bd 18 32 63 bd 2a 71 dc 3c
       0.0016162685 -0.039541617 -0.055467695 0.02690943
000380 5f d7 0f 3b 00 73 ae 3c d6 32 0c 3c bd 3b a6 bd
       0.002194844 0.02129507 0.008557042 -0.08116863
000390 9d f4 3e 3d 5a 50 2e bc e7 f5 67 bd 4c 58 0c 3d
       0.04662 -0.0106392745 -0.056630995 0.034263894
0003a0 12 51 47 bd 7f 46 87 bd 70 12 41 bd bb 0d 49 3c
       -0.0486613 -0.06605243 -0.047136724 0.01227134
0003b0 ec 36 ac bc f8 ae 08 3d b7 bc 4a bd 7c 71 98 bd
       -0.021022283 0.03336999 -0.04949638 -0.074435204
0003c0 3b 5c 31 bb 00 84 d2 bd 33 24 12 3d 3d ca e2 bd
       -0.002706303 -0.10279083 0.035679054 -0.1107373
0003d0 64 ff 2c be f6 07 d3 3c 29 ea 2b 3d e4 9d 49 bd
       -0.16894299 0.025760632 0.04197136 -0.04922284
0003e0 9a ce a8 3c 70 8d 78 bd ff e1 ce bc af aa e8 bc
       0.020606328 -0.06068176 -0.025254248 -0.0284017
0003f0 c3 13 39 bd 06 84 80 3c 1a bc 86 ba c1 4d 2f be
       -0.045184862 0.015687954 -0.0010279447 -0.17119505

decoder.2.bias f4 [784]
000000 ab 3d 48 bd 9a df 5a bd 77 11 a2 bd 07 ee 74 bd
       -0.048886936 -0.0534359 -0.079134874 -0.059797313
000010 55 99 83 bd cb 13 52 3d 93 9b 20 bd be d2 d9 bd
       -0.0642573 0.051288407 -0.039210867 -0.10635899
000020 35 11 03 bd 52 fd 81 bd 15 52 85 bd 4d 89 b7 bd
       -0.03199883 -0.06347145 -0.065097965 -0.08961735
000030 92 9f 97 bd 7e ae 31 bc c2 46 5e bd e4 4e 89 bd
       -0.074034825 -0.010844825 -0.0542667 -0.067045
000040 9f 87 13 3d 00 29 d9 bd d9 ec b2 bc d9 9c 34 bb
       0.03601801 -0.10603523 -0.021841453 -0.0027559309
000050 8b e7 32 bc 4e f1 d9 bc f4 b6 3b bd 41 a8 b1 3c
       -0.010919462 -0.02660432 -0.045828775 0.021686675
000060 dd 3e 79 3d d6 ae 22 bd d3 99 01 3d 1a 02 41 3d
       0.060850967 -0.039717518 0.03164084 0.047121145
000070 c7 5e 73 bc 95 8d 08 bd d9 bf af 3c 23 b0 d3 bc
       -0.01485414 -0.03333815 0.021453785 -0.025840824
000080 64 97 47 3c 23 11 19 ba d1 36 90 3c e6 8d ba bc
       0.01218209 -0.00058390404 0.017604263 -0.02277274
000090 a4 ec 02 3b 6d ef 32 bd 0e 40 0d 3b 3b 84 44 bd
       0.0019977475 -0.043685365 0.0021553072 -0.047977667
0000a0 b8 4b 79 bd a7 00 29 bc 11 59 e2 3c 44 21 4b bc
       -0.060863227 -0.010315097 0.02763036 -0.012398068
0000b0 b7 71 55 bd a6 2c 9b bd 4c 68 d1 bd da 06 14 3d
       -0.0521104 -0.075768754 -0.10224971 0.036139347
0000c0 8f d3 fa 3c 0d 1a d3 bd 94 39 c4 bc 6a fd 7e bc
       0.030618457 -0.10307703 -0.023953237 -0.015563348
0000d0 dd 95 47 bd 35 64 a9 bd 2f a5 28 bd d9 68 ef bc
       -0.048726905 -0.08271066 -0.041173156 -0.0292248
0000e0 9e a0 17 3d 0a 10 bc bd 72 2e 38 bd 20 9b 95 bd
       0.03701841 -0.09182747 -0.04496617 -0.07304978
0000f0 70 2b dd bd 61 17 ab bd a0 8f a2 bd 1e 85 e9 bb
       -0.10799301 -0.083540685 -0.079375505 -0.0071264645
000100 f4 63 1d 3d 79 40 03 be 8c d1 a0 bd cd 4b 2e be
       0.0384254 -0.12817563 -0.07852468 -0.17021103
000110 ce de c4 bd e1 3b 2d be 5d 20 55 be 73 b3 57 be
       -0.09612809 -0.16917373 -0.20813127 -0.21064548
000120 a4 04 e4 bd 7e da 79 bd dc 8c eb bd 3b f0 19 be
       -0.11133698 -0.060999386 -0.11501476 -0.15033047
000130 66 fc 0f bd 28 6e e2 bd 91 91 22 bd e0 16 30 3d
       -0.035152815 -0.11056167 -0.039689604 0.042990565
000140 2f ac c4 3b 83 02 61 3d 84 37 82 3d e0 1d 83 bd
       0.006001971 0.054934036 0.06358245 -0.064021826
000150 07 d8 33 bd eb 14 80 3d d6 98 b3 3b 1b 85 41 3d
       -0.04390719 0.0625399 0.005480866 0.04724608
000160 c7 60 13 bb 91 03 01 3d c3 4d c1 3c ed 74 0f bd
       -0.0022488104 0.03149754 0.02359665 -0.03502362
000170 8e e2 16 3d 32 1d 07 be 2c 89 81 bd f1 c8 0e be
       0.036837153 -0.13194731 -0.063249916 -0.1394384
000180 10 c2 c2 bd 59 c4 4b be cd 5f 61 be d1 46 7d be
       -0.09509671 -0.1989912 -0.22009201 -0.24734046
000190 31 d6 83 be d0 f9 f9 bd c0 89 1c be c5 94 f2 bd
       -0.25749353 -0.12205851 -0.15286922 -0.11844782
0001a0 78 54 02 bd 52 c9 f9 3b 99 ff c2 3c 0c 90 38 bd
       -0.031818837 0.007622876 0.02380352 -0.04505925
0001b0 98 fb b6 bc c7 67 86 3c 2c e4 57 3d 83 35 06 bd
       -0.022336766 0.016406907 0.052707836 -0.032765877
0001c0 1e ea 03 bd 9c aa b9 bd 74 1c b7 bd 08 81 dc bd
       -0.032205693 -0.09065744 -0.08940974 -0.10766798
0001d0 05 f1 4e 3d b2 29 a5 bd 51 5b 4b bd 72 bc 56 bd
       0.050522823 -0.080645934 -0.049647633 -0.05242581
0001e0 43 42 22 be ef 1f d3 bc b7 d8 9c bd 64 27 23 bd
       -0.1584559 -0.025772063 -0.076585226 -0.039832488
0001f0 84 f7 65 be b9 a2 ac be 5f cd c4 be df b8 a3 be
       -0.22457701 -0.33717898 -0.38437936 -0.31976983
000200 d0 03 85 be af 0d 2e be 66 c4 72 be 94 33 32 be
       -0.2597947 -0.16997407 -0.23707733 -0.17402488
000210 a2 c8 65 bd 01 cc a4 bd 58 65 85 bd ec 81 81 bd
       -0.05609954 -0.08046723 -0.065134704 -0.06323609
000220 ee ee 10 bd 37 d4 45 bd f5 b2 62 3d fc eb 55 3d
       -0.03538411 -0.048298087 0.055346448 0.052227005
000230 d6 39 85 bd 4f 4e b8 bd 22 7a 69 3d 05 88 81 3c
       -0.06505172 -0.08999311 0.05700124 0.01581193
000240 56 e0 88 bc d7 25 a7 3d 8d 54 73 3d e3 85 59 3d
       -0.016708534 0.08161514 0.059406806 0.0531062
000250 69 4d 64 bd 29 33 63 3c fd 35 f8 bd 3f 60 68 be
       -0.055737887 0.013867178 -0.121196724 -0.22692965
000260 b7 f5 49 be 77 2b 89 be 3e ad b3 be b2 46 82 be
       -0.19722639 -0.26790974 -0.3509311 -0.2544456
000270 34 eb 8a be 46 23 41 be 2c 12 85 bd 16 7e e0 bd
       -0.2713257 -0.18861112 -0.06497607 -0.10961549
000280 32 85 ab bd 71 3d 70 3c da 02 1f be ba bf 2b be
       -0.08375014 0.014663086 -0.15528432 -0.16772357
000290 75 8e 18 be da 1d 7e bd 37 8a 65 3d 2a 47 60 bd
       -0.14898093 -0.062040187 0.056040015 -0.054755367
0002a0 bc 51 1c 3b 52 56 84 bd 5d 8d a6 bd 26 b2 b9 bd
       0.0023852428 -0.06461777 -0.08132432 -0.09067182
0002b0 0b 02 83 bd fd 8e db 3d d4 ab 04 3e d7 4e 45 39
       -0.06396874 0.10720632 0.12956172 0.00018816754
0002c0 04 78 8f bc e7 be 89 bd 87 04 2b be 0a 12 52 be
       -0.017513283 -0.06725865 -0.16700946 -0.20514694
0002d0 c5 c7 82 be c4 de 6c be d6 9d 97 be dc 22 34 be
       -0.25543037 -0.23131853 -0.29612607 -0.17591423
0002e0 e2 fe 57 be 73 a2 59 be 8b 69 e1 bd 0d 95 50 be
       -0.21093324 -0.21253376 -0.11006459 -0.20369358
0002f0 6e f5 2a be f1 45 b1 bc d4 56 6a bc 95 61 de bd
       -0.16695186 -0.021639796 -0.014302928 -0.10858456
000300 db 0d 1a be f5 1d ed bd 87 92 67 bd 76 5a dd bd
       -0.15044348 -0.115779795 -0.056536224 -0.1080827
000310 3b 86 81 bd 17 6c d7 bc d3 f7 15 bd 33 57 d0 bd
       -0.063244306 -0.026296658 -0.036613297 -0.10172882
000320 76 42 c3 3d 40 5f cb 3d 26 45 00 3e d8 df a7 3d
       0.09534161 0.09930277 0.12526378 0.08196992
000330 ae f9 0f bd eb e9 10 be f3 1a 67 be 95 5b 13 be
       -0.035150222 -0.14151733 -0.22568874 -0.14390405
000340 d2 7d 97 bd 41 44 5d be 61 57 7b be 7f 36 ae be
       -0.07397045 -0.21608068 -0.24545051 -0.34025952
000350 2e 37 d7 be ba 76 ae be 89 14 c9 be 3d 71 d1 be
       -0.42034286 -0.34074956 -0.3927348 -0.40906706
000360 a4 be 8f be c2 60 56 be 6a ac 52 bd 58 a8 ae bd
       -0.28075135 -0.20935348 -0.051433958 -0.08528203
000370 96 ae e9 bd 11 c4 c1 bd da b6 b5 bd 17 1c 01 bd
       -0.11410253 -0.09461225 -0.08872767 -0.03152093
000380 d0 04 77 bd 9a 4d 68 3c 6a 58 dd bd 15 65 00 be
       -0.060307324 0.014178658 -0.10807879 -0.1253856
000390 a2 8e c1 bd 9f 89 56 bc 49 78 16 bd d2 5c b6 3c
       -0.09451033 -0.013094335 -0.036735807 0.022261057
0003a0 3c d7 0c be dd 73 72 be f9 f0 83 be 56 bb 88 be
       -0.1375398 -0.23677011 -0.25769785 -0.26705426
0003b0 cd 50 52 be 14 b5 4e be 18 9e 9c be 2e 50 f1 be
       -0.20538636 -0.20186263 -0.30589366 -0.47131485
0003c0 43 d4 ea be 71 48 f4 be 27 b1 ca be dd 63 d5 be
       -0.45865068 -0.47711518 -0.39588282 -0.41677752
0003d0 a2 0c 9b be 5d d7 68 be af 7c c4 bc 78 c4 3d 3d
       -0.30283076 -0.22738405 -0.023985235 0.046329945
0003e0 81 c4 21 3c ec 78 07 be 0c 3a f4 bd be 41 d3 bd
       0.00987351 -0.13229722 -0.11925134 -0.10315274
0003f0 b5 1e a8 bd 73 1e 73 3c 67 42 43 3d 56 d0 6d bc
       -0.08208982 0.014838803 0.047670748 -0.014515003
