models/autoencoder_4.pth (torch, 814945 bytes, 8 tensors)

encoder.1.weight f4 [128, 784]
0	0xbcd41225	-0.025887558
1	0x3c0d6144	0.008629147
2	0xbc844027	-0.016143871
3	0xbc3bb05c	-0.011455622
4	0xbc1f9046	-0.009738987
5	0xbc011852	-0.007879334
6	0x3cac005c	0.020996265
7	0x3bff7008	0.0077953376
8	0x3c170528	0.009217538
9	0xbcfdcce3	-0.030981487
10	0x3ceea0ae	0.029129352
11	0xbc3a10d2	-0.011356549
12	0xba8978c0	-0.0010488257
13	0xbc7be05c	-0.015373316
14	0x3d088b79	0.033336136
15	0xbc8fd4b7	-0.017557485
16	0x3d0aeabb	0.033915263
17	0xbc3ded52	-0.011592226
18	0xbd121710	-0.035666525
19	0x3cdf9c32	0.02729616
20	0xbcb698ec	-0.022289716
21	0x3b3a48e0	0.0028424785
22	0x3c8daa3c	0.017293088
23	0xbc0494c0	-0.008092105
24	0x3d0a4881	0.03376055
25	0x3cee3d9e	0.029082116
26	0x3a929360	0.0011182837
27	0xbcc1738c	-0.023614667
28	0x3cbc2268	0.022965625
29	0xbbacdc38	-0.0052752756
30	0xbcc50d8e	-0.024054315
31	0x3cb19652	0.021678124
32	0xbae150e0	-0.001719024
33	0x3acbf3a0	0.0015560277
34	0x3c80ea12	0.015736613
35	0xbbd63330	-0.0065368637
36	0x3c7c6370	0.015404567
37	0x3c64b8c0	0.013960063
38	0xbc0aa604	-0.008462433
39	0x3ca141fa	0.01968478
40	0x3cda215e	0.026627239
41	0xbcaf6430	-0.021410078
42	0xbcb40ad8	-0.021977827
43	0x3b5a5460	0.0033314452
44	0xbce76ef8	-0.028251156
45	0xbcdaaf38	-0.026694879
46	0xbd117b0a	-0.03551773
47	0x3c70bab4	0.014692951
48	0xbbc3fbc8	-0.0059809424
49	0xbcb287c8	-0.021793261
50	0xbb381990	-0.0028091408
51	0x3c092118	0.008369707
52	0xbbc0cb64	-0.005883621
53	0x3cf984c2	0.030458812
54	0xbced340c	-0.028955482
55	0xbc78732e	-0.01516418
56	0xbc1decf8	-0.009639017
57	0xbcfadc0c	-0.030622505
58	0x3c162870	0.0091649145
59	0xbc3a9efc	-0.011390444
60	0xbd0dfcbd	-0.034664858
61	0x3beca8a8	0.007222254
62	0xbd0b101b	-0.033950906
63	0xbcca2911	-0.024677785
64	0x3cb427db	0.02199166
65	0xbb06fe60	-0.0020598397
66	0x3cb255de	0.02176946
67	0x3c7650a0	0.015033871
68	0xbc9a716f	-0.018852917
69	0x3c560a7d	0.013064024
70	0x3bb11a10	0.005404718
71	0x3cde7b8a	0.027158517
72	0xbccb3d3f	-0.024809478
73	0x3b417b13	0.002952282
74	0xbb278101	-0.002555907
75	0xbc7e945f	-0.015538304
76	0xbcc50283	-0.02404905
77	0xb9ded675	-0.00042502923
78	0x3c97b4f0	0.018518895
79	0xbc50657a	-0.012719506
80	0x3c97332b	0.018457016
81	0xbac2baa0	-0.0014856644
82	0x3cdee84a	0.027210373
83	0x3b738ed0	0.003716398
84	0xbcc45f5a	-0.023971248
85	0xbc85d2e0	-0.016335905
86	0x3c95ab60	0.018270195
87	0x3c8c0282	0.01709104
88	0xbcdb731e	-0.02678829
89	0xbb400510	-0.0029299892
90	0x3ccbe01b	0.024887135
91	0xbbaa3805	-0.0051946663
92	0xbd28296c	-0.041055128
93	0xbd0c64d5	-0.03427585
94	0xbbfc20b5	-0.0076943287
95	0xbc72b341	-0.014813245
96	0x3ca8696a	0.020558078
97	0xbcea9f85	-0.028640518
98	0xbcc73bd8	-0.024320528
99	0xbd1efc3a	-0.03881476
100	0xbd0a5b23	-0.03377832
101	0xbbeb5299	-0.0071814773
102	0x3bfbd1f0	0.0076849386
103	0x3cdb91c3	0.026802903
104	0x3c4a6681	0.01235354
105	0x3be93379	0.0071167317
106	0x3c56fafe	0.013121365
107	0xbc9d7f7b	-0.019225826
108	0x3ca4d6bf	0.02012193
109	0x3cda1d5c	0.026625328
110	0xbc82a5b7	-0.01594816
111	0xbcf0acf3	-0.029379344
112	0xbcec750a	-0.028864402
113	0xbba5ee94	-0.005063841
114	0xbcae7023	-0.021293705
115	0xbcc6d2c3	-0.02427042
116	0x3c3c0c74	0.011477578
117	0xbd049e4e	-0.032377534
118	0xbc819aee	-0.015820947
119	0xbc8157e7	-0.015788985
120	0xbc771e48	-0.015082903
121	0xbca03cdf	-0.019560276
122	0xbd2141e8	-0.039369494
123	0x3ccec3c2	0.025239829
124	0xbd23ca33	-0.039987754
125	0x3cb8cfe5	0.02256007
126	0xbd296b2c	-0.041361973
127	0xbd10bd7b	-0.035336953
128	0x3c0c32a1	0.008556993
129	0x3cd61ec7	0.026137723
130	0x3c5c8c24	0.0134611465
131	0x3cc9415e	0.024567302
132	0xbb135ddf	-0.0022486371
133	0xbd2c0e67	-0.042005923
134	0xbc4771eb	-0.012173156
135	0x3c180dd4	0.009280641
136	0xbd045fb0	-0.032317817
137	0x3babc798	0.0052422993
138	0xbb48b930	-0.0030627958
139	0x3b7371e0	0.0037146732
140	0x3cd209fa	0.025639523
141	0xbc8fbb15	-0.017545262
142	0x3c7a0bc8	0.015261598
143	0xbc533612	-0.012891309
144	0xbc3717e0	-0.011175126
145	0x3c1d5b64	0.009604309
146	0x3c0d3296	0.008618018
147	0xbd1aa842	-0.03775812
148	0xbcb11a87	-0.021619095
149	0xbaec662d	-0.0018035822
150	0xbd2a1369	-0.041522417
151	0xbcc00ac8	-0.02344264
152	0xbad13738	-0.0015961891
153	0xbd0ee220	-0.03488362
154	0xbd3152ba	-0.043291785
155	0x3cd0841b	0.025453618
156	0x3c31a9c0	0.010843694
157	0xbd31756a	-0.043324865
158	0xbd252e6a	-0.040327467
159	0x3c09d048	0.0084114745
160	0xbcc169e7	-0.023610068
161	0x3c59da95	0.013296743
162	0xbca7442e	-0.020418253
163	0xbd05e9ad	-0.032693554
164	0xbcf25e21	-0.0295859
165	0x3d0828a9	0.0332419
166	0xbc9c2bd7	-0.019063873
167	0x3cf91506	0.030405533
168	0x3bbd1e88	0.005771462
169	0x3cb7ff0a	0.02246048
170	0x3cda466e	0.026644912
171	0x3ccc2d22	0.024923865
172	0x3cd5b062	0.026085082
173	0x3cb51046	0.022102486
174	0xbcbd353a	-0.02309667
175	0xbced79e0	-0.028988779
176	0x3cc24f3d	0.023719424
177	0xbc9fb095	-0.01949338
178	0xbbd36ff0	-0.006452553
179	0xbcf0bc93	-0.029386794
180	0x3c925e08	0.017867103
181	0x3c874a51	0.016514929
182	0xbc3c8c90	-0.011508122
183	0x3af9244f	0.0019008013
184	0xbd17556a	-0.03694669
185	0xbcded5bf	-0.027201531
186	0x3a32f3e7	0.00068265054
187	0xbd2bf177	-0.041978326
188	0x3cbaab8c	0.022786878
189	0xbce7e1be	-0.028305884
190	0x3bb47d00	0.005508065
191	0xbd115570	-0.03548187
192	0x3aa11be0	0.0012291633
193	0x3c30d718	0.01079347
194	0xbaf67100	-0.0018801987
195	0xbcac3045	-0.02101911
196	0x3cd8d038	0.026466474
197	0x3cc76e08	0.02434446
198	0xbd09e9a4	-0.033670083
199	0x3c854128	0.01626642
200	0xbbb65954	-0.005564848
201	0xbbed85b8	-0.0072486065
202	0xbc60d658	-0.0137229785
203	0x3c93d5a1	0.018046202
204	0x3bf8694d	0.007580912
205	0xbc6769a5	-0.014124309
206	0xbd00bff5	-0.031433064
207	0x3a0f787f	0.00054729724
208	0xbc7f3a2e	-0.015577836
209	0xbcc693df	-0.024240432
210	0xbc8c73c4	-0.017145045
211	0xbd148597	-0.036260214
212	0x3c39a4fa	0.011330837
213	0x3c493e0c	0.0122828595
214	0xbd1b4f45	-0.037917394
215	0x3bb8d816	0.005640994
216	0xbaeae969	-0.0017922345
217	0xbccb5003	-0.024818426
218	0x3c93740a	0.017999668
219	0xb9953e80	-0.0002846606
220	0xbcfaee6e	-0.03063127
221	0x3d0df8e9	0.034661207
222	0xbd030f27	-0.031996872
223	0xbc2edc06	-0.010672575
224	0x3cf52e12	0.029929195
225	0x3d0be673	0.03415532
226	0x3ca4cc88	0.02011706
227	0x3c1259a8	0.0089325085
228	0x3ce2dcbe	0.027693149
229	0xbce014a5	-0.027353594
230	0x3ceaaa35	0.028645614
231	0xbb6552f3	-0.0034992069
232	0xbd31ace1	-0.04337776
233	0xbd327172	-0.04356522
234	0x3c18ca6f	0.009325608
235	0x3bf49fa2	0.007465319
236	0xba2c5c4e	-0.0006575034
237	0xbd3a7ef2	-0.04553122
238	0x3c641c9e	0.0139228385
239	0x3cc7af54	0.024375595
240	0xbcc2c7c2	-0.023776893
241	0x3b035f76	0.0020045913
242	0xbd264192	-0.040589876
243	0xbbdcec5b	-0.006742043
244	0x3a2d8180	0.0006618723
245	0xbcaa3263	-0.02077598
246	0x3c923492	0.017847333
247	0xbcaabc95	-0.020841876
248	0xbb2c1620	-0.0026258305
249	0xbcb8082e	-0.022464838
250	0x3c366e80	0.011134744
251	0xbc84c93a	-0.016209234
252	0xbc84a7d7	-0.016193314
253	0x3ca5275c	0.02016037
254	0x3ccc7916	0.024960082
255	0xbbce5a5c	-0.006297393

encoder.1.bias f4 [128]
0	0xbcfaaa8e	-0.030598905
1	0x3c2c7854	0.010526735
2	0xbdf3b8a3	-0.11900451
3	0xbdf0bbc2	-0.11754562
4	0xbf201c8b	-0.62543553
5	0xbd826ced	-0.06368432
6	0xbcdd76d5	-0.027034203
7	0x3c862a34	0.016377546
8	0xbccb3748	-0.024806634
9	0x3bb21d1a	0.005435598
10	0xbd390ad3	-0.04517634
11	0xbd1890b4	-0.037247375
12	0xbc8df5e1	-0.017329158
13	0xbe9e4e43	-0.30919084
14	0x3ca2b712	0.019862685
15	0xbd11beda	-0.0355824
16	0xbd0d3488	-0.034473926
17	0x3ca65602	0.020304684
18	0xbe583797	-0.21114956
19	0xbb84a600	-0.004048109
20	0x3c93997f	0.018017529
21	0xbeb7eeaa	-0.35924274
22	0xbe2e1443	-0.16999917
23	0xbca4d147	-0.020119322
24	0xbc83c42d	-0.016084755
25	0xbe0284c5	-0.1274596
26	0xbcde59fe	-0.027142521
27	0xbd1feba1	-0.039043073
28	0xbc12328e	-0.008923186
29	0xbbe9ce29	-0.007135172
30	0x3ed1a9e6	0.40949935
31	0x3e37a939	0.17935647
32	0xbe9da7fb	-0.3079222
33	0xbe0b168f	-0.13582824
34	0xbe76972c	-0.24081105
35	0xbc2fd114	-0.010731
36	0xbe2d0723	-0.16897254
37	0x3b7bbdc2	0.0038412665
38	0xbe941c20	-0.28927708
39	0x3e5f3b09	0.21799864
40	0x3cb22f60	0.021751106
41	0xbe7586fe	-0.23977277
42	0x3e92fc3c	0.28708065
43	0xbe382179	-0.17981519
44	0xbcd9114a	-0.026497502
45	0x3d5e9d4a	0.05434922
46	0xbefdfb83	-0.4960595
47	0x3c313c2b	0.010817568
48	0xbd570b1f	-0.05250084
49	0x3c922251	0.017838629
50	0xbd098aba	-0.033579566
51	0xbc593b7c	-0.013258811
52	0xbe233fb9	-0.15942277
53	0x3ba8d7cd	0.0051526786
54	0xbd53a388	-0.051669627
55	0x3d972ce6	0.073816106
56	0x3730f6a0	1.0547839e-05
57	0xbdd23e8c	-0.10265836
58	0x3b5a11e1	0.0033274817
59	0x3cc5791e	0.024105605
60	0xbde50cd6	-0.11184089
61	0xbeb3d13c	-0.3512057
62	0xbca18c36	-0.019720178
63	0xbdb680d8	-0.08911294
64	0x3ea2e28c	0.31813467
65	0xbe826ec8	-0.25475144
66	0x3bc316a9	0.005953629
67	0xbd220da3	-0.039563786
68	0xbcac3267	-0.021020127
69	0xbda817bc	-0.08207652
70	0xbcb5eeca	-0.02220859
71	0xbddd30e2	-0.10800339
72	0xbcfcacff	-0.03084421
73	0xbea53d68	-0.32273412
74	0x3c574537	0.013139061
75	0x3b8da9b8	0.0043232106
76	0xbd7bfc0d	-0.06151967
77	0xbe1ed9e2	-0.15512803
78	0xbe9c99cc	-0.30586088
79	0xbed792ba	-0.4210413
80	0xbd22b530	-0.039723575
81	0xbd62af43	-0.055342924
82	0xbd9ca35b	-0.07648345
83	0xbf188b71	-0.5958777
84	0xbd1c805e	-0.038208358
85	0xbc87564f	-0.016520647
86	0xbeba273d	-0.3635806
87	0xbefcd2a3	-0.49379453
88	0x3ca397e6	0.019969892
89	0xbf27dca2	-0.65571034
90	0xbab2af65	-0.0013632594
91	0xbf3f75b9	-0.74789006
92	0xbcb6d201	-0.022316935
93	0xbe4d1b20	-0.20029879
94	0xbde2355c	-0.11045334
95	0x3b7de7f9	0.0038743003
96	0xbe234c11	-0.15946986
97	0x3c6c3ef0	0.014419302
98	0xbe662878	-0.22476375
99	0xbd059662	-0.03261412
100	0xbeb784be	-0.35843462
101	0xbebb3e8f	-0.36571166
102	0xbe0a724f	-0.13520168
103	0xbf0d001b	-0.55078286
104	0xbf308609	-0.6895452
105	0xbd29bec1	-0.041441683
106	0xbd2b5c6d	-0.04183619
107	0x3c558ded	0.013034326
108	0xbd968034	-0.073486716
109	0x3b1e59dd	0.002416245
110	0xbe6bb17f	-0.23016928
111	0xba44b14f	-0.00075032277
112	0xbe346133	-0.17615204
113	0xbce2cbfa	-0.027685154
114	0x3dd8b475	0.105812944
115	0x3b9071b4	0.0044080857
116	0xbc5f667f	-0.013635277
117	0xbd212327	-0.039340165
118	0xbd84543a	-0.064613774
119	0xbe6929da	-0.22769871
120	0xbd08fdc2	-0.033445127
121	0xbdfba402	-0.122871414
122	0xbc94c9e2	-0.018162671
123	0xbd84077d	-0.06446741
124	0xbd4f2896	-0.050575815
125	0xbf8a4cbb	-1.0804666
126	0xbd176536	-0.036961757
127	0xbd8ac1fe	-0.06775282

encoder.3.weight f4 [4, 128]
0	0x3d0ddb74	0.034633115
1	0x3d14ac9a	0.03629742
2	0xbde2253c	-0.11042258
3	0xbda5c8cf	-0.08094942
4	0xbdd2085b	-0.102555
5	0x3d814668	0.06312257
6	0x3d75d7ae	0.06002014
7	0xbd2e9a07	-0.04262736
8	0x3cbc96f9	0.023021208
9	0xbd910610	-0.070812345
10	0xbdad537e	-0.084631905
11	0x3d4b65e9	0.049657736
12	0x3d9dce89	0.07705409
13	0xbda65bad	-0.081229545
14	0x3d7c3608	0.061574966
15	0xbc4c7d1d	-0.012481001
16	0xbd99507a	-0.07486053
17	0x3b8ecd4e	0.0043579703
18	0xbd8b7b41	-0.06810618
19	0x3d970b41	0.073751934
20	0xbd61f054	-0.055160835
21	0xbe318462	-0.17335656
22	0xbe55c9e8	-0.20877802
23	0xbd6204b8	-0.05518028
24	0x39b616fa	0.00034730864
25	0xbcab2a4f	-0.020894198
26	0x3c34c7e2	0.011033984
27	0x3def79cf	0.11693155
28	0x3c4ad886	0.012380725
29	0x3d936da6	0.07198648
30	0xbee2ad7d	-0.44272986
31	0x3dd40a99	0.10353584
32	0x3edc7b1a	0.4306267
33	0x3e6d354b	0.23164861
34	0xbe081e3e	-0.13292786
35	0x3d70f9c6	0.058831953
36	0xbd05d038	-0.032669276
37	0xbca93641	-0.020655753
38	0xbe852572	-0.2600513
39	0x3f300aeb	0.6876666
40	0x3d0f22b2	0.034945197
41	0x3cf9c16d	0.03048774
42	0xbee19357	-0.44057724
43	0xbd8986a4	-0.06715134
44	0xbdb20d91	-0.08693994
45	0x3d6844d2	0.056706257
46	0x3cb7f0b4	0.022453643
47	0xbb63765c	-0.0034708
48	0xbde4115b	-0.11136123
49	0x3d34d1d5	0.044145424
50	0x3c92d214	0.017922439
51	0x3d7053c3	0.05867363
52	0xbe474286	-0.1945897
53	0xbacf8524	-0.0015832526
54	0xbb5c2e74	-0.0033597024
55	0xbc86f8fa	-0.016476143
56	0xbd91570b	-0.0709668
57	0xbdbbceaf	-0.09170281
58	0xbd0480a2	-0.032349236
59	0x3cce7d98	0.025206372
60	0xbd59a981	-0.053140167
61	0x3c195953	0.009359675
62	0xbd97dca3	-0.0741513
63	0xbd97f67c	-0.0742006
64	0x3da010c3	0.07815697
65	0xbe3f93ff	-0.187088
66	0xbd503c97	-0.050839033
67	0xbbe4ec4c	-0.0069861766
68	0x3c0bf519	0.008542323
69	0x38ea8267	0.00011182279
70	0x3d763a41	0.06011415
71	0xbe5760ff	-0.21033095
72	0x3cac7508	0.021051899
73	0xbe9bb3d5	-0.30410638
74	0x3cb2c26f	0.021821229
75	0x3d66a47e	0.056309216
76	0xbdef6ec8	-0.11691052
77	0xbe4f83d7	-0.20265137
78	0xbdb92048	-0.0903936
79	0xbe0ddfec	-0.1385495
80	0x3da28334	0.07935181
81	0xbda899c1	-0.08232451
82	0xbc30d9aa	-0.010794083
83	0x3d19c3ec	0.03754036
84	0xbcacdd95	-0.021101752
85	0xbdac6b04	-0.08418849
86	0xbdb586f0	-0.08863628
87	0x3eff027b	0.4980658
88	0x3d2356fc	0.039877877
89	0x3e98fafb	0.29878983
90	0x3d8a6462	0.06757428
91	0xbddd51c0	-0.10806608
92	0x3cc95829	0.02457817
93	0xbd3f78bc	-0.046746
94	0xbdcd8490	-0.1003505
95	0x3d87fa68	0.06639558
96	0x3e9d28d8	0.30695224
97	0x3d31ef28	0.043440968
98	0xbe1d47a1	-0.15359356
99	0x3d2f7ee4	0.04284562
100	0xbb083625	-0.0020784226
101	0xbe92d8d9	-0.28681067
102	0xbe56a823	-0.20962577
103	0x3d1f000c	0.038818404
104	0x3d4a06a8	0.049322754
105	0x3e4c2793	0.19936971
106	0xbcbbc888	-0.02292277
107	0xbcc01859	-0.02344911
108	0x3ae857e4	0.0017726389
109	0xbc6975e4	-0.014249299
110	0x3d1ff6d9	0.03905377
111	0x3f65a331	0.89702135
112	0xbdab4812	-0.08363356
113	0x3d943da6	0.07238321
114	0x3e3a0827	0.18167172
115	0xbc9fa633	-0.01948843
116	0xbdce7721	-0.10081316
117	0x3d85ef2d	0.0653976
118	0x3eb5295c	0.35383117
119	0xbe9719f7	-0.29511997
120	0x3ccd25cc	0.025042437
121	0xbd695245	-0.056963224
122	0xbddc8a24	-0.10768536
123	0xbcef1093	-0.029182708
124	0xbd7eaf8e	-0.06217914
125	0xbd474afe	-0.048655502
126	0x3e9b411a	0.30323106
127	0xbddf4d75	-0.10903446
128	0x3d86dbe1	0.06584907
129	0xbcf01473	-0.029306626
130	0xbe21a064	-0.1578384
131	0xbcdc133d	-0.026864642
132	0xbe5d7913	-0.21628217
133	0x3d1ab74b	0.037772458
134	0xbc7b0ed9	-0.015323364
135	0xbd1a6799	-0.037696455
136	0x3cdfca01	0.027318003
137	0x3cfb8f16	0.030707877
138	0x3d2f33ca	0.042774
139	0x3c650463	0.013978097
140	0x3d2a9508	0.041646034
141	0xbd154be5	-0.03644933
142	0x3d57b008	0.05265811
143	0xbd153998	-0.03643188
144	0x3d67fd4a	0.05663804
145	0x3d363d2f	0.044491943
146	0xbdd51517	-0.10404413
147	0x3d474905	0.04865362
148	0x3d414ada	0.047190525
149	0xbe5cef0d	-0.21575566
150	0x3d824053	0.06359925
151	0x3d780176	0.06054827
152	0xbd3a0168	-0.045411497
153	0xbdaa223e	-0.083073124
154	0x3c08d794	0.008352179
155	0x3c7904dc	0.0151989125
156	0x3b3a5f7a	0.0028438256
157	0x3d8773f4	0.06613913
158	0xbeea50bb	-0.45764717
159	0xbe7a1c4b	-0.24424855
160	0xbdbfdce2	-0.09368302
161	0x3d842451	0.06452239
162	0xbe218885	-0.15774734
163	0xbda0f061	-0.07858349
164	0xbcb70e0e	-0.022345569
165	0xbbb3d732	-0.0054882998
166	0xbdae9517	-0.085245304
167	0xbe8591c4	-0.26087773
168	0xbb415678	-0.0029501002
169	0xbd129051	-0.035782162
170	0xbe23732f	-0.15961908
171	0xbc825e9e	-0.015914258
172	0x3da10c7d	0.0786371
173	0xbcc7b3ef	-0.024377791
174	0xbeb74dc0	-0.35801506
175	0xbd42345d	-0.04741322
176	0xbbe9f904	-0.0071402807
177	0x3d667391	0.056262556
178	0x3d5bf22e	0.053697757
179	0x3c64c435	0.013962795
180	0xbdea6729	-0.114454575
181	0xbdba22cc	-0.09088668
182	0x3d07a2f0	0.033114374
183	0xbda8850f	-0.08228504
184	0x3d58d4b6	0.052937232
185	0xbd71d689	-0.059042487
186	0x3b8a0418	0.004211914
187	0xbcb6871d	-0.022281224
188	0xbe7e433a	-0.24830332
189	0xbcf02df0	-0.02931878
190	0x3d8980a8	0.06713992
191	0xbdf0799c	-0.11741945
192	0x3eaaf76a	0.33391887
193	0xbe1acd7f	-0.15117453
194	0x3d694b15	0.05695637
195	0xbd6da375	-0.058017213
196	0x3d7fec2c	0.06248109
197	0xbda9c5bd	-0.08289669
198	0x3d35531b	0.04426871
199	0x3e5362ec	0.20643204
200	0x3d9446c0	0.07240057
201	0xbdd5d70a	-0.10441406
202	0xbd87640f	-0.066108815
203	0x3c7e21cc	0.0155109875
204	0x3e403845	0.18771465
205	0xbdf73054	-0.12069765
206	0xbe185b0c	-0.14878482
207	0xbdf81cd3	-0.12114873
208	0xbd00cad8	-0.031443447
209	0xbd2b92b9	-0.041887973
210	0xbd7e787b	-0.062126618
211	0x3df2e46a	0.11859973
212	0xbd3ffe16	-0.046873175
213	0x3d3973f3	0.045276593
214	0xbc8c7830	-0.017147154
215	0xbefd3aa2	-0.49458796
216	0xbd803c89	-0.06261546
217	0x3d8a8e81	0.06765462
218	0xbd9707d7	-0.07374542
219	0xbeb49377	-0.35268757
220	0x3d76e231	0.060274307
221	0x3e13dd00	0.14439774
222	0x3db157ee	0.086593494
223	0xbdc417de	-0.09574865
224	0xbc4a41b8	-0.01234477
225	0x3c1131d6	0.0088619795
226	0xbd23d9ab	-0.040002506
227	0xbc876895	-0.01652936
228	0xbf1b08f6	-0.6056055
229	0xbf0ee830	-0.5582304
230	0x3d02c1f2	0.031923242
231	0x3d56d98b	0.05245356
232	0x3df689c3	0.12037995
233	0xbe7656f0	-0.24056602
234	0x3d4a0bd8	0.0493277
235	0x3c9781dc	0.018494539
236	0xbc1c5312	-0.00954129
237	0xbc597e20	-0.013274699
238	0xbe257388	-0.16157353
239	0xbd344694	-0.04401262
240	0x3e0caa38	0.13736808
241	0x3d722039	0.05911276
242	0xbe6bdae7	-0.23032723
243	0x3d87b80c	0.06626901
244	0x3d53ee2b	0.051740807
245	0xbd983746	-0.074324176
246	0x3de89e0d	0.11358271
247	0x3c929e0c	0.017897628
248	0x3c53f2b0	0.012936279
249	0xbdd7aed2	-0.10531391
250	0xbd00242b	-0.031284492
251	0xbe2de2ae	-0.16981003
252	0xbf3c34ee	-0.73518264
253	0xbbc0eb28	-0.005887408
254	0x3e9735a7	0.2953312
255	0x3dc14e45	0.09438757

encoder.3.bias f4 [4]
0	0xbc30f7ec	-0.010801297
1	0x3dbb9ad5	0.09160391
2	0xbde41aba	-0.1113791
3	0xbd004511	-0.031315867

decoder.0.weight f4 [128, 4]
0	0x3f1af22f	0.6052579
1	0x3f38b378	0.7214885
2	0x3f0f9e03	0.5610048
3	0x3cc3761d	0.023860032
4	0xbb9bed76	-0.004758532
5	0x3e34dad1	0.17661597
6	0xbf38080c	-0.7188728
7	0x3efb7a1f	0.49116609
8	0x3d0a5fd7	0.033782806
9	0x3f33e572	0.7027198
10	0xbe3e467a	-0.18581572
11	0x3eab7504	0.33487713
12	0xbef0d239	-0.47035387
13	0x3fac03bd	1.3438641
14	0xbecdc6e5	-0.40190807
15	0xbe3af0ee	-0.1825597
16	0x3d4e7e39	0.050413344
17	0xbe219173	-0.1577814
18	0x3c24cc03	0.010058406
19	0xbd1390a9	-0.03602663
20	0xbe267970	-0.16257262
21	0xbef8e5ae	-0.48612732
22	0xbdfcc836	-0.12342875
23	0xbf4a911b	-0.79127663
24	0xbf3d5fc6	-0.73974264
25	0x3eae84ce	0.34085697
26	0xbe95e8e9	-0.2927926
27	0xbe52da6b	-0.20591132
28	0xbea5460c	-0.32280004
29	0xbe59e2fc	-0.21277994
30	0xbf0a9c5c	-0.54144835
31	0xbf845ace	-1.0340211
32	0xbe81ff83	-0.25390252
33	0x3e86b948	0.26313233
34	0x3f20c6c3	0.62803286
35	0xbeb73f9d	-0.3579072
36	0xbe17c045	-0.14819439
37	0xbe8d02e8	-0.2754128
38	0xbd9b05c7	-0.07569461
39	0x3df09c6d	0.11748586
40	0xbd41c530	-0.047307193
41	0x3f370b7e	0.7150191
42	0xbf6bbb99	-0.92083126
43	0x3f0c0fd7	0.5471167
44	0xbe2039f0	-0.15647101
45	0xbdf04413	-0.11731734
46	0x3e5ebdda	0.2175211
47	0x3e7636f0	0.24044394
48	0xbe5f6122	-0.21814397
49	0xbe983822	-0.29730326
50	0x3ecda216	0.40162724
51	0xbe718fe6	-0.23590049
52	0xbf319337	-0.6936526
53	0x3ebd659a	0.36991578
54	0xbf292b98	-0.66082144
55	0x3d5829fa	0.052774407
56	0x3bdeb288	0.006796185
57	0xbee04651	-0.43803647
58	0xbf01d16d	-0.50710183
59	0xbe81928e	-0.25307125
60	0x3f561562	0.8362638
61	0x3f168b2f	0.5880613
62	0xbef42322	-0.47683054
63	0x3e945f41	0.28978923
64	0x3f7292fd	0.94755536
65	0xbe9c0e28	-0.3047955
66	0x3df894d8	0.12137765
67	0x3dfdbaa7	0.12389117
68	0x3ea350cf	0.3189759
69	0xbeec6807	-0.46173117
70	0x3e3c165f	0.18367909
71	0x3db620f1	0.08893002
72	0x3dc7e648	0.097607195
73	0xbd02da01	-0.031946186
74	0x3d042c6e	0.032268934
75	0x3ea7666e	0.32695335
76	0x3f476151	0.7788287
77	0x3f3dac75	0.74091274
78	0x3eb4b78a	0.3529628
79	0x3e1d09fe	0.15335843
80	0xbe42652b	-0.18983905
81	0xbee81d43	-0.45334825
82	0x3e74dd4f	0.23912548
83	0xbe2204e8	-0.15822184
84	0xbde7d151	-0.11319221
85	0xbe1c2de0	-0.15251875
86	0x3d845c5a	0.06462927
87	0x3d2d79bf	0.042352434
88	0xbdbad4c7	-0.09122615
89	0xbd964b73	-0.073386095
90	0x3dc8038e	0.09766303
91	0x3de674d6	0.112527534
92	0xbe8b20de	-0.27173513
93	0x3f270aba	0.6525074
94	0x3f12931d	0.5725573
95	0x3cf24a5e	0.029576477
96	0x3eba8838	0.36432052
97	0xbea03be6	-0.312957
98	0x3f07a63d	0.52988034
99	0xbe8e5137	-0.27796337
100	0xbcc744a0	-0.024324715
101	0xbd526218	-0.05136308
102	0xbb7c9d8d	-0.0038546056
103	0x3d53da3b	0.051721793
104	0xbdecb6fb	-0.11558338
105	0x3e8fb654	0.28068793
106	0x3e8b55b4	0.27213824
107	0x3eb49975	0.35273328
108	0x3d892c83	0.06697943
109	0xbe237620	-0.1596303
110	0x3dd369ac	0.1032289
111	0x3eafaf96	0.3431365
112	0x3e6f012b	0.2334029
113	0x3f9ff81b	1.2497591
114	0xbf350140	-0.7070503
115	0x3c22f910	0.009947076
116	0x3c6f0eb0	0.014590904
117	0xbd013c08	-0.03155139
118	0x3d6b281e	0.057411306
119	0xbce8f600	-0.028437614
120	0xbd1c4fe8	-0.038162142
121	0x3d3c8d6e	0.046033315
122	0x3c524d23	0.012835774
123	0x3e0c7626	0.13716945
124	0xbe27203a	-0.16320887
125	0x3eed16a5	0.4630634
126	0x3ea3907f	0.3194618
127	0x3ee112d7	0.43959686
128	0xbee02baa	-0.43783313
129	0xbe83cb2e	-0.2574095
130	0xbef5ad11	-0.47983602
131	0xbf0e70b1	-0.55640703
132	0x3f2b4cef	0.66914266
133	0xbe0892a3	-0.13337187
134	0x3f228837	0.634891
135	0xbea17b23	-0.31539258
136	0x3e5d7dce	0.21630022
137	0x3eba65f0	0.36405897
138	0x3f0bd1ec	0.5461719
139	0x3db2e7ec	0.08735642
140	0xbcfa65f8	-0.0305662
141	0x3ec35076	0.38147324
142	0x3f295e73	0.66159743
143	0xbf081fa1	-0.5317326
144	0x3f2c5fcd	0.6733368
145	0x3e164358	0.14674127
146	0x3eba1f3b	0.36351952
147	0x3e75a074	0.2398699
148	0x3eab2dc9	0.3343337
149	0xbe75f8ca	-0.24020687
150	0xbeba4c7c	-0.36386478
151	0xbe7ff683	-0.2499638
152	0x3c674c6a	0.01411734
153	0x3d5cea48	0.053934366
154	0xbc8264e0	-0.015917242
155	0xbd3668cf	-0.044533547
156	0x3d0c0cef	0.034192022
157	0xbd90c8fe	-0.07069586
158	0xbbc75d34	-0.0060841087
159	0x3c24ab30	0.01005058
160	0xbe7674c8	-0.24067986
161	0xbd806293	-0.062688015
162	0xbd339534	-0.043843463
163	0x3d56d672	0.052450605
164	0xbe1dc883	-0.1540852
165	0x3e6cbf36	0.23119816
166	0xbf3a8247	-0.7285504
167	0x3e9340e9	0.2876046
168	0x3d096393	0.033542227
169	0x3f9b5bf0	1.2137432
170	0x3ea697ec	0.32537782
171	0xbe3cae38	-0.18425834
172	0x3f284c51	0.6574145
173	0xbe7988ad	-0.24368544
174	0xbedbd3a2	-0.429349
175	0x3eb22e8b	0.34801134
176	0xbdfcaf45	-0.123381175
177	0xbd1c34d0	-0.038136303
178	0x3c0b3bff	0.008498191
179	0x3d476330	0.048678577
180	0x3db1d0ea	0.08682425
181	0x3dcab6d8	0.09898156
182	0x3dfd6552	0.12372841
183	0x3ebe9754	0.3722483
184	0x3e748bb8	0.23881423
185	0x3c8a6f78	0.016898856
186	0x3e82bbf9	0.25534037
187	0x3dcf23be	0.10114239
188	0xbd3ab472	-0.045582242
189	0xbe16572b	-0.1468169
190	0x3e450c04	0.19242865
191	0xbe113918	-0.14181936
192	0xbe111db3	-0.14171486
193	0xbdaff53c	-0.085916966
194	0x3edac0e4	0.4272529
195	0xbf2dc778	-0.6788249
196	0x3e2f0b23	0.17094092
197	0xbe9193c0	-0.28433037
198	0x3e361b35	0.17783816
199	0x3ddfba82	0.109242454
200	0x3c6bf956	0.014402708
201	0xbde41038	-0.11135906
202	0x3e14c4b0	0.14528155
203	0xbdb5ad8e	-0.088709936
204	0xbec3c597	-0.38236687
205	0x3e15a91b	0.1461529
206	0x3d359868	0.0443348
207	0x3d722494	0.059116915
208	0xbd953d4b	-0.07287081
209	0xbddf22f5	-0.108953394
210	0x3df0c33f	0.1175599
211	0x3e1d50be	0.15362832
212	0x3e5bb096	0.21454081
213	0xbdb8ec4c	-0.09029445
214	0xbd6548d1	-0.055977646
215	0x3e3f0df3	0.18657665
216	0xbdc722c0	-0.09723425
217	0xbe37093d	-0.17874618
218	0x3df7724c	0.12082347
219	0x3e537def	0.20653509
220	0x3d4426f4	0.04788871
221	0xbdbccff7	-0.09219354
222	0x3d7ab3f8	0.061206788
223	0x3e8b39cb	0.2719253
224	0xbe0cf45c	-0.1376509
225	0xbdeb12f4	-0.114782244
226	0x3cd5a744	0.026080735
227	0xbe178594	-0.1479705
228	0xbc274f92	-0.010211842
229	0xbc83c456	-0.016084831
230	0x3d95d62e	0.07316242
231	0xbd2dbfce	-0.042419247
232	0xbe0b0e49	-0.13579668
233	0xbde24234	-0.110477835
234	0x3ec4275d	0.38311282
235	0xbef35f84	-0.4753381
236	0x3ea005f1	0.31254533
237	0xbe6326ff	-0.22182845
238	0x3bd97f79	0.0066375104
239	0x3da6628d	0.08124266
240	0x3eb01767	0.34392855
241	0xbf093eb6	-0.53611314
242	0xbd23947c	-0.039936528
243	0xbe8f6a71	-0.28010896
244	0xbde23b3d	-0.11046455
245	0xbe0111c2	-0.1260443
246	0x3e4cd43f	0.2000284
247	0xbd86fe36	-0.06591456
248	0xbefd8020	-0.49511814
249	0x3f0ac84c	0.5421188
250	0x3e1b8e56	0.15191016
251	0x3c795084	0.01521695
252	0xbeaef48f	-0.34170958
253	0x3eb4f469	0.3534272
254	0x3d6eb55c	0.058278427
255	0x3e3e54b7	0.18587004

decoder.0.bias f4 [128]
0	0x3e1c5841	0.15268041
1	0x3f65bbaa	0.8973948
2	0x3f8f5e49	1.1200649
3	0x3d949254	0.072544724
4	0x3e63e1b7	0.22254072
5	0x3eda9ad9	0.42696264
6	0xbf83208a	-1.0244305
7	0x3eea7958	0.45795703
8	0x3c01f4d4	0.007931907
9	0xbfa96599	-1.323413
10	0xbeeff41d	-0.4686593
11	0xbf8ee47a	-1.1163476
12	0xbed1a8ca	-0.40949088
13	0xbeb54274	-0.35402262
14	0x3f3e3bb1	0.7430983
15	0xbea179a1	-0.31538108
16	0xbc564e4d	-0.013080192
17	0xbfa988c7	-1.3244866
18	0x3e6d3caf	0.2316768
19	0xbf36e05b	-0.7143609
20	0xbfa6851f	-1.3009375
21	0xbfe101e2	-1.75787
22	0xbf3aec19	-0.73016506
23	0xbf3b13af	-0.7307691
24	0x3ec46314	0.3835684
25	0x3eca0e39	0.39463976
26	0x3ebe16d6	0.37126797
27	0xbf8aa09d	-1.0830265
28	0x3e8a0727	0.26958582
29	0x3f86a8c3	1.0520252
30	0x3f2d663d	0.6773413
31	0xbf5181d2	-0.81838715
32	0x3eacd1ea	0.33753902
33	0xbf897948	-1.0740137
34	0x3f9a1633	1.2038025
35	0xbeb6f0f0	-0.35730696
36	0xbe71d0e0	-0.23614836
37	0x3ee9fcb6	0.45700616
38	0x3fab7295	1.3394343
39	0x3e78415d	0.24243684
40	0xbe4bd521	-0.19905521
41	0xbf673ede	-0.903303
42	0xbf0f602b	-0.56006116
43	0x3f917f95	1.136706
44	0x3da43563	0.08017995
45	0x3ef02366	0.46902007
46	0x3f6450de	0.89185894
47	0x3f26c3e3	0.6514265
48	0xbebf3c0a	-0.37350494
49	0x3f26855d	0.65047246
50	0x3f0ad58f	0.54232115
51	0xbf40a34f	-0.7524919
52	0xbf75834c	-0.9590347
53	0x3f607adb	0.8768746
54	0xbfd5196a	-1.6648381
55	0xbef31e2f	-0.47483966
56	0xbe15c1d1	-0.14624716
57	0x3fa2e447	1.2725915
58	0x3f7bc0c7	0.9834103
59	0x3f65978f	0.89684385
60	0x3cd4fac9	0.02599849
61	0xbf2e9dc9	-0.6820951
62	0x3e4673e5	0.19380148
63	0x3f6b726d	0.91971475
64	0x3e911fc9	0.28344563
65	0x3f5fc1aa	0.8740488
66	0x3f5360b3	0.82569426
67	0xbece2f40	-0.40270424
68	0x3eff0d61	0.49814895
69	0xbf208181	-0.6269761
70	0xbc92c47b	-0.017915955
71	0xbfb195df	-1.3873862
72	0x3f11a0a1	0.56885725
73	0xbf9c8b50	-1.2230015
74	0x3f855d75	1.0419146
75	0xbd0c84ac	-0.034306213
76	0xbd5c7fab	-0.05383269
77	0xbf4d9794	-0.80309415
78	0x3e045aad	0.12925215
79	0x3f21d723	0.632189
80	0x3ef7f060	0.4842558
81	0x3f115650	0.5677233
82	0x3ea13567	0.31486055
83	0x3f854f5e	1.0414846
84	0x3e10b790	0.14132524
85	0x3f654743	0.8956186
86	0x3f3c1b48	0.7347913
87	0x3f3908fd	0.7227934
88	0xbf3a1a0e	-0.72696006
89	0x3f454dba	0.77071726
90	0xbf2970d7	-0.66187805
91	0x3e8b2923	0.27179822
92	0x3eba5c15	0.36398378
93	0x3f114163	0.567404
94	0x3e8f8129	0.2802823
95	0xbf207f2d	-0.62694055
96	0xbe8a140b	-0.26968417
97	0xbff08c70	-1.8792858
98	0xbea11702	-0.31462866
99	0xbfb68970	-1.4260693
100	0xbef74cd6	-0.4830081
101	0xbe4a50b1	-0.19757344
102	0xbfb7a62d	-1.4347588
103	0x3ef97868	0.48724675
104	0xbdaca9a1	-0.08430792
105	0x3eddfe00	0.4335785
106	0x3f2d36e7	0.676619
107	0xbe5b935e	-0.21442935
108	0xbf60a901	-0.8775788
109	0xbf334f66	-0.7004303
110	0xbf5fd2a1	-0.8743077
111	0x3ec5d83c	0.38641536
112	0x3eb50544	0.3535558
113	0x3df2619b	0.11835023
114	0x3ee3aa28	0.44465756
115	0x3dc758d1	0.09733737
116	0x3ed849cd	0.42243806
117	0x3f52da19	0.8236404
118	0xbebd5a4f	-0.36982962
119	0x3eaa2c22	0.33236796
120	0xbf606b22	-0.8766347
121	0x3f2d1965	0.67616874
122	0xbeb6fb07	-0.35738394
123	0xbe99a227	-0.30006525
124	0xbdb48d5c	-0.08816025
125	0x3faadc86	1.3348548
126	0x3f2bffe5	0.6718734
127	0x3ee8480c	0.45367467

decoder.2.weight f4 [784, 128]
0	0xbe994c88	-0.299412
1	0xbcd32c0d	-0.025777841
2	0xbdce2a32	-0.10066642
3	0xbec8bad2	-0.39205033
4	0xbd97bc01	-0.07408906
5	0xbd927bb2	-0.07152499
6	0xbec5821b	-0.38575825
7	0xbf0ac374	-0.5420449
8	0xbeccf301	-0.40029147
9	0xbdc3fc41	-0.09569598
10	0xbeb5e327	-0.35524866
11	0xbdc681f3	-0.096927546
12	0xbf34f877	-0.7069163
13	0xbf1b44eb	-0.60652035
14	0xbdb23227	-0.08700972
15	0x3c13d582	0.009023072
16	0xbf0dd377	-0.55400795
17	0x3d084541	0.03326917
18	0xbe0b2949	-0.13589968
19	0xbe2605ba	-0.16213122
20	0xbf1528c1	-0.5826531
21	0xbcab84c5	-0.020937333
22	0x3cb5aa1c	0.022175841
23	0xbe8f87d7	-0.28033325
24	0xbdb2e97f	-0.08735942
25	0xbdb41880	-0.087937355
26	0xbcbbac1d	-0.022909218
27	0x3d4836d7	0.048880424
28	0xbd722824	-0.059120312
29	0x3c8b2bec	0.016988717
30	0xbcfb508e	-0.03067806
31	0xbd98a5bb	-0.074534856
32	0xbc4f0002	-0.012634279
33	0xbe6dafce	-0.23211595
34	0xbd49687c	-0.04917191
35	0xbe6c863d	-0.23098083
36	0xbd945483	-0.07242682
37	0x3c3be44d	0.011468005
38	0xbc919b31	-0.017774196
39	0xbd9f5366	-0.07779579
40	0xbdab7bff	-0.0837326
41	0xbe7f1ce7	-0.24913369
42	0xbe25fa58	-0.1620878
43	0xbe1570fb	-0.1459388
44	0x3c2ed593	0.010671037
45	0xbdb4bc9e	-0.088250384
46	0xbe013ac0	-0.12620068
47	0xbdb4d76c	-0.08830151
48	0xbe05287e	-0.13003728
49	0xbd57665f	-0.052587863
50	0xbc534f9b	-0.012897397
51	0x3d408a95	0.047007162
52	0xbc869498	-0.016428277
53	0xbe7ae7bc	-0.24502462
54	0xbcf2afd2	-0.029624853
55	0xbdd75510	-0.10514271
56	0xbd8a08d3	-0.06739964
57	0x3c3b8a32	0.011446523
58	0xbd96dabd	-0.0736594
59	0xbc64ffec	-0.013977032
60	0x3b939b65	0.0045046085
61	0xbbf8806a	-0.0075836675
62	0xbf33fb8e	-0.70305717
63	0xbe063cd5	-0.13109143
64	0xbe63a5e7	-0.22231255
65	0xbe3d2f32	-0.18475035
66	0xbddabbc8	-0.10680348
67	0xbeab8e64	-0.33507073
68	0xbd5bbd13	-0.053647112
69	0xbeff1e98	-0.4982803
70	0xbd860bba	-0.065452054
71	0x3d50d61a	0.050985433
72	0xbd2a6326	-0.04159846
73	0xbd49b741	-0.04924703
74	0xbd33ebcf	-0.043926056
75	0xbddd0049	-0.1079107
76	0x3d316e51	0.043318097
77	0xbe942ddf	-0.28941247
78	0xbee4f191	-0.4471555
79	0x3b8f021f	0.0043642665
80	0xbd296ddb	-0.041364532
81	0xbd6b952b	-0.057515305
82	0xbbc156c2	-0.005900235
83	0xbd8b07f9	-0.0678863
84	0xbc8c4829	-0.017124252
85	0xbcd50413	-0.02600292
86	0xbcf01e87	-0.029311432
87	0x3c81fa63	0.015866464
88	0xbd515bc5	-0.05111291
89	0xbdccba43	-0.09996464
90	0xbd4e510e	-0.05037027
91	0xbe6a3986	-0.22873506
92	0xbd066a17	-0.03281602
93	0xbe0889e3	-0.1333385
94	0xbdec9728	-0.11552268
95	0xbf39c64b	-0.72568196
96	0xbcd71803	-0.026256567
97	0x3d48ef69	0.049056444
98	0x3c557cca	0.01303024
99	0xbdf1817d	-0.11792276
100	0xbccc53f6	-0.02494238
101	0xbc3e8dc9	-0.011630484
102	0x3cca04a3	0.024660414
103	0x3cdf2f89	0.027244346
104	0x3d101562	0.035176642
105	0xbdc33f11	-0.09533513
106	0xbe1bf51b	-0.15230219
107	0x3d2691b4	0.040666297
108	0xbe949732	-0.29021603
109	0xbe9d3cb1	-0.30710366
110	0xbd3f4f91	-0.04670674
111	0x3d18ff66	0.037352942
112	0xbdd00ee1	-0.10159088
113	0xbddd491d	-0.10804961
114	0xbc48492a	-0.012224475
115	0xbd725115	-0.059159357
116	0x3cfa7468	0.030573085
117	0xbd681f88	-0.056670696
118	0xbc3ef44d	-0.0116549255
119	0xbc2600af	-0.010131999
120	0xbd9ce27b	-0.07660385
121	0xbdee8480	-0.11646366
122	0xbcc08fd6	-0.023506086
123	0xbe90542e	-0.28189224
124	0xbdd90f9f	-0.105986826
125	0xbe03668b	-0.12832086
126	0xbbb24844	-0.0054407436
127	0xbe04596d	-0.12924738
128	0xbeae7f1e	-0.34081358
129	0x3bb4e7d8	0.005520802
130	0xbd30f6ce	-0.04320412
131	0xbeaa575d	-0.33269778
132	0xbc8003fd	-0.015626902
133	0xbdf5beaf	-0.11999261
134	0xbecb2379	-0.396755
135	0xbee8a43f	-0.4543781
136	0xbec3516c	-0.38148057
137	0xbdbf19db	-0.093311034
138	0xbe972111	-0.29517415
139	0xbd643839	-0.05571768
140	0xbf62b063	-0.88550395
141	0xbf12dd5e	-0.5736903
142	0xbe11dc78	-0.14244258
143	0x3c9fff57	0.019530935
144	0xbf362655	-0.7115224
145	0xbddd76f8	-0.10813707
146	0xbdac2699	-0.084057994
147	0xbe487208	-0.1957475
148	0xbdd7863d	-0.10523651
149	0xbd5d9a8c	-0.054102466
150	0x3d039912	0.0321284
151	0xbe2210af	-0.15826677
152	0xbd37e2f3	-0.04489417
153	0xbdde9970	-0.1086911
154	0x3cfe96fa	0.03107785
155	0xbd9d0534	-0.07667008
156	0xbe2d957a	-0.16951552
157	0xbc334302	-0.010941269
158	0xbd431ce5	-0.047634978
159	0xbdb2aa06	-0.08723836
160	0xbd082b86	-0.033244632
161	0xbe8e08f4	-0.27741206
162	0xbe39ffbf	-0.18163966
163	0xbe53e623	-0.20693259
164	0xbdc663c4	-0.096869975
165	0xbdb9fdc8	-0.09081608
166	0xbe0e9c81	-0.13926889
167	0x3bd36ca3	0.0064521595
168	0xbc8d495a	-0.01724689
169	0xbedbd4f9	-0.42935923
170	0xbe2100f5	-0.15723021
171	0xbe0ba044	-0.13635355
172	0x3c293fb2	0.010330128
173	0xbe051d10	-0.12999368
174	0xbc2b8de0	-0.010470837
175	0xbe043000	-0.12908936
176	0xbe0f95d6	-0.14022002
177	0x3c721093	0.014774459
178	0xbcff0c67	-0.031133844
179	0x3d4126b1	0.04715604
180	0xbd8c31d4	-0.068454415
181	0xbe4d8739	-0.20071115
182	0x3c805492	0.015665326
183	0xbd4282d0	-0.047488034
184	0xbdbd0c06	-0.09230809
185	0xbdafb820	-0.08580041
186	0xbde68d58	-0.11257428
187	0xbc83fc11	-0.016111406
188	0xbbf355f2	-0.007426017
189	0x3d0cab44	0.03434302
190	0xbf455441	-0.77081686
191	0xbe0a127e	-0.13483617
192	0xbe8ede6f	-0.27904078
193	0xbd6ce309	-0.057833705
194	0xbe31b0e0	-0.17352629
195	0xbebd5468	-0.3697846
196	0xbdc1593f	-0.094408505
197	0xbeef528e	-0.46742672
198	0xbbe1a7fb	-0.00688648
199	0xbd6f9d43	-0.058499586
200	0x3d878a0f	0.066181295
201	0xbdc57490	-0.09641373
202	0xbd7cdf46	-0.061736368
203	0xbd92724d	-0.071507074
204	0xbd18b71d	-0.037284005
205	0xbec929ab	-0.39289603
206	0xbeed671e	-0.46367735
207	0x3c88a1c2	0.016678695
208	0xbd55a601	-0.052160267
209	0x3c8c343b	0.01711475
210	0x3bc076bd	0.0058735297
211	0x3d41ddad	0.047330547
212	0xbd8e3b8f	-0.06944954
213	0xbd3001b3	-0.04297037
214	0xbd3eea8f	-0.04661041
215	0xbd4ffc93	-0.050777983
216	0xbd928ed3	-0.07156148
217	0xbb8b1b1b	-0.0042451746
218	0xbdd881ef	-0.10571658
219	0xbe562540	-0.20912647
220	0xbc826caf	-0.015920965
221	0xbd0fd370	-0.035113752
222	0xbda7b63f	-0.081890576
223	0xbf59e653	-0.8511707
224	0x3d410de1	0.047132377
225	0x3c81bc33	0.01583681
226	0xbcf4ef8a	-0.029899377
227	0x3d4f797d	0.05065297
228	0xbd0e480b	-0.034736674
229	0xbdd48962	-0.10377766
230	0x3ca281a1	0.019837203
231	0x3cfadea0	0.030623734
232	0xbc89d44a	-0.01682486
233	0x3d640459	0.05566821
234	0xbd54dd75	-0.05196901
235	0x3ca55f26	0.020186972
236	0xbe8ca945	-0.27472892
237	0xbf093681	-0.5359879
238	0xbc196347	-0.0093620485
239	0xbe0b82bf	-0.13624094
240	0xb8af4d0c	-8.3590014e-05
241	0xbd9d5c10	-0.07683575
242	0xbca74db9	-0.020422803
243	0x3b5cd5c7	0.0033696757
244	0x3cd5ddab	0.026106676
245	0xbdfa2592	-0.12214197
246	0xbd3d700f	-0.046249446
247	0x3a004911	0.00048937
248	0x3d09813d	0.033570517
249	0x3cf9173c	0.030406587
250	0xbcac1986	-0.021008264
251	0xbe60a8d2	-0.219394
252	0xbd81ffa4	-0.06347588
253	0x3c9014d4	0.017588057
254	0xbdb80bdd	-0.08986638
255	0xbda4b21a	-0.08041783

decoder.2.bias f4 [784]
0	0xbda21042	-0.07913257
1	0xbe0a825c	-0.1352629
2	0x3d0f46bd	0.03497957
3	0xbd7b00ad	-0.06127994
4	0xbd20a19c	-0.039216623
5	0x3cfdcbd7	0.030980987
6	0x3d385934	0.045006946
7	0xbc04c352	-0.008103209
8	0xbdd29b19	-0.10283489
9	0xbce2ac8f	-0.027670173
10	0xbde3fb7c	-0.11131951
11	0x3be01dcf	0.006839491
12	0xbd475ae2	-0.048670657
13	0x3ce23914	0.027615108
14	0xbdafbe7b	-0.08581253
15	0xb865f9ab	-5.4830376e-05
16	0x3c3ab53a	0.011395747
17	0xbda7e2bb	-0.08197542
18	0xbcc436df	-0.023951946
19	0x3cc76444	0.024339803
20	0xbcb78966	-0.022404384
21	0xbd8516a0	-0.06498456
22	0x3affe22c	0.001952236
23	0xbdad24bd	-0.08454273
24	0xbded99da	-0.116016105
25	0xbbbe2424	-0.005802648
26	0x3c95c5ec	0.018282853
27	0xbdad07d9	-0.084487624
28	0xbd9d964e	-0.07694684
29	0xbd15cb9d	-0.036571134
30	0xbb3aca42	-0.0028501903
31	0xbdbb5c22	-0.09148432
32	0xbdde6741	-0.10859538
33	0x3d39b595	0.045339186
34	0xbdaa006f	-0.08300864
35	0xbd9810b2	-0.074250594
36	0x3b495a22	0.003072389
37	0x3d20736f	0.039172586
38	0xbdac87d4	-0.08424345
39	0xbdf4d6d9	-0.119550414
40	0xbdf26ebb	-0.118375264
41	0x3c854705	0.016269216
42	0x3c0b9734	0.008519936
43	0x3caaf986	0.020870935
44	0xbe022f48	-0.12713349
45	0xbdddb756	-0.10825984
46	0xbd5fc583	-0.05463172
47	0xbd3f9bc4	-0.04677941
48	0xbc62807a	-0.0138245765
49	0xbc0d785f	-0.008634656
50	0x3d3d522a	0.046220936
51	0xbcc97a34	-0.024594404
52	0x3c789e30	0.015174434
53	0xbdbb452c	-0.09144053
54	0xbdd4ac7d	-0.10384462
55	0x3c82572a	0.015910704
56	0x3d157f60	0.036498427
57	0xbdfe6275	-0.12421123
58	0xbd800605	-0.06251148
59	0xbd3684c7	-0.04456022
60	0x3c5a9912	0.013342159
61	0x3913e0c6	0.00014102747
62	0xbd819265	-0.06326751
63	0x3c390815	0.011293431
64	0x3cbf9870	0.023388118
65	0xbdf1f4ce	-0.11814271
66	0xbd8f9e00	-0.07012558
67	0xbd97aac5	-0.074056186
68	0xbc8b68dc	-0.017017774
69	0xbc84ad76	-0.016195994
70	0xbe08b3a9	-0.13349785
71	0xbcb2e293	-0.021836555
72	0xbc3055cd	-0.010762644
73	0xbaa29cc3	-0.0012406338
74	0xbd271161	-0.04078806
75	0xbd82dd00	-0.06389809
76	0xbd62f75c	-0.05541168
77	0xbd6487e7	-0.05579367
78	0xbe147090	-0.14496064
79	0xbd5af08d	-0.053452063
80	0x3c9c31b2	0.019066665
81	0xbbb8fd67	-0.0056454423
82	0xb9d0023d	-0.0003967452
83	0x3cf39209	0.02973272
84	0xbd689a4e	-0.05678778
85	0xbd44dc48	-0.04806164
86	0xbdabb44d	-0.08383999
87	0xbc831b5c	-0.016004257
88	0xbde5edb0	-0.11226976
89	0x3c02aa9e	0.007975249
90	0xbde92bfd	-0.11385343
91	0xbdd539db	-0.10411426
92	0x3c203ade	0.00977966
93	0x3c8911d4	0.016732134
94	0xbd9836ff	-0.07432365
95	0x3cb1092d	0.02161082
96	0xbe02ce5f	-0.12774037
97	0x3c52d8c9	0.012869068
98	0xbd425479	-0.04744384
99	0xbc0a6d8b	-0.008448969
100	0x3d2f8b13	0.04285724
101	0xbdb6450d	-0.08899889
102	0xbbbd31a0	-0.005773738
103	0xbd8c3487	-0.06845956
104	0x3d03337b	0.032031517
105	0xbe05943a	-0.13044825
106	0x3ba8a112	0.005146154
107	0xbe033b32	-0.1281555
108	0xbcc0fa67	-0.023556901
109	0xbde98b7b	-0.11403557
110	0xbaa8403a	-0.0012836524
111	0xbd3f5f93	-0.046722006
112	0xbd783629	-0.060598526
113	0x3c355e3d	0.011069831
114	0xbcea3891	-0.028591426
115	0x3d2020c6	0.039093755
116	0xbd2d1b78	-0.042262524
117	0xbdfa67ee	-0.12226854
118	0xbc9e7e6c	-0.019347392
119	0xbe096a33	-0.13419418
120	0xbd438c8e	-0.047741465
121	0xbc249beb	-0.010046939
122	0xbc62448e	-0.01381029
123	0x398e6824	0.0002716194
124	0xbd98235d	-0.0742862
125	0x3bbb1f55	0.005710522
126	0xbe15f20c	-0.14643115
127	0xbe1d54a8	-0.15364325
128	0xbe0ca2c6	-0.13733968
129	0xbd83422c	-0.06409106
130	0xbe3701af	-0.17871736
131	0xbd1c8023	-0.03820814
132	0xbd5d0e04	-0.053968444
133	0xbd90e9c5	-0.07075838
134	0xbded8338	-0.115972936
135	0xbde6204f	-0.11236631
136	0xbd415e59	-0.047209118
137	0x3c3721e4	0.011177514
138	0xbd0cb2c4	-0.03435017
139	0xbdf46e4c	-0.119351
140	0x3b1a0119	0.002349919
141	0xbdf10427	-0.1176837
142	0x3c94d383	0.018167263
143	0x3d34f27c	0.044176564
144	0xbe139088	-0.14410603
145	0xbd77400f	-0.060363825
146	0xbdcdff32	-0.1005844
147	0xbde5beed	-0.11218057
148	0xbdcd4c13	-0.10024276
149	0xbdbbbfa7	-0.09167414
150	0xbe240c35	-0.16020282
151	0xbda06128	-0.07831031
152	0xbcf78a87	-0.030217422
153	0xbd36caca	-0.04462699
154	0xbd889ea0	-0.0667088
155	0xbe5087ae	-0.20364258
156	0xbe254358	-0.16138971
157	0xbe640e7a	-0.22271147
158	0xbe2924c1	-0.16517927
159	0xbe4d6a1e	-0.20060012
160	0xbe2eb35e	-0.1706061
161	0xbe2483eb	-0.16065948
162	0xbe296b79	-0.16544904
163	0xbd91c779	-0.071181245
164	0xbd2b87a5	-0.041877408
165	0xbd24bcec	-0.040219232
166	0x3ca2d3b2	0.019876335
167	0x3bb36ffa	0.005475995
168	0x3c058d3e	0.008151351
169	0xbbe58ebc	-0.0070055407
170	0xbdc003aa	-0.09375699
171	0x3b19a32d	0.0023443208
172	0xbd831548	-0.064005435
173	0xbe6ea91e	-0.233067
174	0xbe510a73	-0.20414142
175	0xbe57726e	-0.21039745
176	0xbe573472	-0.210161
177	0xbde60929	-0.11232216
178	0xbd8bbaae	-0.06822716
179	0xbe1bbe04	-0.15209204
180	0xbe445016	-0.19171175
181	0xbe5d85fb	-0.2163314
182	0xbe70eb12	-0.23527172
183	0xbeb0ea40	-0.3455372
184	0xbe7f40ca	-0.24927059
185	0xbe8dfa2d	-0.2772993
186	0xbeae0276	-0.33986253
187	0xbeb45271	-0.35219148
188	0xbeafa03e	-0.34301943
189	0xbe5ae253	-0.21375398
190	0xbe32bc13	-0.17454557
191	0xbd6564bb	-0.056004267
192	0xbdaf05ca	-0.08546026
193	0xbd179b95	-0.03701361
194	0xbc986f13	-0.018607652
195	0x3ce35dc4	0.027754672
196	0xbd047881	-0.032341484
197	0xbddf1001	-0.108917244
198	0xbb391df3	-0.002824661
199	0x3cfa8fc5	0.030586133
200	0xbe8a5753	-0.27019748
201	0xbe941acf	-0.28926703
202	0xbe8543f4	-0.26028407
203	0xbe8188e7	-0.2529976
204	0xbe63a05d	-0.22229142
205	0xbe1ce1a8	-0.15320456
206	0xbe997636	-0.29973
207	0xbe641c79	-0.22276486
208	0xbea4d715	-0.32195345
209	0xbe95df21	-0.29271796
210	0xbecc8bba	-0.39950353
211	0xbebd0089	-0.3691447
212	0xbebff444	-0.37491047
213	0xbe98a28c	-0.29811513
214	0xbee16405	-0.4402162
215	0xbee23ce7	-0.4418709
216	0xbeb13e6b	-0.34617934
217	0xbe9c889e	-0.3057298
218	0xbe2fc29a	-0.17164078
219	0xbe27f488	-0.16401875
220	0xbdd1214e	-0.102114305
221	0xbc0617fb	-0.008184428
222	0xbd0fe7f7	-0.03513333
223	0xbd737b36	-0.059443675
224	0xbdb5240b	-0.08844765
225	0x3d100b6b	0.03516714
226	0xbcff01f0	-0.031128854
227	0xbdd6073d	-0.10450599
228	0xbe5ef4fd	-0.21773143
229	0xbea3fe61	-0.32030013
230	0xbec5f62d	-0.3866438
231	0xbe71441c	-0.23561138
232	0xbe86a797	-0.26299736
233	0xbe4e6611	-0.20156123
234	0xbe2db242	-0.16962531
235	0xbe63a575	-0.22231086
236	0xbec04e6a	-0.37559825
237	0xbe8e7287	-0.27821752
238	0xbe8213c8	-0.25405717
239	0xbead8734	-0.33892214
240	0xbe9140e4	-0.2836982
241	0xbe9c2a0d	-0.30500832
242	0xbecb33d5	-0.39687982
243	0xbe922a16	-0.28547734
244	0xbe982dbc	-0.29722393
245	0xbe69d679	-0.22835721
246	0xbe1211ab	-0.14264552
247	0xbd50ed5f	-0.051007625
248	0xbd90e843	-0.070755504
249	0xbd809567	-0.06278496
250	0xbcb0f401	-0.021600725
251	0xbd8935dc	-0.06699726
252	0xbc611089	-0.013736852
253	0xbd680543	-0.056645643
254	0x3b65ae0a	0.0035046362
255	0xbe05d7b3	-0.13070564
