models/autoencoder_8.pth (torch, 819041 bytes, 8 tensors)

encoder.1.weight f4 [128, 784]
000000 e0 b6 16 bc 5c b1 c4 bb 28 0c 62 3c 30 73 e5 bb
       -0.009198874 -0.006002588 0.013796844 -0.007002257
000010 67 5d 97 bc 37 42 89 bc dd 9f 0f 3d f1 9c fd bc
       -0.018477155 -0.016755207 0.035064567 -0.030958625
000020 91 ab ef bc f0 0f b0 bb 5c 3b ee bb a0 dc 8e ba
       -0.029256614 -0.0053729936 -0.00727026 -0.0010899492
000030 d0 46 07 be 42 3c 4c be 95 16 1f be f3 e2 02 bd
       -0.13210607 -0.19944862 -0.15535958 -0.031954717
000040 4a e1 ae 3c d7 00 0f 3d de 16 c2 3c f6 bc 00 bd
       0.02134766 0.03491291 0.023692545 -0.031430207
000050 70 9d 9a 3b 32 b9 dd 3c 90 f5 be bc f2 93 fb 3c
       0.004718475 0.027065847 -0.023310453 0.030710194
000060 50 be c0 bc 93 15 f4 bc 3c f3 d9 bc f8 66 f3 bb
       -0.023528248 -0.029795444 -0.026605241 -0.0074280463
000070 24 ad d7 bb c0 de db 3a 73 37 08 3d 71 85 08 3d
       -0.0065819193 0.0016774759 0.033256005 0.033330385
000080 be bf cc bd 03 36 d7 bd 21 ad e8 bd 08 c6 e1 bd
       -0.099975094 -0.10508349 -0.11361147 -0.110240996
000090 8d 63 70 bd 90 dd dc be da 30 88 be 9c 72 cd bd
       -0.05868869 -0.4313779 -0.2659977 -0.10031626
0000a0 c7 3f 19 bd f9 31 af bd 23 63 dd bc 4c f5 f5 bd
       -0.03741434 -0.085544534 -0.027024811 -0.12009677
0000b0 38 6d 09 3d 55 d8 9b bd 5b f1 eb bd 12 95 f4 bd
       0.033551425 -0.076096214 -0.11520644 -0.119424954
0000c0 26 87 56 be bd be 96 be ef 1f 6b be 60 bb 20 bd
       -0.20949993 -0.29442397 -0.229614 -0.039241195
0000d0 5c cb c5 3c 5c 42 f2 bc 37 9c a2 bc d8 65 97 3b
       0.02414482 -0.029572658 -0.01984988 0.004620295
0000e0 00 a8 23 bc 46 f3 21 bc 98 ef 8b bd bc 29 ed bd
       -0.009988785 -0.009884661 -0.06832808 -0.11580226
0000f0 40 de 8c bd da 36 02 3c 97 23 04 bd a2 84 87 be
       -0.06878328 0.007947648 -0.032260504 -0.26468378
000100 58 d5 e3 be 26 ae 0d bf bb 28 a3 be 88 24 b2 bb
       -0.44498706 -0.55343854 -0.31867012 -0.005436484
000110 d6 74 8a 3d c8 2f 0e 3e 3f 52 a1 3a 70 2a c2 bc
       0.06760566 0.13885415 0.0012307836 -0.023701876
000120 7b 06 1f 3d 73 86 70 3c 3e b3 b2 3c 84 d5 97 bd
       0.03882454 0.014680493 0.021813985 -0.07413772
000130 2f f0 52 be 42 e4 52 be 2e 1f 18 be 60 c5 1f 3d
       -0.20599435 -0.20594886 -0.14855644 0.03900659
000140 57 c4 09 be 64 5c cc bd b0 35 be bb 40 01 6d 3c
       -0.13453804 -0.099785596 -0.00580474 0.01446563
000150 30 f9 39 bb 08 6d 35 3c 72 7b 36 bd be 61 08 be
       -0.0028377287 0.011073358 -0.04455132 -0.13318536
000160 b5 71 0f be fa 2b 89 3b a6 de d3 3c bf c6 10 3b
       -0.1400822 0.0041861506 0.025863003 0.0022091118
000170 80 91 e5 bd 73 26 48 be cd 8b 1d be 0f a5 63 bd
       -0.112093925 -0.19545917 -0.15385361 -0.055577334
000180 86 58 c2 3d 19 c6 0e 3e dc 7f 99 3d 04 4d ae 3d
       0.09489541 0.13942756 0.0749509 0.08510783
000190 0e 71 f1 3b 94 a2 dc 3c cf 09 f7 bd 39 50 af bd
       0.0073682135 0.026932992 -0.12062418 -0.08560223
0001a0 9a af 17 be 30 ed 03 be c0 c2 1d 3d 32 c5 02 3b
       -0.1481308 -0.12883449 0.038515806 0.0019953963
0001b0 d8 44 8c be 30 f6 c3 be 04 04 d4 bd 0e 19 bc bc
       -0.27396274 -0.38273764 -0.103523284 -0.022961166
0001c0 9a cd c8 3c 85 d5 a2 bd f5 28 1b 3e 35 06 66 bd
       0.024512101 -0.07950882 0.15152343 -0.056158263
0001d0 f7 b3 08 3e e5 ae f3 bd 94 20 11 bb 02 9c 2a bd
       0.13349901 -0.11898593 -0.0022144662 -0.041652687
0001e0 2c 7f 24 be a2 51 26 be 05 a4 b9 bd 76 d6 4d 3d
       -0.16064137 -0.16242078 -0.09064487 0.050253354
0001f0 20 ca d0 3d 35 c1 2b 3e 26 95 28 3d 30 ac e1 3d
       0.10194802 0.16772921 0.041157864 0.1101917
000200 3a 52 87 3d 6a b7 32 3d ff 8a d0 3d b5 17 fd 3d
       0.0660748 0.04363195 0.101827614 0.123580374
000210 b4 e2 d1 3d e5 0d 21 3d d7 e6 1a 3d db a6 8e bd
       0.10248318 0.03931989 0.037817802 -0.06965419
000220 e0 cc df bd 42 fc 5a be ee 8d 9a bd 2f e0 9d 3a
       -0.10927749 -0.21385291 -0.07546602 0.0012044961
000230 70 ca 82 3b 8e d4 f7 3c be 27 1e 3d 55 04 0a be
       0.0039914176 0.030252721 0.03861212 -0.13478215
000240 b3 aa 0a 3e 0a 68 92 b8 52 31 1e be 62 c6 84 be
       0.13541679 -6.981201e-05 -0.15448502 -0.25932604
000250 ac 7c 16 be f8 6a 03 be 4c 81 35 3d e6 c8 e5 3d
       -0.14695996 -0.12833774 0.04431276 0.11219959
000260 71 df ca 3d c2 47 64 3d 87 9f 9e 3d da 7d 36 3d
       0.09905899 0.055732496 0.07745271 0.044553615
000270 3c 3a 7f 3d c4 1b 86 3d 73 cc bf 3d c6 b3 ae 3d
       0.062311396 0.065482646 0.093651675 0.08530383
000280 49 8b f3 3d 98 d3 d9 3d 13 1a 10 3d 54 fc c7 bd
       0.11891801 0.106360614 0.035181116 -0.09764925
000290 e6 b2 c1 bd c7 b7 28 be 32 a5 14 3e a4 7f f0 bd
       -0.0945795 -0.16476355 0.14516142 -0.117430955
0002a0 0d 99 0d bd b5 8e 05 bc 1d 17 9d be 33 af 9e be
       -0.03456979 -0.0081517 -0.30681697 -0.3099304
0002b0 a9 fd 86 3d da 11 10 be 4d 7f a8 be d9 d2 82 be
       0.065913506 -0.1406931 -0.32909623 -0.2555149
0002c0 95 f1 33 be 1b b3 9d bd 9b e9 7b 3d 8d 8b 0c 3e
       -0.17572625 -0.07700177 0.06150208 0.1372511
0002d0 11 8f 61 3d f5 68 bd bc a6 b3 69 3d cc 89 60 3d
       0.05506808 -0.023121336 0.05705609 0.054818913
0002e0 83 8a 1d 3c 33 64 ac bc 74 9a ff bc 63 36 79 3c
       0.009615543 -0.021043872 -0.031201579 0.015210721
0002f0 03 fb b8 3c de db 15 bd 75 88 53 bc 8b ef d2 bd
       0.02258063 -0.036586635 -0.012910952 -0.102995954
000300 fc d6 db bd 82 b3 9f bc a5 0c f6 bd cb e0 26 bc
       -0.107343644 -0.019494776 -0.120141305 -0.010185431
000310 87 aa 2c 3d 00 34 16 3e 0a 84 26 be 26 26 eb be
       0.042154815 0.14668274 -0.16261306 -0.45927542
000320 d5 ad ba bd 5c 4a 97 be e8 92 80 be 3b 82 50 be
       -0.09115187 -0.2954892 -0.2511208 -0.20362179
000330 39 1f d8 bd 53 e4 33 3c 64 a3 a4 3d 68 ef a2 3d
       -0.1055283 0.01097973 0.08038977 0.07955819
000340 0f 4b 7b 3d aa a0 be bd dd ef 4c be 69 cc 19 be
       0.06135088 -0.09307988 -0.20013376 -0.15019383
000350 d8 6a bd bd 5b 9c 93 bd 79 6e a9 bc a6 2f c7 bb
       -0.092488945 -0.07207557 -0.02068256 -0.006078678
000360 48 c2 08 bd cc f8 96 bd eb 86 91 bd 0b 44 dd bd
       -0.033388406 -0.07371673 -0.07105812 -0.10803994
000370 8a b2 9c be fa 73 9b be 58 ef b0 be 17 13 e6 3d
       -0.30604964 -0.3036192 -0.34557605 0.1123411
000380 88 47 3c be 69 12 bb bc ab f8 b5 bb 87 dc 8e be
       -0.18386662 -0.022835927 -0.005553325 -0.27902624
000390 02 06 28 be 7d a9 5b be f0 4f 89 be bf 42 c0 bd
       -0.16408542 -0.21451373 -0.268188 -0.09387731
0003a0 c0 d4 27 bc f1 57 a0 3d a7 cc 1a 3e d9 6c 1f 3d
       -0.010243595 0.078292735 0.15117131 0.038922165
0003b0 52 8b 3c bd e5 de 0a be 52 1d a3 be 66 ad 3c be
       -0.046031304 -0.1356159 -0.31858307 -0.18425521
0003c0 aa 94 07 be 5d d6 81 bd 06 66 ff 3c c5 3c ec 3c
       -0.13240305 -0.06339715 0.031176578 0.02883757
0003d0 cf fd ac bc 2c 3c 4b b9 39 65 72 bc d9 74 1c be
       -0.02111712 -0.00019382004 -0.014794641 -0.15278949
0003e0 c0 06 c1 be 72 4a c7 be c8 c9 07 be bf 83 65 3e
       -0.37700462 -0.38923985 -0.13260567 0.22413538
0003f0 4a 8a f2 bd 93 a7 ae bd 0f 9c ce bc b3 c1 41 be
       -0.11842783 -0.08528056 -0.025220899 -0.18921547

encoder.1.bias f4 [128]
000000 50 30 9f bd d0 e8 92 3b 58 a4 04 3f b6 a6 fc 3e
       -0.07772887 0.00448332 0.5181327 0.4934594
000010 f6 39 07 3c 1c 85 a2 3e 76 07 a6 3d 20 40 24 be
       0.008253565 0.3174218 0.08106892 -0.16040087
000020 20 da be bc 7b 75 09 3f b6 9c 2e bd b0 5d 78 3c
       -0.02329737 0.53694886 -0.04262992 0.015159056
000030 54 bd 5c 3e 52 a4 a5 be e3 15 bd be d8 77 36 bd
       0.21556598 -0.3235193 -0.3693076 -0.044547886
000040 aa 48 83 3c 23 fb 9f be 4b 76 48 3c c3 84 07 3c
       0.01602586 -0.3124629 0.0122352345 0.008271399
000050 46 d1 dd 3d ea f8 31 3c 57 09 6a be 93 de 00 bd
       0.10830931 0.010862568 -0.22855125 -0.031462263
000060 a8 86 ae 3e d0 b2 37 3f 81 33 25 be 42 0d 5f bc
       0.3408711 0.7175722 -0.16132928 -0.013614001
000070 b9 65 3b bd 46 e6 81 3d 3b e5 7f be a9 3d 7b 3c
       -0.045751307 0.06342749 -0.24989788 0.015334525
000080 aa 60 54 3c f7 c4 9a be fc ad 74 be 27 86 95 bc
       0.0129625 -0.30228397 -0.23894495 -0.018252445
000090 e9 56 1a bd 9a 49 09 bc 12 8e 18 3f 79 59 43 bc
       -0.03768054 -0.008379364 0.5959178 -0.011923187
0000a0 4d 43 c5 3e 42 63 01 bf d3 ee ba 3c 1c 26 90 3f
       0.3852791 -0.5054208 0.022818958 1.126163
0000b0 62 c5 38 bd bb ce 8c 3d d7 2b 62 bc 76 96 51 bc
       -0.045110114 0.06875368 -0.013804398 -0.01279222
0000c0 cb 54 bd bc 8c f4 10 bd 99 27 ab 3d 17 2b 8b 3e
       -0.023111722 -0.035389468 0.08357162 0.27181312
0000d0 7e 6c a6 3e 5e f7 a4 3c a2 3f 1a 3b 1f 01 07 bd
       0.32504648 0.020137485 0.0023536463 -0.032960054
0000e0 3a 6d 2b bd a7 fb 96 be 31 12 b0 bc ed 27 4b bc
       -0.041852213 -0.2948887 -0.02149305 -0.012399656
0000f0 c2 c2 79 3e 02 e2 3d 3f 40 04 34 3c 28 c2 7b 3d
       0.243907 0.74172986 0.010987341 0.06146446
000100 e5 ea a0 be c9 8e 30 3e bc a3 90 be cb f1 b8 3e
       -0.3142921 0.17241968 -0.2824992 0.36121973
000110 21 9c 89 be 8d df 03 3f a7 95 c3 3e 46 d5 0a bf
       -0.2687693 0.51512986 0.38200113 -0.5423168
000120 9a fa b0 3e bf fb d7 3e f0 c1 37 bd 72 e0 4c 3c
       0.34566194 0.42184255 -0.044862688 0.012504684
000130 41 d6 02 3e 9b 83 0c 3f b7 87 d0 be 20 82 26 be
       0.12777044 0.54888314 -0.40728542 -0.16260576
000140 fa 68 38 3f 62 09 1c bc 23 b4 a7 3e 69 70 e2 ba
       0.7203518 -0.009523721 0.3275462 -0.0017275932
000150 9c 3b c0 3e 87 87 f6 be 89 8f 85 be f6 6e d0 bc
       0.37545478 -0.48150274 -0.2608607 -0.025443535
000160 8a 5c 8f bd 42 73 a2 be fe bc ac bc bc a9 05 bd
       -0.07000072 -0.3172856 -0.021086212 -0.032632574
000170 40 77 82 3d 0a 5c 52 bc 91 99 00 bd e1 cc 28 bd
       0.063704014 -0.012839327 -0.031396452 -0.041211013
000180 ab e0 af 3e 33 cb 7f be 1a e6 24 3f 75 c9 5f 3c
       0.34351096 -0.24979858 0.6441361 0.013658871
000190 0f aa 70 3b cc f9 de 3e d8 be 70 3c d9 1a 9a bc
       0.0036722457 0.43549955 0.014693938 -0.01881163
0001a0 32 63 8a be 8a 7d 1c 3e 5b 1a a1 bc f0 e1 b0 be
       -0.27028805 0.15282264 -0.019665888 -0.34547377
0001b0 1e 29 46 bc 69 99 64 bc a4 ce 87 bc 98 ac ac be
       -0.012094764 -0.013952591 -0.016578026 -0.3372543
0001c0 a4 cf 35 be 93 b0 c1 bb 79 b2 f3 3b 5d 7a b0 3e
       -0.1775499 -0.005910942 0.007437047 0.34468356
0001d0 dd 81 ab be d6 73 f5 3e 02 23 96 bb 95 b9 aa 3d
       -0.33497515 0.47939938 -0.00458181 0.08336178
0001e0 e3 b5 dd bb 98 ef a4 bd c9 4e 9e 3e c0 2b 04 3e
       -0.0067660674 -0.080535114 0.30919483 0.12907314
0001f0 e8 4f 8c be ef ee 35 bc 51 0e 1a bd 65 0e 28 3d
       -0.27404714 -0.0111043295 -0.03761131 0.041029353

encoder.3.weight f4 [8, 128]
000000 4c 24 44 be 5d 4c f0 bc fe 23 88 3d c0 17 2a 3e
       -0.19154471 -0.029333288 0.0664749 0.16610622
000010 65 72 c5 bb 85 8c 70 bd c7 0d 8f be ed 1a 1d 3d
       -0.0060256 -0.05872776 -0.279402 0.038355757
000020 e6 29 98 bd ac 98 c5 3e ac 8f 38 3e e5 e0 b6 3d
       -0.074298665 0.38593042 0.18023556 0.08929614
000030 99 f0 39 3e 4b 51 0b 3e 63 a2 86 be 9a 2b 22 3d
       0.18158187 0.1360523 -0.26295766 0.039592363
000040 0f 39 4c 3d 6e a1 91 bd 5c d3 1d 3c 6e e0 1a bd
       0.049859103 -0.071108684 0.0096329115 -0.03781169
000050 d6 ca 9a bd 75 91 39 bd 2a 43 27 be 30 30 2e bd
       -0.07558219 -0.045304734 -0.16334215 -0.042526424
000060 cc 94 4b 3e fb 87 ed 3c 91 f1 1c bd ff 54 87 bd
       0.1988098 0.028995505 -0.038316313 -0.066080086
000070 ce 0e 88 bd aa 50 0c be 6a 51 34 3d 9e c6 7b 3b
       -0.06643449 -0.13702646 0.044022955 0.0038417946
000080 36 45 14 3c 09 87 f8 bd c7 cd 3c be b0 e7 66 3d
       0.009049704 -0.12135131 -0.18437873 0.0563733
000090 96 35 99 3d ef 08 3e bd aa 14 53 3d 49 c3 7b 3d
       0.07480924 -0.04639524 0.05153338 0.061465535
0000a0 58 19 ef 3d 19 63 fa bd 98 ec 74 3d 38 32 5e 3f
       0.11674756 -0.12225933 0.059795946 0.8679538
0000b0 ba ec 23 3d 17 94 00 3e ea 9d cc 3d 41 45 44 be
       0.040020682 0.12556492 0.09991057 -0.19167043
0000c0 97 8e b8 b9 14 f0 37 3c 2a 53 f1 bb d4 f7 80 bd
       -0.00035201453 0.011226673 -0.0073646503 -0.062972695
0000d0 11 90 04 3e f4 c1 52 3d 1a c6 5d 3d 9e a8 9c bd
       0.12945582 0.0514545 0.054144002 -0.07649349
0000e0 c3 a2 81 bd 5e d7 cd bc 63 a5 8e 3d 2e 88 d9 3c
       -0.063298725 -0.02512711 0.06965139 0.026554193
0000f0 1e 1b 4c 3e 67 4a ec 3d b2 b8 9b 3c 7c b1 ce 3d
       0.1993222 0.115376286 0.019008968 0.10092446
000100 93 39 29 3e 25 63 b9 bd 45 7d eb 3d e9 a3 9d 3e
       0.16525869 -0.090521134 0.11498503 0.30789116
000110 fc b8 43 bd 5c 69 98 bd bc 4a 11 3e 6a 0d b8 bc
       -0.047783837 -0.07441971 0.14188665 -0.022467334
000120 a9 69 83 bd bb f9 98 3e 64 fc 40 3d e0 b7 0c 3d
       -0.064166375 0.2987803 0.0471157 0.034355044
000130 90 3c fd 3d 9e b6 bc 3e a8 c4 a4 bd 16 db cd 3d
       0.12365067 0.36858076 -0.08045322 0.10051553
000140 09 20 3c 3e 7c 76 a5 3a f6 08 60 3e c2 bb 18 bd
       0.18371595 0.0012623812 0.21878418 -0.037288435
000150 cc b8 1c 3e 04 00 cd bd 59 54 11 3e 50 34 45 bd
       0.1530487 -0.100097686 0.14192332 -0.048145592
000160 7a 26 9a 3d be da a4 bd f8 89 a7 3d a6 39 14 3d
       0.0752687 -0.08049534 0.08180612 0.03618779
000170 b6 4b 93 3d 16 92 92 bd 05 94 38 3c 0d 45 77 bd
       0.07192175 -0.0715677 0.011265759 -0.060368586
000180 0f 20 96 3e bd 15 2c 3d 19 0d 20 3f 2e 1b e9 3b
       0.29321334 0.04201292 0.62519985 0.007113836
000190 c0 03 f8 3c f8 79 0b 3e 02 fb 00 bd 63 fe d4 3b
       0.030275226 0.13620746 -0.03148938 0.006500052
0001a0 3b b4 89 3d a1 60 36 3d 98 90 96 3d f5 72 6d bd
       0.06723829 0.044525746 0.07351798 -0.05797096
0001b0 21 6f 3c be 61 bd 98 3c df b0 a8 ba be f3 ee bc
       -0.18401767 0.01864499 -0.0012870095 -0.02916896
0001c0 60 c5 a7 3c 43 d1 9b bc 96 d8 13 3e 41 da a4 bd
       0.020479858 -0.019020682 0.1443809 -0.08049441
0001d0 dc 12 ab bd 5f 21 88 3e a2 b7 6e 3b 76 58 4c 3e
       -0.083532065 0.2658796 0.0036425372 0.1995562
0001e0 1c 43 97 3d b5 ac 37 be dd 37 2d 3e cf 52 b8 3d
       0.07385847 -0.17936976 0.16915841 0.090001695
0001f0 9a 59 f4 bd 3a c4 55 bd 38 b6 a1 bd 2d 16 26 bd
       -0.11931153 -0.05218909 -0.078960836 -0.040548492
000200 cd f2 1b be 17 f0 97 bd 25 33 02 bf 5f 06 51 be
       -0.1522934 -0.074188404 -0.5085929 -0.20412587
000210 ae 00 4b bd 31 e2 cf be 90 ab 21 3d 64 d7 f9 bd
       -0.049561195 -0.40602258 0.039470255 -0.121992856
000220 a2 be 4c bd 27 a3 73 3e d8 4b aa 3d 2b 56 40 3b
       -0.04998649 0.23792706 0.08315247 0.0029348235
000230 b9 ef 83 3d 28 d4 9c 3e 0f f7 cd bd 46 7e f7 3c
       0.06442208 0.30630612 -0.10056888 0.030211579
000240 be 07 9a bb 13 bf 71 bd bf 3c 63 3d ff f8 3b bd
       -0.00470063 -0.059020113 0.055477854 -0.045891758
000250 48 ea 9d be 08 6d a5 3c 74 d1 61 3e e3 f6 32 bc
       -0.30842805 0.020193592 0.22052556 -0.01092312
000260 35 b0 a6 3e 8d cb 14 3e 13 58 53 be 26 e4 71 3d
       0.3255631 0.14530773 -0.20639066 0.05905547
000270 6e c5 24 be 99 c3 15 be bf 66 53 bd 33 d9 92 3d
       -0.16090938 -0.14625396 -0.05161166 0.07170334
000280 1c bf 96 bd a2 eb 0c 3d 0b ef a7 3d 8a 31 8b bd
       -0.0736067 0.034404404 0.08199891 -0.06796558
000290 02 31 50 bd 7b c8 c7 3b f1 b9 87 3d 58 a8 bc 3c
       -0.050827987 0.006096897 0.066272624 0.023029491
0002a0 9f d9 49 be 54 23 8a 3d cc 58 40 3d a5 67 19 39
       -0.19711922 0.067450196 0.046959683 0.00014629828
0002b0 57 c0 80 bd 3e 25 dd be e8 d4 d0 3d 24 4d ef bd
       -0.06286686 -0.43192476 0.10196859 -0.11684635
0002c0 12 04 b9 3c e3 b3 48 3d 8a 99 4e be 60 19 8c be
       0.022584949 0.04899968 -0.20175758 -0.2736311
0002d0 b4 b3 56 3e e4 a5 c5 bd 99 26 8e 3d 71 ba a3 3c
       0.20966989 -0.09650782 0.06940956 0.019986363
0002e0 41 dc bd bd 4a 0e ec bd 46 a3 1d 3d 9d 1a 9d bc
       -0.09270526 -0.11526163 0.038485788 -0.01917773
0002f0 a1 11 36 3e c2 10 03 bf df d4 87 3e a3 cb 7e 3d
       0.17780162 -0.51197445 0.26529595 0.06220592
000300 45 55 c0 bd e2 26 95 3e be a1 02 3e 45 5a 4b 3e
       -0.09391264 0.29131228 0.12757012 0.19858654
000310 54 71 2a bd 91 0b 1b be a0 d4 51 be 70 f7 7e 3e
       -0.041611984 -0.15141131 -0.20491266 0.24899077
000320 8e 42 2a 3e 35 63 92 be 55 9b 11 3d 36 5c 62 3d
       0.16626951 -0.28591314 0.035548527 0.05526372
000330 c1 88 00 3e c6 da 46 3e 09 8c ed bc f1 76 25 bd
       0.12552167 0.19419393 -0.028997438 -0.040396634
000340 f3 19 2b 3e f3 4a ac bd d0 99 2f 3e 68 2b 9c bc
       0.16709118 -0.08412733 0.17148519 -0.019063666
000350 3a 61 ca 3e bb d9 4f 3b 30 e5 a2 bd 74 08 dc 3a
       0.39527303 0.003171547 -0.0795387 0.0016787187
000360 a9 36 4c bc 40 66 40 3d be 56 86 bc c8 0a cd 3c
       -0.012464204 0.046972513 -0.016398784 0.025029555
000370 92 75 d9 3d 81 67 15 3d 60 eb 9b bd 50 6d a0 3d
       0.10618128 0.036475662 -0.076132536 0.0783335
000380 16 b8 cd bd 84 48 bb 3d 4b 57 9a be b5 1f 65 bd
       -0.10044877 0.09144691 -0.30144724 -0.05593844
000390 17 e8 05 bd 95 74 26 be 6c c4 0b 3d 19 e1 92 3d
       -0.03269204 -0.1625541 0.03412287 0.0717184
0003a0 68 03 63 3b b0 a9 d0 3d 41 4c ce bc 50 ea d2 bd
       0.0034639481 0.10188615 -0.025182845 -0.10298598
0003b0 91 dc 9b 3c b3 d0 31 3d ad a0 e0 bc f4 b3 12 bd
       0.019026073 0.04341192 -0.027420366 -0.035816148
0003c0 f2 42 a9 3d 4d 45 9f 3d ff 8b 34 be 06 4b 68 be
       0.08264722 0.0777689 -0.1763153 -0.22684869
0003d0 e7 7e 5a bd 06 06 6c 3e 3e df b0 bd cc 88 05 be
       -0.05334368 0.23049173 -0.0863633 -0.13040465
0003e0 8c 79 87 bd cf 27 4a be 36 b8 88 be 7e dc d8 bd
       -0.0661498 -0.19741748 -0.26703042 -0.105889305
0003f0 00 5b 85 bd 9a 5e 04 3d f8 a6 c9 bd 33 1f 5c be
       -0.065114975 0.03231678 -0.098463 -0.21496277

encoder.3.bias f4 [8]
000000 a0 26 a8 3e c8 61 66 be 37 0d ef 3e e4 3a 04 be
       0.3284197 -0.22498238 0.4668977 -0.1291309
000010 ab 27 53 be 38 23 9b be 2e 48 06 be ae f3 9f bd
       -0.20620601 -0.30300307 -0.13113472 -0.0781015

decoder.0.weight f4 [128, 8]
000000 b1 b9 86 3e b0 cd 1a bf a9 c0 2a 3d 74 6d 6d 3e
       0.26313546 -0.60470104 0.04168764 0.23186284
000010 f6 f9 9c 3e e4 42 d5 be 20 f8 b7 3e d4 32 24 3e
       0.30659455 -0.41652596 0.35931492 0.16035014
000020 84 47 64 3e d0 4a 51 bd d7 ad 22 bd f9 43 95 3e
       0.22292906 -0.051096737 -0.039716568 0.29153422
000030 77 07 16 be b4 0c 0e 3e 6f 98 f2 3c 11 6b 81 bd
       -0.14651285 0.13872033 0.029613702 -0.063192494
000040 c8 9d bd 3c 22 98 7c bc 98 d2 1a bd 78 b8 c0 3c
       0.023146525 -0.015417131 -0.037798494 0.023525462
000050 61 b8 15 bd ba 15 24 3b 4f f4 bf bc d5 3b f7 3c
       -0.03655279 0.0025037364 -0.023431925 0.030179897
000060 b6 79 ac 3e 1c 32 e8 bc 18 1d 84 be a2 06 df be
       0.33686608 -0.028344207 -0.25803447 -0.43559748
000070 cc 78 8d bd dc 17 15 bd 96 8b f2 3e 5c 9b 87 3e
       -0.06907806 -0.036399707 0.4737212 0.26485717
000080 87 15 c1 3c 97 bd ea be 70 71 9f 3d 39 21 a4 3e
       0.023569835 -0.4584777 0.07785308 0.32056597
000090 6a 13 5a 3e 8a ea 64 be cd f4 72 3e d1 77 3f 3b
       0.21296468 -0.22355095 0.23726197 0.0029215703
0000a0 d7 46 fb 3e a0 87 04 3f f1 99 b5 be f7 8f 23 bf
       0.49077484 0.5176945 -0.3546901 -0.6389155
0000b0 b0 bf 46 3e b3 fb 80 bd 18 46 01 be a3 58 3d 3f
       0.1940906 -0.06298008 -0.12624395 0.73963374
0000c0 69 c3 9e 3d 3e f2 0b be e8 d9 8a bd 60 cb 1b 3d
       0.07752115 -0.13666627 -0.067798436 0.03803575
0000d0 84 c4 c1 3d 17 c3 2f bd 92 6e 91 3d c5 5c 89 3d
       0.094613105 -0.04291066 0.07101168 0.067071475
0000e0 85 32 25 3e b3 bc b8 3b e2 ce ba be c8 1c 7e 3e
       0.16132553 0.005637729 -0.36485964 0.24815667
0000f0 37 8d 73 3d 95 0b 2c 3e 48 fd 9e be c8 c2 4c bc
       0.059460845 0.16801293 -0.31052613 -0.012497611
000100 7d 2b b0 3e 11 2b 2f be 81 45 61 3e c6 cd 37 3e
       0.3440818 -0.17106272 0.2199917 0.1794959
000110 bb 22 88 3e bc f5 c1 3d b6 dc 96 3e c3 87 cd bc
       0.26588997 0.09470698 0.29465264 -0.02508915
000120 39 32 9f 3c 0e 43 20 3c cb 78 a3 be df 99 4c 3d
       0.019433128 0.009781612 -0.31928095 0.04995143
000130 5f 26 32 bd bf 08 db 3c ed 61 98 3d 73 d9 9e bd
       -0.043493625 0.026737569 0.07440553 -0.07756319
000140 54 6f af 3d ba f6 a8 bd f1 5c e0 3d fc df a0 3e
       0.08566156 -0.08250184 0.10955227 0.31420887
000150 f0 37 3e 3d 67 fd e6 bd 8c 1e ab be 70 1c 99 be
       0.046440065 -0.112788014 -0.33421743 -0.2990451
000160 a0 08 cd 3d d4 11 6e 3d ba ab c1 bd 5f 83 7f 3e
       0.10011411 0.05812247 -0.09456582 0.24952458
000170 de 0d b2 bd 2d 94 3e 3e 4a 42 60 3e e8 3e 89 bd
       -0.08694051 0.18611212 0.21900287 -0.067014515
000180 4b b0 a9 be 30 ed 06 3f 2d 7a e3 3e ff c4 c3 bd
       -0.33142313 0.5270567 0.4442915 -0.095590584
000190 c8 56 aa 3e e5 41 81 bd 7b 10 96 3e 0b a4 7f 3e
       0.33269334 -0.063113965 0.2930945 0.24964921
0001a0 b3 32 ed be 80 b1 69 3e 5e 4c 7e 3e cd 7f ce be
       -0.46327743 0.22821617 0.2483382 -0.4033188
0001b0 3a 70 95 3e 93 60 19 be 62 ba 6d 3e c3 37 42 be
       0.29187185 -0.14978246 0.2321563 -0.18966584
0001c0 e1 9a 29 bd 96 fc 96 3d dd 15 dc 3d 9d dd d3 3d
       -0.04140747 0.07372396 0.107463576 0.10345004
0001d0 e0 f9 81 bd 8c 3b 77 bd 0f 9a a1 bc 8f 2a 2f be
       -0.06346488 -0.060359523 -0.019726781 -0.17106079
0001e0 80 e5 3a be 52 2b 35 3e 95 68 ea 3e 3c 5b b6 3e
       -0.1825161 0.17692307 0.45782915 0.3561648
0001f0 08 62 d9 3d 23 91 da 3d 9a ed 7a 3d 2c 4a 18 be
       0.10614401 0.10672214 0.06126175 -0.14872044
000200 a8 e5 55 3e 64 3f d9 bd db c7 98 3e cf 31 18 be
       0.20888388 -0.10607794 0.29839978 -0.1486275
000210 54 c8 64 bf e8 e7 4a 3e 7d 4b e0 3d 34 e5 19 3f
       -0.89368176 0.19815028 0.10951898 0.6011536
000220 a3 08 8b bd 4f a9 4a 3d a9 75 45 bd 73 2f 7e bd
       -0.06788757 0.04947787 -0.048207913 -0.06205697
000230 c6 33 c1 39 9b ba ab 3e 3f a4 73 bd 4d 8d 79 be
       0.00036850403 0.33540806 -0.05948281 -0.24370308
000240 6c 2d 88 be c7 44 76 3e d6 3d 7a 3e bb 89 36 bf
       -0.26597154 0.24049674 0.24437651 -0.7130391
000250 16 0b bd be 60 65 fd bb 3f fc 89 be e0 db 2e be
       -0.3692252 -0.007733032 -0.2695026 -0.17076063
000260 aa bf 02 bf 7a a3 00 3e 28 d6 fb 3e 04 4e ea be
       -0.51073706 0.12562361 0.49186826 -0.45762646
000270 d8 22 bc 3e cf 99 49 bf 52 11 dd be e7 88 8b 3e
       0.36745334 -0.7875032 -0.43177277 0.27252886
000280 79 ec 09 3f 5d c9 fe bd f9 d5 73 be 9c 6a 35 3e
       0.53876454 -0.12440751 -0.23812093 0.1771645
000290 14 ee 20 3d 13 f8 ac be f7 15 46 bf 13 d6 73 bc
       0.03928955 -0.33783016 -0.77377266 -0.014882582
0002a0 60 93 0c 3e 87 28 a4 bc 4e 54 f6 bc c2 7b 4f 3e
       0.13728094 -0.020038856 -0.030069496 0.20262054
0002b0 55 9a 3e 3d 4b bc d5 3c 28 09 1b 3e b9 07 a1 bd
       0.0465339 0.026090762 0.15140212 -0.07862801
0002c0 49 16 08 3e ff 29 d8 bd f7 48 62 3e 1c 77 71 3e
       0.13289751 -0.10554885 0.22098146 0.23580593
0002d0 69 27 79 3e aa c7 d0 3d 28 55 07 bd ce df 9b 3d
       0.2433144 0.10194333 -0.033040196 0.07611047
0002e0 1f b2 8b bc 00 e2 38 bd ee ac 56 be 9d 3f 9f bc
       -0.017052708 -0.045137405 -0.20964405 -0.019439513
0002f0 49 d8 a9 3d 20 ec 1d 3e a6 2d 39 3e 15 12 cc 3c
       0.08293206 0.15422106 0.1808382 0.024910966
000300 b5 58 1a be c4 be 1f 3e 21 b7 c7 3d fc b9 b5 bd
       -0.15072902 0.15600115 0.09751726 -0.08873364
000310 c5 a6 d2 3e 9a c0 ee be 98 2a 9c 3c a2 b3 3e be
       0.4114286 -0.46631318 0.019063279 -0.18623212
000320 b2 73 80 bc f4 95 16 be 39 0b ee 3e 70 88 b7 3c
       -0.015680168 -0.1470564 0.46492937 0.022403926
000330 fb 08 b8 be e1 c8 29 bd e3 53 32 bf c1 38 02 be
       -0.35944352 -0.04145134 -0.6965925 -0.12716962
000340 76 6f af bd 24 27 c1 be c3 4b e9 bd cb db 22 bd
       -0.08566181 -0.37725174 -0.113914035 -0.039760392
000350 02 aa a6 3c 2b ea 6c 3e b3 5c 04 3e f9 a3 18 3d
       0.020344738 0.23136203 0.12925987 0.03726575
000360 74 af a5 3e d1 52 3c 3e a1 17 d0 3c 18 15 c6 3e
       0.32360423 0.18390967 0.025401892 0.38687968
000370 cb 67 eb 3c d5 d5 8e 3e fd a4 91 3e 37 ce 23 be
       0.028736016 0.27897516 0.2844619 -0.15996633
000380 f4 f4 a1 bd c5 d4 00 bf bb 5d 7f 3d c2 81 94 bc
       -0.07908049 -0.5032466 0.062345248 -0.01812828
000390 66 e9 07 bf 62 2b 0e be e6 23 82 3d a8 77 b6 bd
       -0.5309051 -0.13883737 0.06354503 -0.08909541
0003a0 30 57 c6 be a9 f2 75 3e 71 1c 97 3e f9 7e 57 bc
       -0.38738394 0.24018349 0.29513887 -0.013152831
0003b0 1b 5f f4 3e 1a dd 96 be e4 66 e2 bd 37 45 45 be
       0.4772881 -0.29465562 -0.11054781 -0.19264685
0003c0 70 5c 27 3f 25 cb b8 be b9 ab d2 3d 2c b2 47 be
       0.65375423 -0.36092487 0.1028666 -0.19501561
0003d0 29 5a 51 be b2 4d 14 3d 58 28 73 be b5 00 66 3e
       -0.2044455 0.03620691 -0.23745859 0.22461207
0003e0 60 37 71 3e f2 34 4d 3e 8a bc be 3e 6a ba 09 3f
       0.2355628 0.20039728 0.3725322 0.5380007
0003f0 e1 02 d8 3e 70 aa 39 3b df 83 39 be b1 9a 0c 3f
       0.42189696 0.0028330348 -0.18116711 0.5492354

decoder.0.bias f4 [128]
000000 61 9e 46 bf 27 90 39 3f f6 ea ae 3e 16 f2 1e 3e
       -0.7758542 0.72485584 0.34163636 0.15522036
000010 de 30 54 3f aa 77 ec 3e 15 ae 9d 3f 24 ed ba bf
       0.82887065 0.46185046 1.2318751 -1.460362
000020 32 85 b9 bd 8e e9 78 bf 73 38 4f 3f 4f d6 a4 be
       -0.09058608 -0.97231376 0.8094551 -0.32194754
000030 18 b9 0a 3e e1 69 75 3f 37 29 a4 3f 1b 3b ac be
       0.1354717 0.95864683 1.2825078 -0.33638844
000040 62 61 6f bb d4 a9 cd bf 1e 52 39 3f 01 0e 97 bd
       -0.003652655 -1.6067452 0.72390926 -0.07375718
000050 89 17 75 be 80 7f 04 3d a4 50 04 bf 75 fa 31 be
       -0.23934759 0.032348156 -0.5168555 -0.17380698
000060 f4 da 91 3f 8c 4c 8f be e0 49 9d bf 2d 86 f1 3e
       1.1394944 -0.27988088 -1.228817 0.4717268
000070 c2 4d d4 be fa 21 03 bd 5e b8 18 3e b9 ef 94 3e
       -0.41465575 -0.032014824 0.1491408 0.29089144
000080 97 f0 37 bf cd 14 f6 3e 6c ff 40 3f b2 d9 74 3f
       -0.71851486 0.48062745 0.7538974 0.95644677
000090 50 ca 6c 3f 70 7d 3a 3f db ce f6 bd 60 06 45 3f
       0.92496204 0.7284765 -0.12051173 0.7696285
0000a0 4d 98 b2 bf a6 d4 4b 3c b1 26 c3 3f 6d e5 95 be
       -1.3952729 0.012440836 1.5246183 -0.292766
0000b0 c5 0c e3 be b4 c8 6f bc 2e b8 07 3f ae f1 5d 3f
       -0.4434568 -0.014635254 0.5301541 0.866969
0000c0 b8 2c 4a 3e fa 93 c4 be 19 96 93 3d b9 89 c2 bf
       0.19743621 -0.38394147 0.07206363 -1.519828
0000d0 f7 ff b6 be 24 dc 71 3b 55 e5 66 3f da 63 6e 3d
       -0.3574216 0.0036904896 0.9019368 0.058200695
0000e0 28 d3 3a 3e 07 c3 31 3f cf 2c 2f bf 50 41 71 bd
       0.18244612 0.69438213 -0.6842775 -0.058900177
0000f0 66 48 c0 3e e6 b7 cf 3e 3a 2d 72 3f f7 45 5c bf
       0.37555236 0.4056999 0.9460026 -0.8604426
000100 2e f8 91 bf bd 51 df be c5 bc 4a 3f 27 06 3c 3f
       -1.1403863 -0.4361705 0.7919429 0.7344689
000110 b6 62 e4 bf 19 06 e7 3d 2b 81 1f 3f 44 98 05 3f
       -1.7842624 0.1128046 0.6230647 0.52185464
000120 90 17 d7 bf 2b 9c 6c 3f 5c 89 88 3f ee 59 8a 3e
       -1.6804066 0.92425793 1.0666919 0.27021736
000130 0e 22 d5 bf a5 e8 3b bf 14 ca b3 3e b5 57 4d 3f
       -1.6651018 -0.7340186 0.3511511 0.80211955
000140 cd b6 48 bf e2 77 6c 3f 41 49 84 3e 52 09 24 3f
       -0.7840393 0.92370427 0.25837138 0.6407672
000150 4b 78 e8 3e ef 97 33 bc 63 4d 20 bd 44 15 9c 3e
       0.45404276 -0.010961517 -0.0391363 0.30484974
000160 3f cb 2b bf d5 be 89 be cb 2b ac be 15 11 1e be
       -0.67107004 -0.26903406 -0.3362716 -0.15436204
000170 9e 05 15 bf 5c 83 fa 3e 90 af 4e 3f 20 7d 5f 3d
       -0.58211696 0.48928344 0.8073664 0.054562688
000180 62 d9 fe 3e a0 78 8e bf dd d7 0c bf 23 9e 24 bf
       0.49775225 -1.1130562 -0.5501688 -0.643038
000190 75 d2 e7 be 9c ba 89 3f 34 43 67 bf 36 b2 6c bf
       -0.45277753 1.0760074 -0.9033692 -0.9245943
0001a0 e2 7f bc 3f 56 b1 57 be 54 f4 64 be c1 43 7d bf
       1.4726527 -0.21063742 -0.22358829 -0.9893151
0001b0 35 95 78 bf 8e 85 92 3e 0b e8 a4 bf c8 59 26 3f
       -0.9710267 0.2861752 -1.2883314 0.64980745
0001c0 d1 8c 93 3e 63 73 cc bd 09 e4 18 bf 75 78 19 3e
       0.28818372 -0.09982946 -0.59722954 0.14987357
0001d0 92 a2 ca be 44 2f 9f 3d e6 7c 43 bf b9 29 21 3f
       -0.39577156 0.07772687 -0.76362455 0.6295429
0001e0 1d 94 96 3f 32 6b 49 bf 84 e8 10 3e f9 6f d0 bf
       1.176395 -0.7867919 0.14151198 -1.6284171
0001f0 1a 78 81 be df 56 c3 be af b6 99 3f eb b9 6c bf
       -0.25286943 -0.38152215 1.2008876 -0.9247119

decoder.2.weight f4 [784, 128]
000000 ee 20 b6 3c a1 21 e2 bd c1 ca 05 bc 20 04 02 bc
       0.022232499 -0.110415705 -0.008166016 -0.007935554
000010 fa b0 72 bd 5f 6a 6a bd 8b 36 00 bd fd 93 d5 bd
       -0.05925081 -0.05723035 -0.031302016 -0.10428617
000020 55 35 65 bd 99 b8 32 3d b4 95 42 3d 5f e7 5b bd
       -0.055959065 0.043633077 0.04750605 -0.05368745
000030 9e 99 66 be c2 be 3d 3d d0 f3 4a bd a3 0b b2 bd
       -0.22519538 0.0463245 -0.049548924 -0.08693626
000040 d1 15 e2 bd 9d d7 07 be d0 d4 86 bb c0 86 10 be
       -0.110393174 -0.13265844 -0.0041147247 -0.14113903
000050 00 ac 6d be e8 b6 be bc 71 d5 33 bd 80 7e 53 3c
       -0.23210144 -0.023280576 -0.043904725 0.012908578
000060 5b 7e 5a bd 9d 01 41 be 58 e7 ac be a7 8e 00 3a
       -0.05334316 -0.18848272 -0.3377025 0.00049040694
000070 7b 95 52 bd c1 e1 19 be cc f7 b2 3a 3f 51 df be
       -0.051412087 -0.15027525 0.0013654171 -0.43616673
000080 23 8b da bb 36 86 00 3d ab 34 bb bd e4 b1 e0 bc
       -0.0066694184 0.031377994 -0.09140905 -0.027428575
000090 c9 59 ab 3c c3 45 68 bc c6 3c c6 bd 01 d9 37 3d
       0.020916836 -0.014176789 -0.0967956 0.044884685
0000a0 45 b8 e7 bd e0 5f 47 bd ad 20 b6 bd c8 f3 70 bd
       -0.113144435 -0.048675418 -0.08892951 -0.058826238
0000b0 f5 e9 8e bd 58 b4 5d bd 34 62 51 be 19 64 d8 3c
       -0.069782175 -0.054127067 -0.20447618 0.026414918
0000c0 fb 92 aa be 4f c1 6f bb 01 71 d4 bd 46 5a 81 3c
       -0.33315262 -0.0036583727 -0.10373116 0.015790116
0000d0 72 67 89 be 87 e9 59 be d1 02 60 3d a4 9e 18 3d
       -0.26836735 -0.2128049 0.054690186 0.037260666
0000e0 31 82 90 bd e9 51 ad be a4 25 4c bd 2f 48 8e bd
       -0.07056082 -0.33851555 -0.049840584 -0.06947362
0000f0 1d b7 f3 bd 5f ee 11 bd 71 6f 03 3d 6c d3 90 3b
       -0.119001605 -0.03562772 0.0320887 0.0044197347
000100 da 78 ae bd 4c 98 1c 3d ac 0a ca 3b 35 0b 12 bd
       -0.08519144 0.03823118 0.006165823 -0.03565522
000110 52 04 3c bd 8f 77 45 bd 44 91 d5 bc 50 18 d8 bd
       -0.045902558 -0.048209723 -0.026070245 -0.10551512
000120 f7 a4 c4 bd 51 d6 16 3c 53 98 41 bd f3 0e 1f 3d
       -0.09601777 0.00920637 -0.04726441 0.038832616
000130 35 b2 0c be a2 c3 87 bd 89 53 34 bd 78 05 ad be
       -0.13739856 -0.06629111 -0.044024978 -0.33793235
000140 0e 47 7e bd 92 44 52 bc ab d0 81 be 00 e4 8d be
       -0.06207948 -0.012833731 -0.25354514 -0.27713013
000150 66 48 7e be 00 6d 88 be 2d 41 09 bd a6 c7 34 bd
       -0.24832305 -0.2664566 -0.033509422 -0.044135712
000160 28 a3 5c 3d d7 11 1a 3c 81 6d 9d bd 51 fc 11 be
       0.053866535 0.009403667 -0.07686902 -0.14256407
000170 31 d3 52 bc c9 d6 43 3c 4a 50 8d be b6 1d 7b be
       -0.012867735 0.011953064 -0.27600318 -0.24523053
000180 e7 7c ce be 9d c4 bc bd a8 42 ef bd 9a a5 44 bd
       -0.40329668 -0.092171885 -0.116826355 -0.048009492
000190 63 89 68 bc 04 77 7e bd 1a 9e 75 3c 3b 01 25 bd
       -0.014192912 -0.06212522 0.014991308 -0.040284377
0001a0 07 85 c6 bc 54 b3 07 bc 62 64 58 3c 4f ff 1d bd
       -0.024233354 -0.008282501 0.013207527 -0.03857356
0001b0 1d 94 a8 bb a4 d1 75 be ac 11 5c 3c 3d 97 dc be
       -0.0051446096 -0.24005753 0.013431948 -0.43084136
0001c0 b6 1f 3e be 58 7a 7f be d6 57 96 bd a5 80 9e be
       -0.18566784 -0.24949014 -0.07340972 -0.30957523
0001d0 1a ce 83 bd 19 34 6c 3d 58 17 33 3c 24 83 2b bd
       -0.06435795 0.05766687 0.010930859 -0.041873112
0001e0 9e 65 92 bd 38 0c 90 be b4 33 86 bd 00 fe 37 be
       -0.07148288 -0.28134322 -0.0655283 -0.17967987
0001f0 5a a8 45 be e0 63 2b bd da 30 7f bd d1 a7 86 3c
       -0.19302502 -0.041843295 -0.062302448 0.016437443
000200 23 45 15 bd 17 ff aa bd 24 df 91 3c 1e 8e 8c 3c
       -0.036442887 -0.08349436 0.017806597 0.01715761
000210 a7 32 b4 3b b6 88 2f bd 4a 5b df bd 7b 8b f6 bd
       0.0054992023 -0.042854987 -0.10906084 -0.120383225
000220 f3 0c f1 3c 44 78 4a 3d 65 6e a7 bd b0 d4 29 3d
       0.02942512 0.0494311 -0.08175353 0.0414626
000230 a9 0b 7b be 43 53 74 bd b5 c8 50 3c d4 f6 d3 bd
       -0.24516167 -0.059649717 0.012743165 -0.10349813
000240 9b a4 e3 bd 67 10 8d be 83 6f 06 be c9 e9 b0 bc
       -0.111153804 -0.27551576 -0.13128476 -0.021595852
000250 dc a7 62 be 3a e4 dc 3c ca 99 a7 bd 3b 30 bc 3c
       -0.22134346 0.026964296 -0.0818363 0.022972217
000260 b7 a4 7c bd df cb 46 be 14 0d 4a be b5 48 52 3c
       -0.06168052 -0.19413708 -0.19731551 0.0128347175
000270 3b e2 c7 bd 1f 8e 40 be ca bc ce bd 94 a4 db be
       -0.09759947 -0.18804215 -0.100946024 -0.42899
000280 ab 3f c7 bd 7a 21 f8 3c b6 77 df bb 3a 2e 17 bc
       -0.097289406 0.0302894 -0.0068196906 -0.00922733
000290 fa 24 d9 3b 8d f6 f7 bc 7a fc 44 bd 12 b7 4f bc
       0.0066267224 -0.030268932 -0.048092343 -0.012677925
0002a0 12 f5 f6 bd a4 57 08 3c b2 28 00 be 50 47 be bd
       -0.12058462 0.008321676 -0.12515524 -0.092909455
0002b0 e2 b1 01 3d 45 ac ec 3c b9 45 80 be 5e 30 51 bc
       0.031663783 0.028890738 -0.25053194 -0.012767879
0002c0 e8 a1 e0 be 5e c2 4e 3b c7 00 67 3c 1f 94 97 bd
       -0.43873525 0.0031548957 0.014099306 -0.07401299
0002d0 90 dd f3 bd b3 29 cb bd 93 3b 38 3d b0 ef af b8
       -0.11907494 -0.09920063 0.04497869 -8.3892955e-05
0002e0 60 ef a6 bc d0 0b 7f be a8 3c 31 3d 5e df 1b 3d
       -0.020377815 -0.2490685 0.043270737 0.038054816
0002f0 b2 0b 81 3c ef d3 68 bd d9 48 3e bd 2a 94 cf bd
       0.015752647 -0.05684274 -0.04645619 -0.10135682
000300 9d 0a 2c bc 2e 30 ad bd d4 7e 39 bd a4 f0 e3 bd
       -0.010500577 -0.08456455 -0.04528697 -0.11129883
000310 aa de ac bd 72 47 5a bd 37 bc 27 bd 85 b8 4c bc
       -0.08440907 -0.05329079 -0.04095098 -0.012495165
000320 4e 86 27 bd eb 78 36 3c 0c 3e 50 bd 32 8a 36 3d
       -0.040899567 0.0111372275 -0.050840423 0.044565387
000330 a0 14 0f be c7 fc 2a bd f6 fa fe bc ab b4 b4 be
       -0.13972712 -0.041744974 -0.031125527 -0.3529409
000340 2a 10 7f 3d 4b 6a dc 3c b2 ca 9a be 02 fb 87 be
       0.062271275 0.026906153 -0.3023277 -0.2655869
000350 da 60 23 be 24 07 5f be 56 64 dc bc 2b 00 ed bd
       -0.15954915 -0.21780068 -0.026903313 -0.11572298
000360 3d ee 7f 3b 8c 39 8d bd 35 6e b6 bd 9d 74 95 bc
       0.0039051913 -0.06895742 -0.08907739 -0.018244082
000370 54 83 91 bd c3 b4 e4 3c 01 05 9d be d3 6e 84 be
       -0.07105127 0.027918225 -0.3066788 -0.25865802
000380 24 a0 00 bf 14 a5 f1 bd 7b 83 a2 bd a6 40 3f bd
       -0.50244355 -0.11799064 -0.07935234 -0.046692513
000390 2a 65 87 bd ee 3c 1d bd 14 0f 1b 3d c9 82 76 3c
       -0.066110924 -0.038388185 0.037856176 0.01504583
0003a0 ef c5 58 bd e5 d6 4a bd fb d5 9d bd bf 31 d7 bb
       -0.05292314 -0.049521346 -0.07706829 -0.0065672095
0003b0 7a 21 7b 3c 47 e6 95 be 6b 7b 67 bc 78 a6 e3 be
       0.015327806 -0.2927725 -0.014128546 -0.44462943
0003c0 40 55 7d be 53 8b 92 be 2d 1e c8 bd d6 05 5a be
       -0.24739552 -0.2862192 -0.097713806 -0.21291289
0003d0 55 12 5c bd db 54 a0 3b b8 5f 38 3d a5 38 4c bd
       -0.05372842 0.004892928 0.04501316 -0.049858708
0003e0 eb f8 c9 bb 0c bf b4 be e8 cc 93 bd 8e d7 3c bd
       -0.0061637065 -0.35302007 -0.07216817 -0.046104006
0003f0 16 5d 88 be 9b ac de bc a9 46 f3 3c eb 9f ee bd
       -0.2663352 -0.027181914 0.02969678 -0.11651596

decoder.2.bias f4 [784]
000000 28 c6 40 bd d4 3e 74 bd c2 fd 5c bc 82 7e 19 ba
       -0.047063977 -0.05963023 -0.013488235 -0.0005855338
000010 ed 7b 0e 3c ba 26 bd bb f5 4c c2 bd e3 85 56 bd
       0.008696538 -0.005772439 -0.09487335 -0.052373778
000020 d9 71 b1 bd 3a fc 95 bd c3 da 10 bc b4 d8 5e 3d
       -0.08664293 -0.07323499 -0.008841219 0.054405883
000030 e4 df 12 bd a2 0a 4c 3c 0b bb e7 bc c0 ec 6b 3d
       -0.03585805 0.012453707 -0.028287431 0.05759883
000040 87 b4 c9 bd 02 75 23 3d 2e 81 a7 ba 2b ab 5a bd
       -0.09848886 0.03990651 -0.0012779587 -0.053385895
000050 80 44 9f bd e1 25 4a 3d 0a b3 4e 3d 03 27 49 bd
       -0.07776737 0.04935253 0.050463714 -0.04910947
000060 89 7d 8e bc 1e 1a c5 bd 73 9d 12 bd f1 83 b2 bc
       -0.017393844 -0.09624122 -0.035794687 -0.02179143
000070 6f e6 38 bb 19 1b 0f 3d 75 b9 9f bd 57 70 a9 bd
       -0.002821352 0.03493795 -0.07799045 -0.0827338
000080 32 8e 4d 3d 3a 5e d7 bd d7 81 d4 bd 76 49 02 bc
       0.050184436 -0.10516019 -0.103763275 -0.007952085
000090 20 19 d5 bc 0d b7 b9 bd 48 83 26 3d be 3a 5e bd
       -0.026012957 -0.09068117 0.040652543 -0.05425524
0000a0 19 df c8 bc cf 09 46 3d 1c 83 80 3d fb ea 5c 3d
       -0.024520444 0.048349198 0.06275007 0.053935032
0000b0 d2 44 9b bd 07 41 c7 bc 9b 59 4e 3d 74 e0 59 3d
       -0.07581486 -0.024323 0.050378423 0.05319257
0000c0 99 7a 76 3d 32 e8 e3 3c 26 08 d0 bd da 69 d4 bb
       0.060175512 0.02782068 -0.10157804 -0.006482345
0000d0 b0 84 1b 3c c4 c3 96 bd 55 c2 26 3d 34 50 25 3d
       0.009492084 -0.07361558 0.040712673 0.04035969
0000e0 b1 09 07 bd 45 65 34 3c d4 d4 1c bd 60 cf 68 bb
       -0.032968227 0.011010473 -0.038288906 -0.0035523996
0000f0 9e 6f a2 bc 5d 6a b6 bd f9 d7 93 bd aa 36 03 bd
       -0.019828614 -0.08907006 -0.07218928 -0.032034554
000100 42 1a ca bd 92 76 11 be c3 b5 9e bd 8f 69 50 be
       -0.098682895 -0.14205387 -0.07749512 -0.20352767
000110 61 c9 4b be cb e4 47 be 47 20 ce bd 32 ab db bd
       -0.19901039 -0.19520871 -0.1006475 -0.10726012
000120 f4 04 63 be ce f4 84 bd b3 7f 84 bd 6b 16 b3 bd
       -0.22169858 -0.06492005 -0.06469669 -0.0874451
000130 7d 77 c3 bc eb 1d 08 bd c8 51 49 3d 34 41 80 bb
       -0.023860687 -0.033231657 0.04915026 -0.003914023
000140 f8 fa 0d bc e1 25 45 bd 8d d8 35 bd 93 2a c3 bd
       -0.008665793 -0.048131827 -0.044395972 -0.09529605
000150 11 cb 1e bd 9c c7 38 bd c0 cd d3 bd 59 5c 27 3d
       -0.038767878 -0.045112237 -0.10341978 0.040859554
000160 7c 0d 42 3d b4 6b 48 bc 78 72 81 bd ec 3d 84 bd
       0.04737614 -0.01223271 -0.06320661 -0.06457123
000170 cc cc 82 bd 98 81 99 bd db 7d bf bd a6 42 59 be
       -0.06386718 -0.07495421 -0.09350177 -0.2121683
000180 6a fc 3f be 91 f2 86 be 06 ae 36 be 15 9f 51 be
       -0.18748632 -0.26356938 -0.17839822 -0.20470841
000190 8f c0 94 be a0 2c 3c be 8e e2 26 be 8a b6 ac bd
       -0.2905316 -0.18376398 -0.16297361 -0.08433254
0001a0 e5 05 f4 bd 84 bb 51 bc dd ef 29 bd c7 5f 26 3d
       -0.11915187 -0.012801055 -0.041488517 0.040618684
0001b0 98 73 45 bc fa e8 71 bc 98 d4 a3 bd bb df 4c bd
       -0.0120514855 -0.014765019 -0.079995334 -0.050018054
0001c0 16 e4 72 3d 79 14 e0 ba 0c 69 ab bb 32 21 a7 bd
       0.05929955 -0.0017095945 -0.0052310284 -0.081606284
0001d0 60 c3 da 3b ee 71 30 bd d0 71 e9 bc 59 8e a3 bd
       0.0066761225 -0.0430774 -0.028496653 -0.07986135
0001e0 93 70 26 be a1 2b 58 be ce 3c 57 be 01 63 4a be
       -0.16253881 -0.21110393 -0.21019289 -0.1976433
0001f0 d2 d9 a0 be 79 5c 8a be ee 13 d4 be f7 af 9c be
       -0.31416184 -0.27023676 -0.41421455 -0.30603
000200 88 25 d0 be 3c d0 9a be 3d 61 a6 be 84 00 b9 be
       -0.40653634 -0.30236995 -0.32496062 -0.36133206
000210 6f 9e 48 be 76 98 01 be 57 26 6b bd 83 16 4e be
       -0.19591688 -0.12655815 -0.05740961 -0.20125775
000220 96 76 81 bd a2 4c 39 bd c8 55 8c bd 56 7d 0b bd
       -0.063214466 -0.0452391 -0.06852299 -0.034055077
000230 84 ec 60 3c da f7 df bd 84 16 88 bd a4 98 4d bd
       0.013728265 -0.10935946 -0.066449195 -0.050194398
000240 82 3e ba bd c9 07 36 be 61 94 66 be c7 6e 35 be
       -0.09093954 -0.17776407 -0.2251754 -0.1771804
000250 4a aa a3 be 9a 86 8e be d7 1d a7 be a4 ac b1 be
       -0.31965858 -0.27837068 -0.32639953 -0.34702027
000260 cf 17 bc be 91 c5 fe be fa 41 d9 be 15 a7 f6 be
       -0.36736915 -0.49760106 -0.4243315 -0.48174348
000270 04 be 08 bf c3 d5 c8 be af c8 c5 be 7f f9 ed be
       -0.5341494 -0.39225587 -0.38629672 -0.46479413
000280 bd b7 a7 be 1a 98 98 be 8d e3 20 be b9 54 93 be
       -0.3275737 -0.29803544 -0.15711804 -0.28775576
000290 81 4b 32 be bb 74 45 bd d2 49 15 3d 3c ab cd bd
       -0.17411615 -0.048207026 0.036447354 -0.10042426
0002a0 7a 7b 06 bd cb ed 11 bd 92 98 1a 3b 2c aa 77 bd
       -0.0328326 -0.035627168 0.0023589474 -0.060465023
0002b0 2e 12 ba bd fa ee 78 be ee b0 62 be 80 86 24 be
       -0.09085499 -0.24309912 -0.22137806 -0.16066933
0002c0 55 80 a2 be de 80 ab be f0 27 b0 be b9 ef b8 be
       -0.31738535 -0.33496755 -0.3440547 -0.36120394
0002d0 4b 43 d0 be c0 8d 02 bf 67 2c d3 be 87 1d 54 be
       -0.4067634 -0.50997543 -0.41244814 -0.20714389
0002e0 6a 70 7e be d3 30 89 be 52 ee b8 be 8c 7b ef be
       -0.2484757 -0.26795062 -0.36119324 -0.46773946
0002f0 a7 ea d9 be 45 3e 8c be 6a f2 8a be 0e 04 4f be
       -0.42561838 -0.27391258 -0.27138072 -0.2021639
000300 60 76 df bd ba a6 c6 bd d9 1f b0 bd 1f bd 74 bd
       -0.1091125 -0.09699769 -0.085998245 -0.059750672
000310 99 db f8 3b 19 a0 42 3c fe f0 87 bd 5f 16 23 bc
       0.0075945375 0.011878991 -0.066377625 -0.009954064
000320 cf a1 fe bd 09 39 be bd 91 4a 0d be d5 c6 87 be
       -0.12433206 -0.09288222 -0.13797976 -0.26518884
000330 6b a0 89 be 99 f1 47 be d0 6a 74 be ca 94 96 be
       -0.26880202 -0.19525756 -0.2386887 -0.29410392
000340 68 85 ce be 15 a3 be be 1a 0e bd be 14 c5 b8 be
       -0.40336156 -0.37233797 -0.3692482 -0.3608786
000350 97 83 2e be d5 bc 5e be ac 62 94 be 7c 9f c3 be
       -0.17042385 -0.21751721 -0.2898153 -0.38207614
000360 66 a2 97 be b4 f5 3e be 55 47 4a be 0a e8 b1 bd
       -0.29616088 -0.18648416 -0.19753774 -0.08686836
000370 1a 99 d2 bd 75 d3 01 bd f4 ff eb bd 57 48 ce bd
       -0.10283108 -0.0316958 -0.115234286 -0.100723915
000380 e9 73 d1 ba 8c 94 a1 bd df 16 8e bd 6a 17 13 be
       -0.0015979978 -0.07889661 -0.06937956 -0.143644
000390 f2 08 8b bd b7 18 78 be 23 46 4a be 1c 1a 88 be
       -0.067888156 -0.24228178 -0.19753318 -0.2658242
0003a0 72 55 41 be 8f 08 6f be e5 bd 13 be 3a 84 72 be
       -0.18880251 -0.23343109 -0.14427908 -0.23683253
0003b0 da 71 56 be 96 9d a0 be 73 b1 b7 be 75 f9 c8 be
       -0.20941868 -0.3137023 -0.3587757 -0.3925282
0003c0 5a 49 ac be 36 c0 6a be a3 06 9a be 0c 9e 83 be
       -0.33649713 -0.22924885 -0.30083188 -0.25706518
0003d0 ae 4b 7b be 01 9f 0c be 96 8e 21 be a6 46 4a be
       -0.24540588 -0.1373253 -0.15777048 -0.19753513
0003e0 a7 f1 07 be 88 b5 2d ba a0 d3 7d bd 6f 6d bf bd
       -0.13275777 -0.00066264765 -0.0619694 -0.09347045
0003f0 b9 fe f0 bb 2c 52 dc bd 68 c6 1c be 57 e4 d4 bd
       -0.007354584 -0.107578605 -0.15310061 -0.10395115
