models/autoencoder_16.pth (torch, 827311 bytes, 8 tensors)

encoder.1.weight f4 [128, 784]
000000 c0 1e c1 bb a2 2a 8f 3c 40 2a 76 3c d0 75 5b bb
       -0.0058935583 0.017476384 0.015024722 -0.003348697
000010 c0 fa 82 3b 50 3f 63 3c c0 c8 be 3c 14 4f d2 bb
       0.003997177 0.013870075 0.023289084 -0.0064181183
000020 e0 9d b6 3c f8 2c 6c 3c e7 f5 0e bd 9a 13 e4 bc
       0.022292078 0.014415018 -0.03490248 -0.027841378
000030 88 25 11 3c e0 44 4e 3c 1a 46 84 3c c8 6b 0a bd
       0.008859046 0.012589663 0.016146708 -0.033794194
000040 9c c7 77 3c c0 9b 6f bc 76 11 0f bd f0 50 3c 3c
       0.015123274 -0.014624536 -0.03492876 0.011493906
000050 3c 61 d0 3c 62 73 f8 3c 8a 30 9d 3c 9c 8f 50 bc
       0.02543699 0.030328456 0.019188184 -0.012729552
000060 40 b7 3e 3c c8 92 64 3c d0 3a 0c bd 60 89 d8 bc
       0.01164037 0.013951011 -0.034235775 -0.026432693
000070 da 74 a3 bc e8 e7 ab 3c 60 69 55 bc c0 e4 29 3a
       -0.01995318 0.020984605 -0.013025612 0.0006480925
000080 6c 7e 9c 3c 97 ba a2 bc e0 17 fb 3a bc ed 43 3c
       0.019103251 -0.019864364 0.0019156896 0.011958536
000090 30 25 bb bc 52 5c b5 3c e6 02 d6 3c c5 4c a5 bc
       -0.02284488 0.022138748 0.026124429 -0.020178208
0000a0 45 4d b1 bc 7f 94 03 3d b2 28 12 bc 2e cd b8 bc
       -0.02164329 0.03212404 -0.008920835 -0.022558775
0000b0 b0 67 ea bb 20 b9 f2 3a 05 46 0d bd b0 56 e9 3b
       -0.007153474 0.0018518306 -0.034490604 0.0071209297
0000c0 2c 65 f6 bc 94 38 92 3c 0b 3b 04 3d 34 09 2b 3c
       -0.03007754 0.017849244 0.03228287 0.010439206
0000d0 be 68 bd 3c 40 73 be bc 00 c0 f5 b8 60 f7 ec ba
       0.023121234 -0.023248315 -0.00011718273 -0.0018079095
0000e0 60 00 c1 ba c0 e2 61 bc 82 ec 84 3c 25 53 06 bd
       -0.0014724843 -0.013786972 0.016226057 -0.032794137
0000f0 00 6b c7 39 8a a9 ef bc 73 c8 b5 bc 94 19 83 3c
       0.0003803596 -0.029255647 -0.022190308 0.016003408
000100 6a 5a 8d 3c 73 4f e9 bc f0 b9 9e 3c 4c 05 05 bd
       0.017255027 -0.028480267 0.019375771 -0.032475755
000110 78 bb a9 3c aa 33 78 bc ca 1b 00 bc 7c a9 25 3c
       0.020719275 -0.015149036 -0.007819125 0.010111209
000120 e0 f3 97 bc 84 ea 0b 3c f8 28 92 3c 48 e4 53 3c
       -0.018548906 0.0085398 0.017841801 0.012932844
000130 05 53 aa bc 40 8a d6 bb 11 c9 10 3d 14 aa 0a 3c
       -0.02079154 -0.0065472424 0.035348002 0.008463401
000140 1a ff 07 bd 1a 33 91 bc b0 10 9b 3b 30 0c 44 3c
       -0.03320227 -0.017724562 0.004732214 0.011965796
000150 18 36 bc 3b 2c 56 d7 3c 0a e9 ea bc e0 2b 46 bc
       0.005743753 0.026286207 -0.028675575 -0.012095422
000160 6e 35 b1 3c 1e a5 0d bd 3a 99 b4 3c 88 b4 ca bb
       0.021631923 -0.034581296 0.02204572 -0.006186072
000170 12 de ac 3c 91 01 0b 3d 80 e1 6a ba 37 d5 02 bd
       0.021101985 0.03393704 -0.0008959994 -0.03194162
000180 18 e4 bb 3c 3a 0c a1 3c c8 b6 fb bc f7 a7 01 3d
       0.022935912 0.01965915 -0.030726805 0.031654324
000190 b0 c7 07 3c 08 cb e9 bc e5 6b da bc ce c8 1f bc
       0.008287355 -0.028539196 -0.026662776 -0.009752465
0001a0 e3 74 0a 3d 85 d1 f4 bc 9f 8e 10 3d 88 6f c1 3c
       0.033802878 -0.029885063 0.035292264 0.023612753
0001b0 5a f5 a1 bc c0 ac 16 bc 0a 5a 4c bc aa 30 c7 3c
       -0.019770313 -0.00919646 -0.012472639 0.024315197
0001c0 ee 99 2c bc 80 98 fe 39 f0 51 de bb e3 c5 05 bd
       -0.010534747 0.00048560277 -0.00678467 -0.032659423
0001d0 12 86 f6 3c 88 e3 ad 3c f2 12 02 bc 92 c1 db 3c
       0.030093227 0.02122666 -0.007939087 0.0268257
0001e0 f9 f0 ef 3c 00 c3 29 bd 7f f6 c6 3c b9 46 74 bc
       0.02928971 -0.041445732 0.02428746 -0.01490944
0001f0 a3 3c 87 3c c5 39 35 3c 4b e6 12 bd 9c 31 83 bb
       0.016508406 0.011061137 -0.035864156 -0.0040037166
000200 b5 83 15 3c d7 a5 b6 bc 01 1c 16 bd 89 f7 36 bc
       0.00912564 -0.022295875 -0.0366478 -0.011167415
000210 98 66 d1 3c 10 d8 ba 38 6c 33 9a bc f8 0c 04 3c
       0.025561616 8.909416e-05 -0.018823348 0.008059733
000220 c8 63 ac 3b 99 d7 08 3d 4e 95 d5 3c 28 d1 dd bc
       0.0052609183 0.033408735 0.02607217 -0.027077273
000230 98 a0 c0 3b dc 9f b7 bc 56 e3 ef 3c f0 8c 52 bb
       0.0058785193 -0.022415094 0.029283207 -0.0032127462
000240 30 22 5d 3c a2 20 9a 3c 1e cc 8a bc d7 e6 66 3c
       0.0134969205 0.018814389 -0.016943034 0.014093122
000250 ca 5e 21 bc 59 9d 1c bd 65 d8 c9 3c d4 fa c3 bc
       -0.00984926 -0.038235996 0.024639318 -0.023923315
000260 01 0b d9 bc 21 97 88 3c 73 04 a6 bc 10 df ac bb
       -0.026494505 0.016673626 -0.020265793 -0.0052756146
000270 68 4b d5 3c e0 65 48 3c ab d5 82 3c 52 25 95 bc
       0.026036933 0.01223132 0.015971025 -0.018206272
000280 1a 73 35 3c 65 0a 14 bd 3b ef 16 bc 68 99 30 3c
       0.011074806 -0.036142725 -0.00921231 0.010778762
000290 a0 63 00 bd 00 82 2e 39 e0 38 17 bb a4 0c 84 3c
       -0.03134501 0.00016642362 -0.0023074672 0.016119309
0002a0 20 4a 56 3b 28 38 92 3b ce 1d 78 bc 88 3c c0 3c
       0.003269799 0.0044622608 -0.015143825 0.023466364
0002b0 78 90 19 3c f0 68 02 3b 43 40 d6 3c 84 22 63 bc
       0.009372823 0.0019898973 0.02615369 -0.01386321
0002c0 36 a4 00 bc 6a 9d 3c 3c 55 5b c4 bb 66 30 99 3b
       -0.007851651 0.01151214 -0.005992333 0.004674959
0002d0 07 2f 75 bb 53 bf 32 bd 85 e6 0b bc ed e3 0a 3c
       -0.0037412064 -0.043639492 -0.008538847 0.008477193
0002e0 af a2 0b 3b 6a 07 2a bc bf 86 23 bb 66 34 ae bc
       0.0021306684 -0.010377744 -0.002495214 -0.02126522
0002f0 17 29 56 3a 2e f8 ee bc d3 27 a7 ba 8b ce d2 3a
       0.0008169575 -0.029171076 -0.0012752957 0.0016083283
000300 ae 51 c5 3c 94 4b 15 3c 37 23 04 3d a6 d9 0c bd
       0.0240868 0.0091122575 0.032260146 -0.034387253
000310 c6 0d bb 3c 5c cd e9 bc 4a dd 54 bc c0 75 e5 3a
       0.022833716 -0.028540306 -0.012992213 0.0017506406
000320 41 2a 62 3b f7 b7 39 39 7d 7f 61 3c 3a 28 ad bc
       0.0034510049 0.00017711507 0.013763306 -0.021137346
000330 e1 bb 39 bd 94 51 12 3b e6 86 13 bd de f8 9e 3c
       -0.04534519 0.0022326456 -0.03601732 0.019405778
000340 9f d5 3d ba 30 ed 6c 3c 02 ac 13 bd ac cc d4 3b
       -0.000724161 0.014460847 -0.03605271 0.0064941254
000350 c3 4f 1e bd 3a 98 a9 bc 1d d6 f4 bc 98 da bc 3b
       -0.038650285 -0.02070247 -0.029887253 0.005763363
000360 2d 51 a7 3c 2e 10 ac 3c 54 96 2a bd 20 c1 de bc
       0.02042445 0.021003809 -0.04164727 -0.027191699
000370 72 71 81 bc 84 41 03 bc 03 e3 d2 bc 1e 6b ba 3c
       -0.015801165 -0.008011226 -0.025743013 0.022756156
000380 20 9a 38 3b a0 a1 c7 3c 07 f2 81 bc a1 81 5e 39
       0.0028168038 0.024369061 -0.015862478 0.0002121986
000390 73 07 c1 bc fd 11 44 3a a2 35 8c 3c bc 4f 3a 3c
       -0.023563122 0.0007479487 0.017115418 0.011371549
0003a0 01 8d 89 bc 03 b5 cf 3c 77 eb 0c bc f4 74 5b 3b
       -0.016790869 0.025354868 -0.008601061 0.0033486458
0003b0 ec 8c e3 3c 32 34 1b 3c 13 5c bf bc 7c 54 19 bd
       0.027777158 0.009472894 -0.023359334 -0.037434086
0003c0 c8 1e d5 bc 73 1d 04 bc a2 8c 1b bd 02 56 f6 bc
       -0.026015654 -0.008063662 -0.037975915 -0.030070309
0003d0 cf 33 8b bc be 2c b8 bc d7 8f 09 bc 40 d2 b0 3b
       -0.016992478 -0.022482272 -0.0083961105 0.0053961575
0003e0 a3 f7 b0 bc e8 17 8e 3c 9c 51 f1 bc d8 f0 b2 3b
       -0.021602457 0.017345384 -0.02945786 0.0054608397
0003f0 c4 a2 81 3c a4 18 08 bd 4e 75 03 bd 32 3d 15 3c
       0.015824683 -0.033226624 -0.032094292 0.009108828

encoder.1.bias f4 [128]
000000 f2 f8 4e bb 0a b8 a5 bb cd 04 ef bb 92 7c 02 bf
       -0.0031581488 -0.0050573396 -0.0072942735 -0.5097133
000010 74 9a e9 3e 7c fa 08 bf 55 00 b9 be e3 e1 fc 3e
       0.4562565 -0.5350721 -0.36133066 0.49391088
000020 67 f7 f4 be 99 10 20 bf de b5 b5 bd ad f8 2a 3f
       -0.47845003 -0.62525326 -0.08872579 0.667857
000030 ed 67 72 be 8f e2 9e 3e f4 df c9 bc a0 e4 0e 3f
       -0.23672457 0.31032225 -0.024642922 0.55817604
000040 9c 77 05 3f 0e 0f c3 3e 7f bb e0 bd ce 74 4e bd
       0.52135634 0.38097423 -0.10973262 -0.050404362
000050 9f e3 6e be 86 7e b7 3e a7 63 be 3d 90 0b 9f bb
       -0.23329018 0.35838717 0.09296351 -0.0048536733
000060 ba f1 1b 3f 1c 27 3b bd 6d b8 da 3d 17 44 ad 3c
       0.6091572 -0.045691594 0.10679708 0.021150632
000070 83 f0 08 bf 78 c5 e0 3e 28 7e 76 3e 47 c5 37 3f
       -0.5349199 0.43900657 0.24071562 0.71785396
000080 a7 9a 0c 3f fc 8c 10 bc ba b1 88 3b 14 14 4f bd
       0.5492348 -0.008822676 0.0041715773 -0.050556257
000090 f5 34 22 3e af ec 01 bd 5b 87 1e 3f f4 8e 93 3e
       0.15840514 -0.03171986 0.61925286 0.28820002
0000a0 26 c7 06 3d 78 12 f8 3d 5b 13 8a 3c 63 fc b3 3e
       0.032904766 0.12112898 0.016854933 0.35153493
0000b0 ff 54 66 ba 03 c4 35 3c 1b 7f e9 3e 0d 69 d1 bc
       -0.0008786469 0.011094096 0.45604786 -0.025562787
0000c0 01 e1 9d bc 5b 58 10 3f ac b1 81 be 0c 6a d1 3e
       -0.01927233 0.5638482 -0.25330865 0.4090122
0000d0 11 07 16 bd a2 c9 89 be b0 f6 98 3e 6f 9d 5d bd
       -0.036627833 -0.26911646 0.29875708 -0.05410522
0000e0 3d 68 eb bc 55 42 e2 3e a6 77 d5 be 0b 92 82 3f
       -0.028736228 0.44191232 -0.41692847 1.0200819
0000f0 a4 ed 88 3c 78 ce 68 3f a2 20 c0 3c 27 57 32 3f
       0.016714878 0.90940046 0.02345306 0.69664234
000100 f8 6c 21 bf 61 65 2f bd 44 9f 5f 3e cd 7b c8 3e
       -0.630569 -0.04282129 0.21838099 0.39156953
000110 8c f1 64 bc 3f eb 6c be f8 d6 cb 3e 27 f7 67 3f
       -0.013973605 -0.23136614 0.39812446 0.906115
000120 de 0d fe ba 53 73 28 3c ca 83 c6 be 1d df f0 3e
       -0.0019382795 0.010281402 -0.38772422 0.47045222
000130 59 fc 4a bf 19 82 e1 bb 9b 50 8a 3f 83 a6 08 3f
       -0.792913 -0.006881964 1.0805849 0.53379077
000140 cc 20 0d 3f 7b bd d7 bc 58 80 50 3c cf 4b 2c bf
       0.5512817 -0.026335469 0.012725912 -0.67303175
000150 cd 4a 8a 3d 94 72 23 3f 19 07 7a 3c 1c 34 0d 3f
       0.06752548 0.6384671 0.015260481 0.5515764
000160 f1 2c c7 be da 3c fb bc a5 84 2b bc 31 9b db be
       -0.38901475 -0.030668665 -0.010468637 -0.4289184
000170 0a 08 00 3f 9f 09 0a bd 9d ea b6 be fe df 4a 3f
       0.50012267 -0.03370058 -0.3572587 0.79248035
000180 79 21 37 be 1f 4e 87 be d8 77 1d 3f 79 87 27 bd
       -0.17883863 -0.2642679 0.6151099 -0.04090068
000190 34 04 26 3f 24 0e 9a 3c fe 84 30 3d 54 6c 7d 3e
       0.64850163 0.01880557 0.04309558 0.24748355
0001a0 fd 47 69 3e b8 87 20 bd 93 ca b5 be ed 05 07 3e
       0.22781368 -0.03919193 -0.35506114 0.13185854
0001b0 92 d0 9c bc 99 b9 bb 3c f9 1d 8d ba 1f a2 4f 3f
       -0.019142423 0.022915648 -0.0010766379 0.8110675
0001c0 1b 83 f6 bc 72 60 27 bf fe 60 e1 3d 19 c8 d1 be
       -0.030091813 -0.6538154 0.11004828 -0.40972975
0001d0 db 39 f6 bc 3c b0 0c bf 07 80 e1 be f6 b3 a8 bc
       -0.030056885 -0.5495641 -0.4404299 -0.020593625
0001e0 eb 7c 54 bb ba 7f 86 3e 6c d9 39 bc 2c d5 fd 3d
       -0.003242309 0.26269323 -0.011343341 0.12394175
0001f0 44 60 f7 3e 3c 79 df 3e 2b 49 88 be 99 d1 30 3f
       0.48315632 0.43647182 -0.26618323 0.6906982

encoder.3.weight f4 [16, 128]
000000 dc 0e a3 bd 39 5a 00 bd 8c 25 c6 3d 0a c9 0d 3e
       -0.079618186 -0.031336043 0.0967513 0.13846222
000010 2c f4 89 3e ce ec b5 bd 0d f9 0c be 50 84 94 3d
       0.269441 -0.088830575 -0.1376688 0.07251799
000020 57 40 ce bd 6a 79 24 bd a9 a8 be 3c 8c e7 71 3e
       -0.100708656 -0.040154852 0.023273783 0.23623484
000030 9e 0c 3f be d3 73 59 3e 42 c2 0e bd d0 81 34 bd
       -0.18657157 0.2123559 -0.034853227 -0.04406911
000040 4b e2 3e be 72 de be 3d 5b 6e 05 bd c8 54 2d be
       -0.18641011 0.09319772 -0.032575946 -0.16926873
000050 bc 80 f3 bd ae 15 e7 3d a6 15 30 bd 76 f1 4a 3c
       -0.118897885 0.11283432 -0.042989396 0.01238667
000060 d7 99 2b 3d d2 b4 dd 3c ff 74 b6 bd 00 89 b2 bb
       0.04189476 0.02706376 -0.08909034 -0.0054484606
000070 f0 5c fd bc 42 42 05 bd 0e 3e da bc 58 ed 16 bc
       -0.030928105 -0.03253389 -0.026640918 -0.009211861
000080 35 7c 15 3e 39 78 a0 bd 17 aa 7c bd c1 03 0d bd
       0.14598162 -0.07835431 -0.061685648 -0.034427408
000090 e4 d9 d7 3d ae 72 d8 bd 83 47 07 3e b5 0e 5f bd
       0.10539606 -0.105687484 0.13210873 -0.054457385
0000a0 08 cf d9 3d d7 3f 9a 3d d4 8f 8f bd 01 e5 ab 3c
       0.10635191 0.07531708 -0.07009855 0.020983221
0000b0 65 78 a5 3d 6d 76 2a 3b e5 3d 2b bd c6 a9 1f 3d
       0.08079604 0.0026010529 -0.041807074 0.038980268
0000c0 f4 86 bb 3c 1d 2c ed bd 2e a1 35 3e 3e 4e aa 3e
       0.0228915 -0.115806796 0.17737266 0.3326282
0000d0 18 c9 87 3d ac 2f f1 bd e9 3a 9c 3e 2a 37 11 3d
       0.066301525 -0.11776671 0.30513695 0.035453
0000e0 f1 37 43 3d 5d 95 99 bd ea a7 ea bd a9 89 87 3e
       0.04766077 -0.07499192 -0.11457808 0.26472214
0000f0 8c 8c d1 bc 94 85 1b 3f 3f 22 25 bd de 2f 97 3d
       -0.025579713 0.607507 -0.040315863 0.07382177
000100 17 43 0d 3d 07 ac 65 bd 16 0d 93 3e f0 6f 74 3e
       0.03448781 -0.05607226 0.2872092 0.23870826
000110 75 b9 30 bd 38 b6 bf bd 61 c5 49 3d df 82 d7 3d
       -0.043145616 -0.09360927 0.0492605 0.105230086
000120 8e b2 95 bd dc fe 00 bd cd 93 13 3e a0 d1 88 3e
       -0.07309447 -0.031493053 0.1441185 0.2672243
000130 57 f6 3e 3e fc 94 48 bd 0e ba a1 3e 9e 4e 8c bd
       0.18648659 -0.048970208 0.3158726 -0.068509325
000140 69 b9 27 be db 10 61 bd de 9c 38 bb 6a d2 05 bd
       -0.16379322 -0.054947715 -0.0028169672 -0.03267137
000150 f0 f6 c7 3d c4 b5 8d be 0d a2 67 3c d6 6f 15 3e
       0.097638965 -0.2767774 0.014137757 0.14593443
000160 00 22 f5 bd 7e 23 83 bc 3f 17 99 bd 10 c1 34 3e
       -0.119693756 -0.016008135 -0.07475137 0.17651772
000170 c7 57 54 3d 82 d1 f3 bc fe b7 b6 3c 9a d8 d6 bd
       0.051841523 -0.029762987 0.022304531 -0.10490532
000180 2b 41 96 bd e2 63 16 3d 67 33 26 3d 07 c3 f3 bc
       -0.073366486 0.03671635 0.040576365 -0.029756082
000190 e5 1c c1 bd 36 58 a5 3d 29 f7 3e bc 96 f3 a0 ba
       -0.09429339 0.080734655 -0.011655607 -0.0012279626
0001a0 da 16 39 3e f2 6f 3b bd 3e 8c 83 3c 32 dc 29 bd
       0.18075123 -0.045761056 0.016058084 -0.04146976
0001b0 72 68 aa 3d 18 69 83 bc b6 10 87 bc 51 32 98 3e
       0.083207026 -0.016041324 -0.01648746 0.29725888
0001c0 04 18 4d bc 27 39 2c be 49 9f ac be 8c 63 25 be
       -0.012517933 -0.16818677 -0.33715275 -0.16151255
0001d0 ba 37 c7 b9 21 0b dc bd ee a8 7b 3c bd eb b4 bc
       -0.00037997757 -0.1074431 0.0153601 -0.022085065
0001e0 e3 bb 0b 3d 24 88 05 be 52 f5 80 bd e7 ad 8e bd
       0.03411473 -0.13040215 -0.06296791 -0.06966763
0001f0 41 f6 0e be b6 19 30 3e 34 b8 2f 3e b9 46 8e bd
       -0.13961126 0.17197308 0.17160112 -0.06947083
000200 1b 08 2b bc bc b0 2b bc ef 2d 8f 3c 57 d6 0c 3e
       -0.010438944 -0.0104791485 0.017477958 0.13753639
000210 5d 39 ba 3e 3a 0e d0 bd a4 43 60 3e 6c f8 e6 3e
       0.3637189 -0.101589635 0.21900803 0.45111406
000220 bb ce c5 bd a4 fa 9a bd f0 ab 57 bd 4a 07 9f 3e
       -0.09658571 -0.07567337 -0.052654207 0.3106025
000230 22 40 bb bd 0f 4d 2d 3e 60 05 8d bd 17 24 ec bd
       -0.09143092 0.16923927 -0.06885791 -0.11530321
000240 71 a1 45 3e ce b3 75 be 70 21 13 3e b2 3e 83 be
       0.19299866 -0.23994371 0.14368224 -0.2563377
000250 aa 67 20 3e 92 80 95 3c c9 35 53 be 80 43 96 bd
       0.15664545 0.018249784 -0.20625986 -0.07337093
000260 7e 8e ab ba f8 16 cf bc f5 b1 9e 3d 81 ac 9a 3d
       -0.0013088731 -0.025279507 0.07748786 0.07552434
000270 c8 60 49 3d c7 bd 8d 3e 47 96 25 bd 7d 4a c1 3d
       0.049164563 0.2768385 -0.04042652 0.09438036
000280 d5 bd 7a be 1e b4 58 bd e9 67 c1 3d 8b 94 15 3d
       -0.24486478 -0.052906148 0.094436474 0.036518615
000290 20 a0 98 bd 5a e5 79 3e d1 74 bb bd f8 af 02 be
       -0.074524164 0.24403897 -0.0915314 -0.12762439
0002a0 59 9c cd bd 4d e8 39 3d 6b eb 2d bd 1a 67 a6 bc
       -0.100395866 0.045387555 -0.04246084 -0.020312835
0002b0 f0 95 bc 3a f0 f6 3f 3c 16 44 23 be 7e 09 71 bd
       0.0014387947 0.011716589 -0.15943941 -0.058846943
0002c0 13 f1 71 bd 67 1c 0e 3d 15 de e7 3d eb 07 b7 3d
       -0.059067797 0.034695055 0.11321656 0.08937057
0002d0 7a 38 82 3d 29 42 ae 3d fc c5 a1 3d c1 c4 08 be
       0.06358428 0.08508713 0.07899091 -0.13356306
0002e0 ac 85 ed bc df 6c 6f be 9a 47 36 be 75 88 50 be
       -0.028994404 -0.23381375 -0.17800751 -0.20364554
0002f0 c9 83 2c 3c a6 96 00 3e 51 19 44 3c 4b 85 af 3d
       0.010529467 0.12557468 0.0119689265 0.085703455
000300 9b da e5 3d d0 d9 58 3c ea 8f 10 bd ca 51 9c 3c
       0.11223336 0.013235524 -0.035293497 0.019081969
000310 5a 02 6a bc 0c 98 dc bd a4 f8 0a 3e bf d4 42 be
       -0.014282787 -0.10771188 0.13571411 -0.19026469
000320 dd ed 33 bc 34 f8 33 3e de 5f b9 3c e3 1f 7d 3d
       -0.010982004 0.1757515 0.02262872 0.061797988
000330 c4 65 76 3d d3 fb 67 bd ab 53 66 3e fc bb e3 3c
       0.060155645 -0.056636643 0.22492854 0.027799599
000340 39 59 8e 3e 09 7a c4 bb a7 d2 66 3c b4 e9 57 be
       0.27802446 -0.005995993 0.014088309 -0.21085244
000350 6b 3c 1d 3e 22 9a 89 be 6c 35 b3 3d 05 05 e3 bb
       0.15355079 -0.26875407 0.08750424 -0.0069280886
000360 bd eb f0 3d f7 31 89 3c 96 8e 88 bd 00 08 37 be
       0.117637135 0.016747458 -0.06667821 -0.17874146
000370 aa dd f0 3d 7a 99 cf bb c8 eb 28 be f5 49 39 3d
       0.11761029 -0.0063354345 -0.16496193 0.045236547
000380 ae bd bf bc 72 b1 9f bd 18 97 01 3e 3b f9 73 3c
       -0.023405876 -0.07797517 0.12655294 0.014890964
000390 cb ef 0e be 64 f4 9d bd b9 08 13 3e 6b 8b c2 3d
       -0.13958661 -0.077126294 0.14358796 0.09499248
0003a0 86 93 2f be f1 41 01 3c 04 59 b2 3d 6f 8f 8d 3d
       -0.1714612 0.007889257 0.08708385 0.069121234
0003b0 a1 f4 62 3c 9c 6e 4b bd ef cd 14 bd 10 9b 45 3c
       0.013852269 -0.049666032 -0.036329206 0.012060896
0003c0 aa db ae 3b 3a 23 12 3d 88 1d c7 3d 27 c3 4c bc
       0.0053362446 0.035678126 0.097224295 -0.0124977
0003d0 ea 04 50 bc f9 e1 11 3e a5 39 03 3e 91 66 01 3d
       -0.012696484 0.14246358 0.12814958 0.031591956
0003e0 fa d0 4f 3e 5a 29 05 3e 1d e8 82 3d 12 df 4f 3c
       0.20294562 0.13004056 0.06391928 0.012687461
0003f0 8d fe a8 3e bb 65 24 be bb fb 54 3d 2e b8 aa be
       0.33006707 -0.16054432 0.05199788 -0.33343643

encoder.3.bias f4 [16]
000000 22 54 04 3e 5c 18 d3 be 4a 64 42 3e 08 d2 34 bf
       0.12922719 -0.41229522 0.1898357 -0.7063298
000010 4f fd 95 be 8b 3e d6 be 3c 82 88 be ef 0c 4b bf
       -0.29294822 -0.41844591 -0.2666186 -0.7931661
000020 1c ef 52 3e e6 e0 61 bd 58 15 03 3f 95 4f ac be
       0.20599025 -0.05514612 0.5120444 -0.33654466
000030 97 fa d0 3e 0d ba e3 bd 86 a2 7c 3d 40 4f 89 be
       0.40816185 -0.11119471 0.061678432 -0.26818275

decoder.0.weight f4 [128, 16]
000000 5b 8a dd bc ec 9b 40 be ce f8 0f bd 86 4a e6 3d
       -0.027043512 -0.1880948 -0.035149388 0.11244683
000010 bf 3b ac bd ed 53 9c be 5d 42 dc bd 2e 3b 1c bc
       -0.08409833 -0.3053278 -0.10754845 -0.009535594
000020 3d aa 99 bd 43 d8 13 bf 18 bc fb be 9f c9 e4 3d
       -0.075031735 -0.57751864 -0.49166942 0.11171269
000030 4d 41 ba 3c 71 95 bc bd 75 a1 1d bc dd d3 89 be
       0.022736216 -0.09208191 -0.009621014 -0.2691945
000040 60 ab a1 bb ad 0e 1b 3e 90 5f e7 3d 98 29 fa bd
       -0.0049337596 0.15142317 0.11297524 -0.12214965
000050 cf 80 95 3e 6f 9c 09 3e ca 10 4f bd cf 8a 2e 3e
       0.29199836 0.13438581 -0.05055312 0.17045139
000060 56 e6 a0 bd aa fd 3e be 1d 67 6c be 2a 4a 08 3e
       -0.07856433 -0.18651453 -0.2308621 0.13309541
000070 e0 bb ad 3d 18 18 cb 3c 3c ac 29 3e 88 b6 74 be
       0.084831 0.024791762 0.16569608 -0.23897755
000080 b5 ef a7 bc 47 ca 63 3e 09 3a e1 bb 90 01 d6 3d
       -0.020500043 0.22245131 -0.0068733734 0.10449517
000090 74 59 68 be 4f 1d 6c be 56 f1 41 3e 1f 55 b7 bd
       -0.22690374 -0.23058055 0.18939719 -0.089517824
0000a0 09 9f 7d 3e 79 90 c5 3e 7b 03 f0 bc 00 9b 7f 3d
       0.24767698 0.38586786 -0.029298535 0.06240368
0000b0 db 27 c2 3e 5e db 8d 3e e4 5e fe bc 75 35 b6 3e
       0.37921032 0.27706426 -0.031051107 0.3558766
0000c0 eb 63 8a bb 8b d7 03 3d 11 ce 91 3e f7 9b 08 bf
       -0.004223337 0.03218798 0.2847753 -0.53362983
0000d0 92 ff 61 3e c4 7c 44 3e 7f ba 77 be 00 39 53 3e
       0.22070149 0.1918822 -0.24192236 0.20627213
0000e0 4d 9a 89 3c b3 19 ce bc f1 fb 91 3e 81 bb 64 3e
       0.01679721 -0.025158739 0.2851253 0.22337152
0000f0 cf 7a 57 bc 4f 32 01 3e a1 78 3b bd d1 99 c4 3c
       -0.013151838 0.12616847 -0.045769338 0.023999127
000100 cc 58 9f be 1b 06 23 3b ff a2 2d 3d 74 b1 69 3d
       -0.31122434 0.0024875465 0.042391773 0.057053998
000110 35 01 3a be 19 b7 66 be 62 5c 20 3e 37 db 2e bd
       -0.18164523 -0.22530784 0.15660241 -0.04268953
000120 da 23 c2 be 49 c9 61 3e a9 d2 f2 3d 42 e6 04 be
       -0.37917978 0.2204944 0.118565865 -0.12978461
000130 21 50 d9 3e 7e 89 2b 3d 87 c9 9c 3d ec c6 68 3e
       0.42443946 0.04187917 0.07655626 0.22732133
000140 de 79 2f 3e 94 44 36 bd 6b 3a ae bd 60 78 ee 3c
       0.17136332 -0.044498995 -0.08507236 0.029110134
000150 97 6d 37 3d d3 70 a9 bb 69 42 17 bd a3 38 a2 3b
       0.044782247 -0.0051709204 -0.036928568 0.0049505993
000160 e3 f8 af be 08 42 dc be 50 ff be 3e ab 20 a6 be
       -0.34369573 -0.43019128 0.37304163 -0.324468
000170 06 dc 68 3d f2 a8 eb be 5d 42 b4 be 8f 68 dd 3d
       0.056850456 -0.46027333 -0.3520688 0.108109586
000180 cf d9 fa 3e a8 77 d7 be 09 11 05 bf 26 d4 96 3e
       0.489943 -0.42083478 -0.5197912 0.2945873
000190 e1 f6 0d 3e 2a ad 94 be 2f cd 22 bb 36 ab 50 3e
       0.13863708 -0.29038364 -0.0024841537 0.20377812
0001a0 ad 4b cf 3e 79 e0 a2 be e5 0b 75 3e c6 ec 95 3e
       0.40487424 -0.31811884 0.23930319 0.29282206
0001b0 c3 9a de 3e 4e 2c 3d 3e be f9 ae be 29 da 95 be
       0.4347745 0.18473932 -0.34174913 -0.29268005
0001c0 7f ff 29 3e 39 db 2c 3e b5 65 22 3e f5 4b 8a 3e
       0.1660137 0.16880502 0.1585911 0.27011076
0001d0 dc 93 00 3e 93 eb 10 3d 7e b2 d8 bd 39 a4 eb 3d
       0.12556404 0.03538091 -0.1058092 0.11505932
0001e0 4e 05 1f be ff db 86 bd e5 18 00 be 06 54 34 3b
       -0.15529367 -0.0658493 -0.12509497 0.0027515902
0001f0 22 f2 31 be 03 e7 a1 3e ea 8f 71 bd 76 c3 82 be
       -0.17377523 0.3162156 -0.058975138 -0.2553975
000200 48 0d 83 3e c1 b3 b1 be 0e 99 1d 3d 35 fe 26 3e
       0.2559607 -0.34707454 0.038476042 0.1630791
000210 c8 71 cf 3e 41 88 33 3e de 2f 44 3e ac 1e 80 3e
       0.40516496 0.17532445 0.19158885 0.250234
000220 97 b3 0b 3e 3e 1d 0b 3d 21 19 9c be 6a b3 36 be
       0.13642727 0.033963434 -0.30487922 -0.17841879
000230 20 a7 e2 bd f9 be e2 bd d3 41 89 be f3 ae 18 3e
       -0.11067033 -0.110715814 -0.26808032 0.14910488
000240 71 83 24 be 63 db 34 3e 0d 58 54 be ff 6a 95 3e
       -0.16065766 0.17661814 -0.20736714 0.29183194
000250 d7 da c0 bd 4f eb 34 3c 6d e5 9b bd 49 84 51 3e
       -0.094167404 0.01104243 -0.07612119 0.20460619
000260 12 a7 16 be 59 93 cb 3c 57 f7 e7 3d cb 90 ee 3d
       -0.1471217 0.024850534 0.11326473 0.11648711
000270 ab 75 88 3e 86 3c 9a 3e 1b 82 f3 3d e4 a0 d5 3a
       0.26652274 0.301243 0.1189005 0.001629856
000280 8f 90 66 3d 10 37 11 3e 09 24 8b be c6 b4 b9 bd
       0.056290206 0.14181161 -0.2717593 -0.09067683
000290 f7 8f 14 3d a7 47 31 3e 1d fe a8 be 13 6b 1d be
       0.036270108 0.1731249 -0.33006373 -0.15372877
0002a0 4f f9 d0 bd 1f be 45 3c 87 6a 16 be 7d 61 34 3e
       -0.10203802 0.012069254 -0.14689074 0.17615314
0002b0 ea 3b d8 3d eb db 44 3e 3e 60 59 be e3 bb 42 3e
       0.10558303 0.19224517 -0.2122812 0.19016986
0002c0 59 f9 51 be 1c 0e 4e bb 6f 55 fb bc ea e3 34 be
       -0.20505275 -0.0031441515 -0.030680386 -0.17665067
0002d0 a2 43 a6 3d 5d 7a 1f 3d 9b 13 e7 bd 19 19 50 bd
       0.08118369 0.038935054 -0.11283036 -0.050805185
0002e0 35 06 a7 3d 3d ca 99 3e a2 6a ac 3e 41 76 81 be
       0.08155481 0.30037108 0.33675104 -0.25285533
0002f0 82 e3 1e 3e 65 4c 54 3e 8a a4 23 be 5e ea 9b 3d
       0.15516475 0.20732267 -0.15980735 0.07613061
000300 9c fe 5e be 04 45 7b 3e e8 3f 12 3d df bf 6e bd
       -0.21776813 0.24538046 0.035705477 -0.05828845
000310 eb 77 e9 bd 5e 97 c8 3d 57 6e 09 3e cc 25 0d be
       -0.11399826 0.09794496 0.13420998 -0.1378395
000320 44 ec 1e be b0 0c b7 3e 92 84 0e bd fd 65 2a be
       -0.15519816 0.35751867 -0.034794398 -0.16640468
000330 1d de 8c 3c 4b a5 87 3e df 2b bb 3d 3a 25 0b 3e
       0.017195756 0.26493296 0.09139227 0.1358842
000340 f8 d3 93 be 15 b2 87 bd 73 09 9c bd 48 6b 34 3e
       -0.28872657 -0.06625763 -0.0761899 0.1761905
000350 3e 11 12 be 05 9b 18 bc 04 97 a6 3d 19 7b 61 3e
       -0.1426439 -0.009314303 0.08134273 0.22019614
000360 43 73 9a 3b d5 c3 ac 3c cf 0d 00 3f 3e 51 99 3e
       0.0047134473 0.021089474 0.5002107 0.29944795
000370 ce c1 e1 3e 5b 81 80 be a6 1c 4a 3e 64 68 63 be
       0.44093174 -0.2509869 0.19737491 -0.2220779
000380 9b ae 64 be 01 2c 8a 3d 7f 29 a4 be 6c b1 61 bd
       -0.22332232 0.06746674 -0.3206291 -0.055100843
000390 8e be 82 bd 97 88 51 be 85 6b 4f 3d b3 d8 7d 3d
       -0.06384002 -0.20462261 0.050639648 0.06197424
0003a0 b5 7e 13 be b1 54 02 bd 41 39 1a bc e0 65 6b 3e
       -0.14403804 -0.03181905 -0.009413064 0.22988081
0003b0 dd 4b 05 3e 19 00 ad bc 6b b7 c7 3e 3c 60 ac 3d
       0.13017221 -0.02111821 0.39007124 0.08416793
0003c0 b4 a2 48 bd 06 58 13 3e 58 19 f9 bd e8 91 11 be
       -0.04898329 0.14389047 -0.12163037 -0.14215815
0003d0 22 7e fb bc 67 e9 0d be 72 70 32 be ff 2e 6f bd
       -0.030699793 -0.13858567 -0.17425707 -0.05839443
0003e0 87 de ba 3d 8c 1c 59 3d 83 a6 e1 3d 95 c3 47 bd
       0.09124475 0.05300574 0.11018088 -0.048770506
0003f0 1b f7 6a 3d 2e 0f 98 bd a3 36 c8 3d 29 76 8e 3e
       0.057364564 -0.0742477 0.09776046 0.27824524

decoder.0.bias f4 [128]
000000 2f 1a e2 3e a6 fc 4e bf ab 6e c1 3e 9d 87 bb be
       0.44160601 -0.8085426 0.37779745 -0.36626902
000010 8a ff e6 be 97 01 7f 3e 45 9b ae 3e dd 7b 04 bf
       -0.45116836 0.2490295 0.34102836 -0.517515
000020 c0 36 64 3e ac a7 be bf 17 f4 fc 3e 50 21 9e 3f
       0.2228651 -1.4894919 0.49404976 1.2353916
000030 10 f7 2e bf 94 3f 8e be 00 98 ed 3e 35 43 63 be
       -0.6834574 -0.2778288 0.4640503 -0.22193606
000040 f5 12 16 3f f6 71 a2 3d 68 cb cb 3e 0b 33 da 3e
       0.58622676 0.079318926 0.39803624 0.42617068
000050 c1 e5 26 bf 73 85 15 bc 68 c8 5f 3f e0 f9 74 3f
       -0.65194327 -0.009126055 0.8741517 0.9569378
000060 39 09 9a 3f a5 0e 47 bd 19 f2 aa bc 75 67 20 3f
       1.2034065 -0.04859795 -0.020867394 0.6265786
000070 41 e2 13 3f 7e 2d 4e 3e 5c 41 aa be db e4 ae 3e
       0.5776711 0.20134541 -0.3325299 0.34158978
000080 fb 83 5b 3f b4 6b 47 3e fe 30 0d 3f 85 cd bb 3d
       0.8574826 0.19474679 0.5515288 0.09170059
000090 26 64 82 bf 9a 09 34 3f fd e7 65 3e 7f 4c 45 bf
       -1.0186813 0.7032715 0.22451778 -0.7706985
0000a0 16 11 4f 3f 66 87 a5 bc 29 54 f1 3e a8 a6 87 3f
       0.80885446 -0.020206165 0.47134522 1.0597734
0000b0 2b 02 37 be e0 3b 4d 3e 3e 0b 85 bf a0 ec a1 3d
       -0.17871921 0.20042372 -1.0394056 0.07906461
0000c0 ea 18 f1 3e e3 37 e1 3e b0 94 5b 3f b9 ed 64 be
       0.4708932 0.4398795 0.85773754 -0.22356309
0000d0 04 9f 24 3f 52 d2 34 3f 23 5a f6 be 62 e6 19 3f
       0.6430514 0.70633423 -0.48115644 0.6011716
0000e0 a0 b1 a1 bf 47 99 f1 bd 7f 76 40 3e 7f c9 47 bf
       -1.2632332 -0.117968135 0.18795203 -0.78041834
0000f0 00 a3 c9 3e 5f 69 86 3e 94 b5 d1 3e 1e 65 91 bf
       0.39382172 0.26252267 0.40958846 -1.1358984
000100 d3 51 80 3e cc 7f 38 be a4 b9 7f bd 0c 06 90 3f
       0.25062427 -0.180175 -0.0624329 1.1251845
000110 6d 49 0c 3d 4a af cf 3d e2 2c 81 be 6e 8d 4e 3f
       0.03424971 0.101408556 -0.25229555 0.80684555
000120 59 66 85 3e bd cc d4 3d be 5c bc 3e c1 46 05 3f
       0.26054648 0.10390613 0.36789507 0.52061087
000130 96 22 d3 3f 0d 28 9e 3e a6 4a 20 3e a6 b5 32 bf
       1.649493 0.3088993 0.15653476 -0.69808424
000140 50 9d b4 bd 35 95 3e 3f 60 8a 17 3f d3 77 3e bf
       -0.088190675 0.7444642 0.5919552 -0.7440159
000150 8a fc 17 3f 79 65 5b bf 8e 62 4b bf fb c3 ab 3e
       0.5936972 -0.8570171 -0.7944726 0.3354796
000160 91 89 25 3e f6 e3 4a 3f 19 4f a5 3e aa ed ea be
       0.16165759 0.7925409 0.3228691 -0.45884448
000170 d0 b8 81 3f 35 2a a8 bf 9d 65 59 3e f9 96 ba 3d
       1.0134525 -1.313788 0.21230169 0.09110827
000180 d3 f0 2f 3f 71 f4 ec 3e fe 44 c0 be a2 19 08 3f
       0.68726844 0.46280244 -0.37552637 0.5316411
000190 e5 a0 fc 3e f7 fa 93 be 71 d3 43 be 1c 3e a9 3e
       0.49341503 -0.28902408 -0.19123627 0.33055198
0001a0 74 0c 5f 3e 0d 96 f1 3e 82 fc 28 3f 65 eb 66 3f
       0.21782094 0.47184792 0.66010296 0.90202934
0001b0 7a 57 7b bf e4 ad 28 3f 97 59 aa bf a0 5d 3c 3f
       -0.98180354 0.65890336 -1.3308591 0.7358036
0001c0 82 fd a1 3d 0a e5 56 3f 86 f2 8e be 57 ed c0 3d
       0.07909681 0.83943236 -0.27919406 0.09420269
0001d0 bf f7 ad bf 16 fb eb be 14 77 1b 3f 42 87 0b 3f
       -1.3591231 -0.4609 0.60728574 0.5450326
0001e0 5f 51 b2 3e a0 83 a6 bf 75 88 e9 3e df 5f ad bf
       0.34827706 -1.3008919 0.4561192 -1.3544883
0001f0 66 f4 7c 3c 33 1e 46 3f 72 36 84 3e 45 20 34 be
       0.0154391285 0.7738983 0.25822788 -0.17590435

decoder.2.weight f4 [784, 128]
000000 ac c0 46 be 38 5a b5 bd 93 85 0c bd cf 3f 7e be
       -0.19409436 -0.088550985 -0.034307074 -0.24829029
000010 fc 54 bc 3c 26 d5 d5 3a f9 8a 06 be 9c bb 13 3c
       0.022989742 0.0016314134 -0.13138951 0.0090168975
000020 cb 1b 19 3d 21 73 2e bb 2a 18 dd 3b 79 ae a1 bd
       0.03738002 -0.0026618915 0.0067472653 -0.07894606
000030 12 5f 0a bd 49 32 3d bc 37 ef 60 be 55 35 bc bd
       -0.033782072 -0.011547633 -0.21966253 -0.0918986
000040 38 9e 69 bd 59 72 e6 bd 70 f0 85 bd 1a 76 41 be
       -0.057035655 -0.11252279 -0.065400004 -0.18892708
000050 c7 88 9a bd b6 9d a1 bd 9e bd 56 bd 7c 96 b2 bd
       -0.075456195 -0.07891409 -0.052426927 -0.08720109
000060 f8 3d a0 3c bf 51 b0 3b e3 0b a5 bd 50 79 bd 3b
       0.019560799 0.0053808386 -0.08058908 0.005782284
000070 8f e6 83 be ea b0 66 bd 46 25 16 3b c3 70 3a bd
       -0.2576184 -0.056321062 0.00229104 -0.045517694
000080 04 26 f9 3c 92 56 11 bd 07 ea f3 bd fe 00 62 bd
       0.030413635 -0.03548295 -0.119098715 -0.055176727
000090 51 66 08 be 73 d0 30 3d 16 68 30 bd 49 e8 29 bd
       -0.1332028 0.043167543 -0.043068014 -0.04148129
0000a0 77 ed dc 3c 6b 81 3e 3b b6 0a 2d bb 14 13 ac bd
       0.0269687 0.0029068838 -0.002640409 -0.08402076
0000b0 f6 c8 9d bd 29 07 92 be 2b 52 ac 3c df cd 7c bd
       -0.07704346 -0.28521088 0.021035274 -0.06171977
0000c0 e8 8d a6 bd 97 e1 4d bd d5 fd 9b bd 33 bb 29 be
       -0.08132535 -0.050263967 -0.07616774 -0.16575317
0000d0 63 cc 44 bd 01 8b 56 bd d9 a8 c5 bd 58 ab 50 be
       -0.04804648 -0.05237866 -0.09651346 -0.20377862
0000e0 ef 2c 71 bd 8d be 92 3c d0 30 06 bd 7f 80 2e be
       -0.058880743 0.017913127 -0.032761395 -0.17041205
0000f0 fd 13 29 3d b6 13 4a 3d 0e 47 91 bc 3e 5b c3 bd
       0.041278828 0.049335204 -0.017734077 -0.095388874
000100 07 3f 02 3d e4 ee 3f bc da f9 a6 bd 0f 22 bb bd
       0.03179839 -0.011714671 -0.08153124 -0.091373555
000110 a8 3e c3 bc cf 23 10 bd 79 1a f2 bc b5 41 1f 3d
       -0.023833588 -0.0351904 -0.029553639 0.038881022
000120 c5 73 ab bd 17 df 1c be 33 07 c4 bd b7 3b cf bd
       -0.08371691 -0.15319477 -0.09571686 -0.101188116
000130 3e bb c2 bb 98 39 72 be 9b 01 e6 3b 3a 60 39 be
       -0.005942731 -0.23654783 0.0070192344 -0.18103114
000140 3a f0 49 3d 7d af d7 bc 32 8c 6f 3d d1 38 65 3c
       0.049301364 -0.026328797 0.05848331 0.013990597
000150 44 96 32 3d 39 02 a6 bd 32 b5 ee 3c ff b3 7f 3c
       0.043600336 -0.08105893 0.029139135 0.015606879
000160 f0 13 57 3d a4 b7 47 bd f4 3c 18 bd cc fe 73 3c
       0.05250925 -0.048759118 -0.037167504 0.014892291
000170 f4 e8 47 3d 9f a9 ec bd 11 5d dc bd e7 49 f2 bd
       0.048806146 -0.1155579 -0.107599385 -0.11830502
000180 c8 f9 68 3c 8c 73 99 bd a6 6c 04 bd b2 f2 83 be
       0.014219709 -0.07492742 -0.032330178 -0.257711
000190 78 29 0f bc fc 08 a3 bd b8 83 34 bd 9d 79 d8 3b
       -0.008737914 -0.07960698 -0.04407093 0.0066062943
0001a0 7e ac 2f bd ea a0 86 be d2 3f 54 be c0 00 b7 be
       -0.04288911 -0.26294643 -0.2072747 -0.3574276
0001b0 bb 59 51 bd a7 ae 14 3d 2e b8 57 bc 32 93 a4 bd
       -0.051110964 0.036299374 -0.01316647 -0.08035888
0001c0 80 0f 49 be eb a3 09 be c4 7b bd bd 28 82 5f 3d
       -0.19634819 -0.13441436 -0.09252122 0.054567486
0001d0 66 81 7b be c1 e6 2a 3d db 21 e4 3c f3 fc 8f 3c
       -0.2456108 0.04172397 0.027848175 0.01757667
0001e0 d4 1e 8e bc 16 2c 55 3c ec de 54 bd 25 ae 75 bc
       -0.017348684 0.013010999 -0.051970407 -0.014995133
0001f0 40 dd a3 bd 05 c1 f7 bc 9e 1a 42 3d bf 28 b9 3b
       -0.080011845 -0.030243406 0.047388665 0.0056506093
000200 7f 34 2a be b3 5f f1 3c e5 13 c3 bd a7 ad 5f be
       -0.16621588 0.029464578 -0.09525279 -0.21843587
000210 91 26 b6 bd 62 54 53 bd aa f9 94 bd df a6 c3 bd
       -0.08894075 -0.051594146 -0.07274182 -0.095533125
000220 1e 36 3f bd 5d 34 fa bc 87 3b af bd 10 71 88 ba
       -0.04668247 -0.030542547 -0.08556276 -0.0010409672
000230 58 d5 82 bd 29 4b 2c bd 34 8f a7 be 7e e0 5b bc
       -0.06388348 -0.042063866 -0.32726443 -0.013420222
000240 73 91 a5 bc 21 32 17 bd 1a 74 a1 bd 53 13 43 be
       -0.020210957 -0.03691304 -0.07883473 -0.1905034
000250 c8 e9 15 bd 63 47 08 3d 20 68 61 bd 8b 9e 0e bc
       -0.036599904 0.033271205 -0.055030942 -0.008704792
000260 80 af 9e 3c 2d 52 f2 bd 8b 7b f3 3c 49 c3 1d 3d
       0.019370794 -0.1183208 0.029721996 0.038516317
000270 05 a6 2f be 14 a5 b8 bd 2d 2e 31 bd 1d ce 22 3b
       -0.17153175 -0.09015861 -0.043256927 0.0024842091
000280 ff fa 3c 3d 21 63 5c bd 01 5a e4 bc 02 99 29 bd
       0.046137806 -0.053805474 -0.027874948 -0.041405685
000290 aa e2 99 be 2e bf ab bc 0c 12 c2 bd b9 25 1b 3c
       -0.30055743 -0.020965185 -0.094760984 0.009469443
0002a0 72 79 0b 3d 46 e5 2c bd 3d 0e a7 bc 4d 21 a9 bd
       0.034051366 -0.04221084 -0.020392532 -0.08258305
0002b0 cd 40 a9 bc 21 c7 44 be 7c 62 48 bd 7d bb 63 bd
       -0.020660782 -0.19216587 -0.048922047 -0.055598725
0002c0 77 67 97 bd 83 d6 40 bd 15 6c cb bd c9 f0 6e be
       -0.07392781 -0.047079574 -0.099327244 -0.2333404
0002d0 d1 51 a9 bd 16 97 86 bb 24 64 6a 3b 3f c4 30 be
       -0.08267558 -0.0041073663 0.0035765255 -0.17262362
0002e0 f8 bf a7 bd 75 f5 ea bd 9f 99 67 bd 40 6e 20 be
       -0.08190912 -0.114725985 -0.05654299 -0.15667057
0002f0 6a 2a 51 bd cb 2e 84 3c f8 8f ed bc f5 eb f8 bd
       -0.05106584 0.016135594 -0.028999314 -0.1215438
000300 8f e8 09 bd ed fc c2 bc 11 92 84 bb 12 9b dd bc
       -0.03366905 -0.023802245 -0.004045733 -0.027051482
000310 24 ab 3e bd 44 8c 4d bd d3 0d d0 bd d4 4c 56 3d
       -0.04654993 -0.050182596 -0.10158887 0.052319363
000320 c8 25 ed bd ac 71 28 be e8 4f 47 bc 66 b9 ac 3b
       -0.11579472 -0.16449612 -0.012165047 0.0052711247
000330 9f 0f 25 bc 2c 8c a1 be 5f d7 54 bd 1c 81 12 be
       -0.010074525 -0.31552255 -0.051963206 -0.14307064
000340 19 a3 a8 bc 9d 68 90 3c e8 d9 ba bd 65 87 7d 3d
       -0.020585584 0.017628008 -0.091235936 0.0618967
000350 69 de 12 3d ed 22 ac bd 5f 4d 4c bd fa 09 ef bc
       0.035856638 -0.08405099 -0.049878474 -0.029179562
000360 f4 1e ac 3c dc f9 17 bc d3 29 bd bc 0d d2 10 3d
       0.021010853 -0.00927588 -0.023091232 0.03535657
000370 77 4b 86 bd 11 1e 6d be c2 94 12 bd a6 9d 2b bc
       -0.065573625 -0.23156 -0.035786398 -0.010474598
000380 9a 11 a5 bb 79 c0 c4 bd 23 c5 9b 3a d5 48 2e be
       -0.0050374987 -0.09607024 0.0011884313 -0.1701997
000390 f8 fd 5b 3d 02 5a a7 bd b8 c5 6b bd cf 8d ab bc
       0.053709 -0.081714645 -0.057561606 -0.020941643
0003a0 40 55 03 3c 1e cc b9 be 38 5c 52 be 0e c2 9d be
       0.008015931 -0.36288542 -0.20542991 -0.30812114
0003b0 cd 46 c1 bc 92 3a a6 bd c3 6d 49 bd 35 d3 8b 3b
       -0.02359333 -0.0811664 -0.049176943 0.004267121
0003c0 d3 39 ca bd 26 e2 5e be c6 34 27 bd 36 ef c3 bd
       -0.0987431 -0.21765956 -0.040821813 -0.0956711
0003d0 1c a6 5b be 53 df 3f bd c1 68 3d bd 2d c2 d5 3c
       -0.21450084 -0.046843838 -0.04624248 0.026093567
0003e0 0f 65 e2 3c 87 d9 60 bd 3b 97 9d 3c c6 9c 3b 3b
       0.02763608 -0.05489495 0.019237151 0.002862738
0003f0 88 85 26 3d 2f 27 08 3d 86 c1 9f bd de 05 a4 3c
       0.04065469 0.033240493 -0.078005835 0.020022329

decoder.2.bias f4 [784]
000000 d1 16 9c bd ca ec ca bd 26 e7 e2 bd 7a f2 1a 3d
       -0.076215394 -0.09908445 -0.11079244 0.0378289
000010 4a 5b 68 bd 31 2f 45 3d 4d cb 6c bd 96 46 bc bd
       -0.056727685 0.04814071 -0.05781107 -0.09193151
000020 23 de 7b bd 6c 08 2d 3c 44 29 c0 bd b4 1c 3f 3d
       -0.061491143 0.01056109 -0.09382871 0.046658233
000030 7e f0 86 bd bc 51 a3 bd 2b 05 13 3d f9 1a b7 bd
       -0.06588839 -0.07974574 0.0358936 -0.089406915
000040 c8 a2 91 3c 16 17 ed bd 3b 75 c1 bd b9 06 82 bd
       0.017777815 -0.11576669 -0.09446188 -0.063489385
000050 e0 f5 45 3c fe de d3 bc 7e 33 aa bd 35 fa f2 bc
       0.012082547 -0.025863167 -0.083106026 -0.029660324
000060 ab d0 7e 3d ff 7a b9 3c 82 c5 4f 3d 06 0e 24 3d
       0.06221072 0.022641657 0.050725468 0.040052436
000070 7a a7 9e bc 12 e2 90 bc 37 20 6a bd 0b be fd bc
       -0.019366968 -0.017685924 -0.05715963 -0.030974409
000080 d5 1e a4 bd 76 50 6f 3d 6c c7 c6 bc 74 21 ca bd
       -0.08013693 0.058426343 -0.024265014 -0.09869662
000090 8e 58 9a 3c be d9 e9 bc 43 ee be bd 60 27 56 bd
       0.018841054 -0.02854621 -0.093227886 -0.052283645
0000a0 c4 e8 4d bd 55 e4 8f 3c dd 64 21 bd 6b 0f eb 3c
       -0.05027081 0.017564932 -0.03940283 0.028693875
0000b0 f6 4e ed 3c 40 5d d7 bc 6c 9e 6d bd f6 63 55 3c
       0.028968316 -0.026289582 -0.05801241 0.013024321
0000c0 86 bf 49 bc d7 62 c9 bc 51 45 64 3c 43 f6 61 bd
       -0.012313729 -0.024583263 0.013932542 -0.055166494
0000d0 20 4e f6 3c 34 fa e6 3c 0b 5c 09 bd ed e2 f5 3c
       0.03006655 0.028195478 -0.033535045 0.030015433
0000e0 0e 98 79 bd 09 58 ac bd 31 b4 12 bd 44 31 c9 bd
       -0.060936026 -0.08415229 -0.035816375 -0.0982385
0000f0 10 d5 7b 3d d9 f6 45 3d fe 43 c7 3a 67 6d 93 bc
       0.06148249 0.048331115 0.0015202758 -0.017996503
000100 82 b1 f2 bd 71 d2 d0 bd ec 47 3c be 76 34 2b be
       -0.11850263 -0.101963885 -0.18386811 -0.16719231
000110 5a ed 78 be ad 5b c1 bd b5 19 00 be 9f 12 2e be
       -0.24309292 -0.09441314 -0.12509806 -0.16999291
000120 e4 b0 3a be 73 44 cb bd b6 e7 5f be 72 d6 96 be
       -0.18231541 -0.09925165 -0.21865734 -0.29460484
000130 9c 83 d0 bd 14 dc 83 bd 70 bf 54 3d 06 1c d6 bd
       -0.101813525 -0.06438461 0.05194038 -0.10454564
000140 b1 e3 b8 3c 19 ed 94 3c da 2e e6 3a b3 6f 3f 3c
       0.02256951 0.018179463 0.001756157 0.011684346
000150 3a 97 1e 3d b9 35 e1 bd 4a d2 37 3d 6b 7d dc bc
       0.03871844 -0.10996575 0.04487828 -0.026915273
000160 7f 3c 69 3d 5f 2a 66 3c 93 48 14 3d 31 99 35 bd
       0.05694246 0.014048188 0.036202025 -0.044335548
000170 14 49 a9 bd 81 1e 81 be c8 bc 3b be ad 76 c5 be
       -0.08265892 -0.25218585 -0.18333733 -0.38567105
000180 8f 22 d6 be 9f 6a 8a be 4f 57 9c be 52 dc 7b be
       -0.4182324 -0.2703447 -0.3053536 -0.24595764
000190 e0 c7 71 be 4c f2 9a be f8 36 ac be a8 74 82 be
       -0.23611403 -0.30262983 -0.33635688 -0.25479627
0001a0 90 e8 4b be 2e a4 92 bd 88 b1 e8 bd 01 f9 26 3c
       -0.19912934 -0.07160221 -0.113619864 0.010191203
0001b0 ef 41 2c bd da bd 99 bd 48 6f b8 bc 1f 38 b7 bd
       -0.042055067 -0.075069144 -0.022514 -0.08946251
0001c0 49 0a a0 bd b4 07 66 3d 10 60 7f bd 08 aa 5b 3d
       -0.07814462 0.05615969 -0.06234747 0.05362895
0001d0 01 1a a1 bd 64 b4 b2 3c c9 49 03 be 76 9f 2d be
       -0.07866288 0.021814533 -0.12821116 -0.16955361
0001e0 df b2 a2 be 95 ae c1 be 7d 15 9b be 1a a0 d0 be
       -0.31777093 -0.37828508 -0.30289832 -0.40747148
0001f0 ce ba 92 be 42 15 ce be d0 12 a9 be 53 f8 b8 be
       -0.28658146 -0.40250593 -0.33022165 -0.36126956
000200 91 0e da be ba 6f e4 be 95 36 bf be db a9 e4 be
       -0.42589238 -0.4461649 -0.3734633 -0.4466084
000210 2e a9 59 be d7 ec 59 be 1f 32 08 be 87 1c 87 3c
       -0.21255943 -0.21281753 -0.1330037 0.016493095
000220 44 e7 09 bc a2 2c c8 3c b7 af 00 3c 34 1d a5 3b
       -0.008416954 0.024435345 0.007854394 0.0050388817
000230 b6 d1 6c bd 14 1b ba bd 58 2d 90 bd bb 80 28 bd
       -0.057817183 -0.09087196 -0.07039899 -0.041138392
000240 d2 0a 8b bc a5 c3 89 bd e1 25 91 be 66 46 8c be
       -0.016972933 -0.06726769 -0.28349212 -0.2739746
000250 e4 16 45 be a4 5d c0 be 30 1f 4f be 80 de 4c be
       -0.19247013 -0.37571442 -0.20226741 -0.20006752
000260 d7 1d e4 bd ab 8d e8 bd e2 ad 7d be 66 17 83 be
       -0.11138504 -0.11355146 -0.24773362 -0.2560379
000270 78 5b c8 be ec e0 e0 be a8 16 cb be 4a 39 97 be
       -0.39132285 -0.43921602 -0.39665723 -0.29535896
000280 8d 8a 3a be 64 45 e5 bd ac ab 08 be 1e 79 cb bd
       -0.18216915 -0.11194876 -0.13346738 -0.09935211
000290 3d 39 c5 bd 42 46 f0 bd 3a d9 9c bd 80 b5 b3 3c
       -0.09630058 -0.117321506 -0.0765862 0.021937132
0002a0 ba af f6 bb 58 5f 05 3d 71 a3 cd 3c d6 b3 3a bd
       -0.0075282725 0.03256163 0.025102349 -0.04558166
0002b0 74 fa 8b bd 09 ae 12 be f8 00 e3 bd d1 9e d7 bd
       -0.068348795 -0.14324202 -0.11084169 -0.10528339
0002c0 c6 11 b3 bd 03 65 f0 3c 6e 92 dd 3d ef 59 4c 3d
       -0.087436244 0.029345041 0.10818945 0.049890455
0002d0 2c 38 ff 3d bb 0d 75 bd d3 de a8 bd 80 be 39 be
       0.12461886 -0.059827548 -0.08245625 -0.18139076
0002e0 aa 68 7f be bd bf 56 be d0 cf 34 be 92 1a 5e be
       -0.2494227 -0.2097158 -0.17657399 -0.21689823
0002f0 ae 83 24 be ef a5 76 be 89 66 16 bd c1 c4 b6 bd
       -0.16065857 -0.24086736 -0.03671888 -0.089242466
000300 c9 a1 03 be 2a 55 e1 bd 04 99 1b 3d 90 a5 3c bd
       -0.12854685 -0.11002572 0.037987724 -0.04605633
000310 6c d8 67 3c 50 da ac 3c e3 26 ce bd d3 04 32 bd
       0.01415072 0.021100193 -0.10066011 -0.043461632
000320 67 28 fe bc 40 eb 88 bd f8 13 0b be 2f 72 d3 3b
       -0.031025125 -0.066854954 -0.13581836 0.0064528207
000330 29 08 20 bd 68 38 81 3d 95 69 43 3d c0 82 f4 3c
       -0.039070282 0.06309587 0.047708113 0.029847503
000340 51 88 66 bd a2 3f ac bd 59 03 a0 be c7 1f 85 be
       -0.056282345 -0.084105745 -0.31252554 -0.26000807
000350 91 c9 a0 be 15 fc c5 bd d8 d6 4e be 0c ae 1f be
       -0.31403783 -0.096672215 -0.20199144 -0.15593737
000360 fd d3 3b be 3e 9b 23 be 54 e7 42 be 0e 66 96 be
       -0.18342586 -0.15977189 -0.19033557 -0.29374737
000370 ef 9a 12 be 0e be 1a bd 23 2b 14 be 47 a7 51 3d
       -0.14316915 -0.037778907 -0.1446958 0.05118492
000380 a0 2a 9e bd 84 d6 61 3d 66 de 5e 3d 0b d1 00 be
       -0.07722974 0.05513622 0.054411314 -0.12579744
000390 66 0c 25 be cd 58 c0 bd 0c 20 b4 bd fb 0d 2d be
       -0.16118011 -0.093919374 -0.08795175 -0.16899864
0003a0 46 6e e2 bd 31 53 94 be 00 25 2a be 65 66 00 be
       -0.11056189 -0.2896972 -0.16615677 -0.1253906
0003b0 59 bd 53 be f7 55 d2 be 29 f6 1b bf 48 8a 08 bf
       -0.20677699 -0.4108121 -0.60922486 -0.53336
0003c0 e6 5f af be bd 4c 39 be 1b 0f 26 be f5 f7 a4 be
       -0.34252852 -0.1809568 -0.162167 -0.32220426
0003d0 c0 bc 9b be 97 2a a5 be 05 34 5c be 43 38 a1 be
       -0.30417442 -0.32259056 -0.21504219 -0.31488237
0003e0 52 f8 1f be e8 da 0b be 68 41 08 be bd 6a 6f 3d
       -0.1562207 -0.13657725 -0.133062 0.058451403
0003f0 61 ae fe bc 98 f4 44 bd f7 d5 8f bd 30 be ec bd
       -0.03108901 -0.048084825 -0.070232324 -0.11559713
