models/autoencoder_64.pth (torch, 876655 bytes, 8 tensors)

encoder.1.weight f4 [128, 784]
000000 dc ff ab bb f2 36 fa 3c 03 d4 d8 bc 30 75 9a bb
       -0.0052490067 0.030543778 -0.026468283 -0.004713677
000010 08 a2 17 3c 88 a5 7e 3c 2c 86 8e bc d0 b9 44 3b
       0.00925494 0.015542395 -0.017397963 0.003001798
000020 68 ad 8e 3b ee 4d f6 3c 25 e0 94 bc 80 e6 86 bc
       0.0043541677 0.030066457 -0.018173287 -0.016467333
000030 bc 01 30 3c ce 50 d6 bc 40 09 8b bc e0 07 8d 3a
       0.010742601 -0.026161578 -0.016972184 0.0010759793
000040 5e 59 f5 bc 08 56 be bb 65 5a 82 bc a8 5a 9e 3b
       -0.02994984 -0.0058085956 -0.015912244 0.0048325844
000050 f6 99 e0 3c aa 53 cb bc f7 fb 11 bd 5e 7c bb 3c
       0.027417164 -0.024820168 -0.035640683 0.022886451
000060 54 fe b4 bb 28 72 1d 3c f8 e5 82 3c f0 ca da bc
       -0.0055234823 0.0096097365 0.015978798 -0.026708096
000070 80 67 26 3a fc af d8 bc e0 57 01 bd 48 2a e0 bb
       0.000634782 -0.026451103 -0.031577945 -0.006840978
000080 c0 91 d5 bc 60 67 cb 3b 8a f3 cb bc 74 7a 00 3c
       -0.026070476 0.0062073916 -0.024896402 0.007841695
000090 2a 54 65 bc 85 4d f8 bc 5e 00 de 3c 3e d2 8b bc
       -0.013997117 -0.030310402 0.027099784 -0.017068025
0000a0 80 96 21 ba 52 1e 70 bc f8 30 9a 3c 53 e9 06 3d
       -0.0006164089 -0.014655666 0.018822178 0.03293736
0000b0 ea 57 4b bc 0a f0 a6 bc 9c f6 86 bc 00 41 b6 39
       -0.012411097 -0.020378131 -0.016475014 0.00034762174
0000c0 e8 85 8d 3c 4c 20 9c 3c b4 64 19 3c 5f 51 01 3d
       0.017275766 0.01905837 0.009362388 0.031571742
0000d0 4c d5 b5 3c 4c 2b b1 3c 80 e7 74 bc b4 5a 39 3c
       0.022196434 0.02162709 -0.014947772 0.011313129
0000e0 b0 06 bf bc 26 7e 63 bc c5 f6 f0 bc 53 a4 0e 3d
       -0.023318619 -0.013885057 -0.029414544 0.03482468
0000f0 c0 aa b9 3c 78 31 fb bb 28 b6 c5 3c 8b 0a 03 3d
       0.022664428 -0.0076658092 0.02413471 0.031992476
000100 50 c9 bc 3b c8 80 a9 3c 91 cb 02 3d 5f 0f 66 3c
       0.005761303 0.02069129 0.031932417 0.014041751
000110 11 7a d4 bc fc 4e a4 3c 15 9a ed 3b 33 a8 1b 3c
       -0.025937112 0.020057194 0.007251034 0.009500551
000120 e3 cb 68 bc 8e 77 73 bc 10 65 d4 3c 6a 75 c1 3b
       -0.014208767 -0.014860047 0.025927097 0.0059038894
000130 7e 96 ef bc db 30 20 bd a4 7f 77 3c ac 1e a8 3c
       -0.029246565 -0.039109092 0.0151061155 0.020522438
000140 23 a6 cb bc 6c 93 cb 3c 32 41 46 bc aa ef b0 3c
       -0.024859494 0.02485057 -0.012100505 0.021598656
000150 ca f8 de 3c 92 a8 6e bc b8 b5 f0 bc 20 15 fa 3b
       0.027218241 -0.0145665575 -0.029383525 0.007631913
000160 58 dd cd 3c 30 d2 e1 3b bc 87 8c bc 0c 7d c7 3c
       0.025129959 0.0068915114 -0.017154567 0.02435162
000170 8e 06 32 3c b1 2b 87 bc 0c 74 e9 3c 6a fa 31 bc
       0.010865821 -0.016500326 0.028497718 -0.010862926
000180 80 a1 a2 3c 0a f6 04 bd b7 4e d0 3c 0e cd b6 3c
       0.0198524 -0.032461204 0.02542816 0.022314575
000190 8f 1a 20 bd 71 85 5d 3c 99 c0 de 3c 04 d0 05 3c
       -0.03908783 0.013520584 0.027191447 0.008167271
0001a0 a0 d0 13 bb aa d7 6b bc 98 4e 2d 3c 80 11 b3 3c
       -0.002255477 -0.01439468 0.01057782 0.02185893
0001b0 90 52 0f bb 5c 05 0f bd 88 16 c2 bb 2d b7 00 3d
       -0.002186928 -0.03491722 -0.005923096 0.03142469
0001c0 e0 e7 ad 3a 70 bc 92 3c 54 a1 8f 3c f0 cf 48 3b
       0.0013267957 0.01791212 0.017532982 0.0030641519
0001d0 63 54 dc bc 95 db dd bc f0 5a 08 3b ce 66 23 3c
       -0.026895707 -0.027082244 0.0020806156 0.009973241
0001e0 3c 5f db bb 14 5c 90 bc e8 10 84 3c 19 92 7a bc
       -0.0066947024 -0.017622031 0.016121343 -0.015293621
0001f0 ce 49 21 bd 2d 90 04 bc a5 d7 ad 3c 40 44 8f bc
       -0.039377026 -0.008091015 0.021220991 -0.017488599
000200 8d 36 f0 bc c3 90 27 bd 31 f2 e9 bc 8e 4c a5 3b
       -0.029322887 -0.04090954 -0.028557869 0.0050445264
000210 10 d8 c9 bc 40 cc 95 bb d2 ef c4 3c c0 f8 10 ba
       -0.02463916 -0.0045714676 0.024040136 -0.00055302307
000220 30 20 a1 bc 00 4e a6 b8 69 28 07 3d 47 b4 0a bd
       -0.019668669 -7.9300255e-05 0.032997523 -0.033863332
000230 6e 1b b5 bc bc 3d 37 bc b0 f7 88 3b 47 67 a4 bc
       -0.022107806 -0.011184152 0.0041799173 -0.020068778
000240 0c 2c ae 3c db 30 06 3d 48 ed 99 3c a5 f0 57 3c
       0.021261238 0.032761436 0.018789902 0.013179933
000250 e2 db ae bc ab 46 25 bd 96 2a 46 3c 83 0f ef bc
       -0.021345083 -0.040350597 0.012095114 -0.029182201
000260 57 0c 71 3c 73 56 88 bc 4a 89 fb bb b5 df f3 bc
       0.014712415 -0.016642785 -0.0076762782 -0.029769758
000270 a3 8e e1 3a 8b 97 8a bc 46 1c d6 bc 0e c4 17 bd
       0.0017208647 -0.016917964 -0.026136529 -0.037052207
000280 87 3e 27 bd bd 7f f4 bc 4b ab 9a 3c 20 7a 92 bc
       -0.040831115 -0.029846067 0.018880507 -0.0178805
000290 12 f2 ff 3c d0 01 cf 3c 7c e7 9f 3c a8 c5 1f 3c
       0.031243358 0.025269419 0.01951956 0.009751715
0002a0 d5 07 0c 3d 00 11 09 bc d5 68 c7 bc bf 80 1e 3d
       0.034187157 -0.0083658695 -0.02434198 0.038697
0002b0 fa 13 c1 bc c8 42 e7 bc fa d7 1b bc 49 0b 0a bd
       -0.023569096 -0.028230086 -0.009511942 -0.03370217
0002c0 b0 3f 37 3b 94 eb 27 bc 7c ec 60 bc 30 98 79 bc
       0.0027961545 -0.010249037 -0.013728257 -0.015234038
0002d0 4a ec b9 3c e8 87 cb bc 2d 9a 94 bc 41 72 db bc
       0.02269568 -0.024845079 -0.018139923 -0.026787879
0002e0 2a a9 0e bd 1c 7d 12 bd 0d 2f c6 3c a7 eb be bc
       -0.034829296 -0.035763845 0.024192357 -0.023305727
0002f0 c6 c5 00 bd 6f 49 15 bd 0a 37 9c bc 52 3a 91 3c
       -0.03143861 -0.036446985 -0.019069213 0.017728005
000300 1a 7e f6 bc d6 db 10 bd e7 25 0b 3d 61 81 e6 bc
       -0.030089427 -0.035365902 0.033971693 -0.028137865
000310 9c a6 eb bb 4e 72 8c bc 64 54 ad bb c7 84 d5 bb
       -0.0071914922 -0.017144348 -0.005289601 -0.0065160724
000320 20 e8 8d bb 23 2d db 3c 73 07 a2 3c b1 8c 8d bc
       -0.00433065 0.026754921 0.019778943 -0.017279001
000330 62 a3 18 3a de 04 fe bc 79 fd 2d 3b 16 49 66 3c
       0.0005822686 -0.03100818 0.0026548787 0.014055511
000340 f8 af 6b bc 23 fe 96 3c 8b c3 c3 3c 23 5a fc 3b
       -0.014385216 0.018431729 0.023896953 0.007701175
000350 95 cc 30 bd 58 5a 1e bd ac ad d0 3c 70 a6 14 bd
       -0.043163855 -0.038660377 0.025473438 -0.03629154
000360 8c a2 93 bc c3 88 8e bc 77 aa 8a bc 07 91 00 bd
       -0.018021844 -0.017399197 -0.016926987 -0.03138831
000370 fe 30 f6 3c 9e 11 b6 bc 2a 0d 04 bd 70 6e 41 3c
       0.030052658 -0.022225197 -0.032239117 0.0118061155
000380 1c 36 a6 3c 61 ce fa bc 8a 57 8b 3c b8 58 b9 3c
       0.020289473 -0.030615987 0.017009515 0.022625312
000390 7d aa a4 bc e5 8a f5 3b 6c 3a 97 bc 18 21 6a 3c
       -0.020100826 0.007493364 -0.018460475 0.014290117
0003a0 09 fe af bc 73 cb aa 3c 0d f2 02 bd be a3 3a bd
       -0.021483438 0.020848965 -0.03196912 -0.045566313
0003b0 a1 da 75 bc 4d d8 35 bd ac 20 95 3c 07 2a af 3b
       -0.0150057385 -0.044395734 0.018204056 0.005345586
0003c0 fc 52 18 bd 58 f9 7c bc e5 79 07 bd 38 17 f8 bc
       -0.037188515 -0.015440308 -0.033075232 -0.030284509
0003d0 76 d1 95 bc df c8 cb 3c b8 7a 2a bc a4 30 90 bc
       -0.018288355 0.024876056 -0.010405235 -0.017601319
0003e0 be 23 b9 3c 74 0f 97 3c f2 84 20 bd 03 24 05 3d
       0.022600051 0.018439986 -0.039189287 0.032505047
0003f0 3a 78 f8 bc 50 17 ab bc b8 89 ae bc d7 ef ac bc
       -0.030330766 -0.02088514 -0.021305904 -0.021110458

encoder.1.bias f4 [128]
000000 eb 09 28 3b 4a 80 3b 3f 97 d9 c8 bd 37 93 08 be
       0.0025640677 0.7324263 -0.09807127 -0.13337408
000010 38 a2 f3 bb 83 a9 e5 be a1 82 18 3f a8 d8 c5 3d
       -0.0074351095 -0.4485589 0.59574324 0.096604645
000020 72 a9 95 be a7 4b 02 3f 7e 08 32 bd 39 34 2a 3f
       -0.2923084 0.50896686 -0.04346513 0.66485935
000030 96 59 73 3f 68 a9 1c 3f 4a bb fb be b1 c5 eb bd
       0.9505857 0.61195993 -0.49166328 -0.11512316
000040 01 cf f5 3c 3a 42 d0 3e 95 ca fe 3b b3 99 6d 3f
       0.030005934 0.40675527 0.0077756145 0.9281265
000050 93 2d 28 bd 5e 7c 0c 3f f7 1d 36 3f c7 a2 4f 3f
       -0.041059088 0.5487727 0.7113947 0.81107754
000060 d1 52 1f be 1d 0e 47 3c 35 b2 92 3e 7d 07 35 bd
       -0.15558936 0.012149361 0.28651586 -0.044196595
000070 aa 2b 39 3e 3f 78 23 3f 03 27 8a 3c 45 a8 67 3e
       0.18083063 0.63855356 0.016864305 0.22622783
000080 fc 13 83 be 4d 28 19 be 6e d2 e6 be 65 1d 6c 3e
       -0.25601184 -0.1495678 -0.4508242 0.23058088
000090 f2 78 60 3d b0 78 8e 3d fb 47 08 bf 35 d4 93 be
       0.054802842 0.06956613 -0.53234833 -0.2887284
0000a0 87 b1 0b 3f 95 0c a6 bc 74 9e 94 be 05 09 76 be
       0.5456776 -0.020269671 -0.2902714 -0.24026878
0000b0 d3 3b 34 3e 0a 92 27 3f 7b e0 cb be 26 3b 70 3f
       0.17600946 0.6545721 -0.39819703 0.93840253
0000c0 a8 4f b3 be ae 3d f5 3e e5 32 09 3e 6b 5e 7c bd
       -0.3502171 0.4789862 0.13398321 -0.06161348
0000d0 2b 02 10 3f 42 2c d4 bc 34 fa 43 be ac b3 6b be
       0.5625331 -0.02590001 -0.19138414 -0.23017758
0000e0 86 56 6c 3e 3f 0f a8 bc 76 70 14 3f 73 24 0b bd
       0.23079881 -0.020515082 0.579841 -0.033970308
0000f0 de 07 e0 3d 79 f4 35 3f e8 00 4f 3f 34 a0 87 bc
       0.109390005 0.7107616 0.8086076 -0.016555883
000100 fa 24 20 3d fb 8b c7 3c 7c 9a 0b 3f a3 fd 3b 3f
       0.039097764 0.02435874 0.545326 0.73433894
000110 c0 3e 22 3f 1e 02 7e be 98 ea 07 3f 4b a4 18 3f
       0.63377 -0.24805495 0.53092337 0.5962569
000120 2b 2b d0 3e 7b 59 60 be 3d a0 78 3e ec ba d5 be
       0.40657935 -0.21909134 0.24279876 -0.41744173
000130 b9 3b 39 3f c4 54 82 3b c7 d5 2c bc 60 88 2c 3c
       0.72356755 0.00397739 -0.010549015 0.010530561
000140 74 4c 56 3f 81 07 e4 3b 43 d9 1e 3f 46 6b fb bc
       0.8371041 0.0069589023 0.62050265 -0.0306908
000150 4a f3 98 bc b6 5a 11 3f 97 3f 00 bd 18 d7 1e be
       -0.018670697 0.5677904 -0.031310644 -0.15511739
000160 dc 1e 81 be 63 2f 87 3c c1 85 df 3e 83 9e bc 3c
       -0.25218856 0.016502088 0.43656734 0.023024803
000170 32 22 40 bc 0d 7b 85 3e d1 b4 b7 3e 62 be 08 3f
       -0.011726903 0.26070443 0.3588014 0.534155
000180 56 72 29 3f 0c 89 83 bc 11 33 44 be cf b8 11 bd
       0.6619009 -0.01605656 -0.19160105 -0.035576638
000190 7d dc 2f bd 76 4e ac bd 8d e5 ad 3e 70 a8 4a 3f
       -0.042934883 -0.08413403 0.33964196 0.79163265
0001a0 66 2b 43 be d1 c3 8c 3d 55 ab 97 be 22 5c ac be
       -0.19059524 0.068732865 -0.29622903 -0.33664042
0001b0 7c 08 84 be e0 b2 d6 be fc 65 2d be 27 97 37 3c
       -0.25787723 -0.41933346 -0.16933435 0.011205471
0001c0 c4 4c 65 bb 6e 22 08 3e 96 19 84 be 6d d1 30 be
       -0.0034988383 0.13294384 -0.2580077 -0.1726739
0001d0 a2 14 97 3e 5e a0 ed 3e de 89 22 be be 4f 33 be
       0.2950793 0.46411413 -0.15872905 -0.17510888
0001e0 4b 7c 89 bc 6d 5b b5 be c2 88 7c be 9c 9e a8 be
       -0.0167829 -0.35421315 -0.24661544 -0.3293351
0001f0 c5 7d 7e be fa 6c 9f 3d 04 7f a1 3d 24 3a 24 be
       -0.24852665 0.077844575 0.078855544 -0.16037804

encoder.3.weight f4 [64, 128]
000000 e1 0c c9 bc d0 63 23 3d 2b 44 82 bd 95 d3 c2 3d
       -0.024542274 0.03989011 -0.06360658 0.09513012
000010 c1 29 5d 3e f2 91 78 bd 87 e7 c8 ba bd be aa bd
       0.21597959 -0.06068606 -0.001532779 -0.08337162
000020 81 51 dc 3d 71 ad d4 3d b1 d4 a7 3e f9 e6 ce bd
       0.10757733 0.10384644 0.32779458 -0.10102648
000030 6c ad 20 be 5d eb 99 3e ac 82 1e be c6 8d e4 bd
       -0.15691155 0.3006238 -0.15479535 -0.11159854
000040 41 47 b1 3c 3d 63 65 3e b0 de da bc d2 29 6a 3e
       0.021640422 0.22401138 -0.026717514 0.22867516
000050 4e 39 7a bd 51 75 78 3d a8 8a 16 3b 68 7b 17 bd
       -0.061089806 0.060658757 0.002297083 -0.036982924
000060 b9 93 a0 3c e2 8f 15 3b 02 a0 32 3d 21 d7 a4 bd
       0.01960169 0.0022821357 0.043609627 -0.08048845
000070 66 61 a6 bd c0 ba 1d 3e e2 32 44 bd a8 05 91 bd
       -0.08124046 0.1540327 -0.047900088 -0.07081157
000080 7e 62 21 3d 6c fd 1a be 8e 99 3f bd 9a 0c 30 3e
       0.03940057 -0.15135735 -0.0467773 0.17192307
000090 c8 d3 36 3d f8 a5 7f bd c3 14 dc 3c b6 e6 94 3d
       0.044635564 -0.06241414 0.026865369 0.07270567
0000a0 d7 7f 00 bd ab 01 9f bd c5 54 95 bd b5 1a 59 3e
       -0.031371918 -0.0776399 -0.07291559 0.21201594
0000b0 92 ef 7a bd f2 90 86 3d 11 26 85 3d ea 9c f5 bd
       -0.06126363 0.06570615 0.06501401 -0.119928196
0000c0 0b 53 d5 bb 98 ed 5b 3d 17 ec d8 3d 79 2e 0a 3e
       -0.0065101436 0.053693384 0.105919056 0.1349429
0000d0 d7 a9 97 3d 49 c1 a4 3b 8e 57 ac 3c 08 c4 98 bc
       0.07405441 0.005027924 0.021037843 -0.018648162
0000e0 d9 70 f6 3d 56 ca 82 bc e7 9b 6f be 7d 2a a2 3d
       0.12033243 -0.015965622 -0.23399316 0.0791826
0000f0 12 11 21 be aa 5d 8a be 8f c5 08 3e 2a 8b 2d bd
       -0.15729168 -0.27024585 0.13356613 -0.042369045
000100 53 0c 91 bd fc dd 3d bd 71 b9 21 3e 51 31 1b bd
       -0.07082429 -0.04635428 0.15793397 -0.03788883
000110 5c 72 9a be 6a 9d 30 be 46 50 30 be 90 ef 04 3e
       -0.30165374 -0.17247549 -0.17218122 0.12982011
000120 62 24 d4 3d 4a db b5 bd 39 68 d5 bc fc 7c 50 3e
       0.10358502 -0.08879717 -0.026050674 0.20360178
000130 20 70 7e be e2 6c 46 3d df 65 51 bb e0 25 d1 3d
       -0.2484746 0.048443682 -0.003195159 0.10212302
000140 39 f3 88 be 08 8e 87 bd 74 26 80 3e 04 f5 4e 3c
       -0.26748064 -0.06618887 0.25029337 0.012631658
000150 8f de 6b 3d 27 28 f6 3d 3c f6 15 be de b2 f4 3d
       0.057585295 0.12019377 -0.14644712 0.11948179
000160 50 3b 83 3c 21 2a cb 3c eb b0 d9 3d ae cb e5 3c
       0.016019493 0.024800362 0.106294475 0.028051224
000170 bf 91 8f 3d 42 c8 df bd 7d c5 45 be f6 9d 47 bd
       0.07010221 -0.10926868 -0.19313617 -0.048734628
000180 3b d8 60 bd fd 24 3c 3d 36 cf 99 3d d3 42 73 3d
       -0.054893713 0.045933712 0.075102255 0.0593899
000190 50 f9 88 bc cd 04 86 be af 8c 83 3d c3 11 a8 be
       -0.016720444 -0.26175538 0.06423318 -0.3282605
0001a0 cd de 66 bc 45 7a a6 bd 32 f3 6e be d7 f2 fa 3d
       -0.014091206 -0.0812879 -0.23334959 0.12253349
0001b0 30 85 8c 3d d9 61 87 3d 09 b3 4d 3e ea f0 be 3a
       0.06861341 0.0661046 0.20087828 0.0014567648
0001c0 26 61 69 3d d1 cc 0a 3d 8f 37 be 3d f2 92 8d bd
       0.056977414 0.033886734 0.09287941 -0.06912793
0001d0 ef f4 5a bd 1d 62 e5 3c 34 70 06 be 40 78 0b bd
       -0.053456243 0.028000886 -0.1312874 -0.034050226
0001e0 e8 d4 98 bd 5e 77 41 3e de b7 2c 3d 9c a2 1d 3e
       -0.07462484 0.18893191 0.042167537 0.15394062
0001f0 42 a3 92 bd 9d 9b 1c 3e 3a 88 7a bd 6d a8 6f be
       -0.07160045 0.15293737 -0.061165072 -0.23404093
000200 0b f1 83 bd 5c 02 98 3d d5 ce 69 3c 14 33 56 3b
       -0.0644246 0.07422325 0.014270504 0.0032684254
000210 69 43 cf 3b ea a0 0d bd e0 14 79 be 7b e9 f4 bd
       0.0063251746 -0.034577288 -0.2432437 -0.11958595
000220 23 9a f5 bd 57 de 4e 3e 18 45 df 3d 09 ed ec 3d
       -0.1199229 0.20202003 0.109018505 0.11568648
000230 35 cb 8b bb d0 e0 5d bd c9 fe 2d be 76 4b 3e 3e
       -0.0042661675 -0.054169476 -0.16991724 0.18583474
000240 2f e9 20 bd ff 62 4e 3e 14 88 9e 3b 15 db 57 be
       -0.03928488 0.20154952 0.004837999 -0.21079667
000250 ce 93 58 3d 01 e6 00 3e e6 c1 56 3e 98 5e 31 3e
       0.052875333 0.1258774 0.20972404 0.17321241
000260 23 e2 96 bb 01 93 a3 3d 9a 9b dc 3d 52 7d 8e 3d
       -0.0046045943 0.07987023 0.10771866 0.06957497
000270 59 52 73 3e e2 fe 69 3d b3 d2 ad bc 19 7f 87 bd
       0.23761882 0.05712784 -0.021218633 -0.06616039
000280 27 a4 8f 3c 9f 64 81 bd 01 19 83 be c7 d4 0b 3e
       0.017534329 -0.0631802 -0.25605014 0.13655387
000290 64 0f 0c bd 13 c2 c9 3d 36 39 a1 ba 12 88 3c be
       -0.034194365 0.0985147 -0.0012300375 -0.18411282
0002a0 3f 81 a7 3d e2 03 c1 3c 25 d0 55 bd 17 10 e9 bd
       0.081789486 0.023561422 -0.052200455 -0.11380022
0002b0 90 d5 06 3e c0 e1 f9 bd d3 73 b1 bd 77 8c ae bc
       0.13167405 -0.122012615 -0.0866467 -0.021307213
0002c0 d3 60 34 3d e2 8c 5d 3d 63 4d 03 bd 3b 15 c2 3d
       0.04403765 0.054089434 -0.032056224 0.09476706
0002d0 fa 41 76 bc e2 e5 41 bd 86 88 04 3e b4 c6 c9 3c
       -0.0150303785 -0.047338374 0.12942705 0.024630882
0002e0 a5 4f 96 3c da 9b ad bd ce 13 86 3d 97 4a b0 3d
       0.018348524 -0.08476992 0.06546746 0.08607977
0002f0 05 b1 bc 3d 64 63 84 be 83 79 6c 3e 59 80 94 3d
       0.09213451 -0.2585708 0.23093228 0.07251043
000300 8c e2 3f 3e 34 5a 01 bd 45 a2 93 3e 24 34 bb 3b
       0.18738765 -0.031580165 0.2883474 0.0057130028
000310 da a2 6b bb da b5 b5 bc f9 b7 b1 3e 7d dd 06 bd
       -0.0035955221 -0.02218144 0.34710672 -0.03292607
000320 bf 42 d4 bd a5 37 1f 3d 38 43 3c be 91 bd 2f 3d
       -0.10364293 0.038871426 -0.18385017 0.042905394
000330 69 fd 4f bd e2 5e 9b bd 14 45 1c bd dd 32 9f 3d
       -0.05077878 -0.07586457 -0.038151816 0.07773373
000340 33 15 2b 3e 1f 86 8f bd 0e 48 81 bd 94 87 34 bd
       0.16707306 -0.070080034 -0.063125715 -0.04407461
000350 b8 08 18 bb b4 46 62 3d 56 12 28 be 60 ff b4 bd
       -0.0023198556 0.05524321 -0.16413245 -0.088377714
000360 61 85 18 be fa 3a 3b 3d 12 94 c4 3c 07 65 fa 3c
       -0.1489463 0.04571054 0.023996387 0.030565752
000370 79 81 24 bd 95 cd c1 3d d2 c0 77 3c fd b5 7e bc
       -0.040162537 0.0946304 0.015121656 -0.015546319
000380 99 ed 01 be 00 18 74 3d f3 5a 86 bd 76 28 f3 3c
       -0.12688293 0.0595932 -0.06560316 0.02968238
000390 49 86 08 3e 7a 40 2b bd f6 4f e4 3c bd 8a 58 be
       0.13332476 -0.041809537 0.02787016 -0.21146674
0003a0 31 d8 73 bc 93 ed d3 bd a5 d7 07 3c 04 23 43 3e
       -0.014883087 -0.10348048 0.00829116 0.19056326
0003b0 53 a0 9e bd 9c 9c 7f be 22 00 9c bd a1 fe 84 3d
       -0.07745423 -0.24962085 -0.07617213 0.06493879
0003c0 b8 e3 08 bd e2 33 95 bd 55 63 2e be 37 5b b6 3d
       -0.033420295 -0.072852865 -0.1703008 0.089041166
0003d0 16 e1 ff bd cc 9f 07 3e 78 b6 44 3e f1 dd 9b 3d
       -0.124941036 0.13244551 0.19210231 0.07610691
0003e0 e9 b6 05 3a b9 1f fe 3d 2c 02 b4 bd c2 35 8a 3d
       0.0005100803 0.12408394 -0.08789477 0.06748535
0003f0 b0 6a 77 be 7f 5c 29 be 14 d6 84 3c 2b c7 11 3d
       -0.24161792 -0.1653919 0.016215362 0.035590332

encoder.3.bias f4 [64]
000000 9c c5 ce 3d c8 7d b8 3e 1d d9 14 3e e2 3b a6 be
       0.10096285 0.36033463 0.14535947 -0.32467562
000010 f2 70 5b 3e 61 a4 c3 bd 16 d1 0c 3f fa cc ed 3e
       0.21429804 -0.09552837 0.5500654 0.46445447
000020 15 22 f8 3e 8c 87 76 3e a6 77 20 bd 0c 82 f4 3c
       0.48463503 0.24075145 -0.039176606 0.029847167
000030 a8 f8 89 3e e4 54 14 3f 11 37 bd be de ca ae bd
       0.26947522 0.5794203 -0.36956075 -0.085347876
000040 50 45 94 3e 65 3e 46 bd b5 5b 5e be 6f c8 49 3e
       0.2895913 -0.048399348 -0.21714671 0.19705366
000050 17 5a 94 be 16 b2 f2 3e 36 42 9b be 4c a8 11 3f
       -0.28974983 0.47401494 -0.30323952 0.56897426
000060 3d 7c 07 bf 9b 26 6d be b2 c0 64 3d 58 8d cb 3e
       -0.5292395 -0.23159258 0.05584783 0.39756274
000070 00 3e c1 3e c7 d9 b3 be ea e3 70 be 89 9c cf 3d
       0.37742615 -0.35127088 -0.23524442 0.101372786
000080 7e 53 ed be 1a 3e 76 3e 9e 71 ba 3d bf 09 8a bd
       -0.46352762 0.24047127 0.09103702 -0.0674014
000090 8c 0d 1b 3f 9a a6 a3 be 97 2f 3b 3e 8b 64 20 be
       0.60567546 -0.31963044 0.18279873 -0.15663354
0000a0 72 b2 51 3e 18 14 bf 3d 5f ef 62 be 61 dc 32 3f
       0.20478228 0.093300045 -0.22161625 0.6986752
0000b0 99 29 14 3f ad 80 27 3e aa 6f dd 3d 83 7d 11 3f
       0.57875973 0.1635768 0.10812314 0.5683214
0000c0 cc c7 b9 be ef e9 b9 3d 36 db dd bd 83 ef 9f 3e
       -0.36285245 0.090778224 -0.10832827 0.3123742
0000d0 21 e6 c3 be 65 d6 4f be e6 80 8f 3c db af 5a 3e
       -0.38261512 -0.20296629 0.017517518 0.21356146
0000e0 c3 3d 38 be 4a 5d da 3e 41 c6 e6 be 30 c8 cc 3d
       -0.1799231 0.426493 -0.4507313 0.0999912
0000f0 40 26 9a bc ca e5 f2 3c 7b bd 1f 3f 44 d8 8c 3e
       -0.018817067 0.029650588 0.623985 0.27508748

decoder.0.weight f4 [128, 64]
000000 21 f2 57 be 2f 72 86 be bd bd c4 3d 2b d0 d2 bc
       -0.21088459 -0.2625899 0.09606502 -0.025734028
000010 1a 0e 36 3e e2 2d ee bd b6 0c 8d bd 6a 1e d3 3d
       0.17778817 -0.11629845 -0.0688719 0.103085354
000020 5e c0 70 be b8 da 41 3e 09 48 ce 3d ba b8 a7 bd
       -0.23510882 0.18931091 0.10072333 -0.08189531
000030 4e 02 89 be f9 39 c0 3d 23 ac 8f 3d 22 ce 1a 3d
       -0.2675957 0.093860574 0.07015254 0.03779424
000040 9e bc 5f 3d db 0d 2a be c6 05 80 3d 7d 06 9f 3c
       0.05462324 -0.16606848 0.06251101 0.019412274
000050 f0 57 c6 3d 58 57 64 3a ed db 49 3d 15 cc 6f 3d
       0.096847415 0.0008710525 0.049282003 0.058544237
000060 e0 a6 65 bd 9b 83 8e 3d 2a b9 e0 3d f2 6f 68 3e
       -0.056067348 0.069586955 0.10972817 0.22698954
000070 d5 35 a7 3e 0e 61 da 3c 49 d8 10 3e 42 f0 53 3d
       0.32658258 0.026657607 0.14145006 0.0517428
000080 af af 74 3c 4f a8 f2 3d e3 5b 86 be c9 f2 96 3b
       0.014934464 0.118485086 -0.2624198 0.004606579
000090 3f 2b 9d 3e 11 3d 9c 3d 1e fc 1a 3d 23 0e 05 bd
       0.30697057 0.07628835 0.037838094 -0.032484185
0000a0 a7 cc 61 3e 44 bc 26 be 5c 6b 2a 3d 80 ec 75 3b
       0.22050725 -0.16282755 0.041606292 0.0037524998
0000b0 84 69 cd 3d a3 ae a5 3d 14 0b 66 3e d6 d5 52 ba
       0.10029891 0.0808995 0.22465163 -0.00080427283
0000c0 78 5b 3e bd fd 2e 82 3e d6 eb d0 bd 33 78 08 3e
       -0.04647395 0.25426474 -0.10201232 0.13327102
0000d0 5f 99 68 3c c5 7a 38 be 4d 7b 61 3d 9d 83 09 3e
       0.014196723 -0.18015583 0.05504923 0.13429113
0000e0 cc 32 92 3d 9e 43 59 3e ea 2d 0d bc da 32 30 bd
       0.07138595 0.212172 -0.008616904 -0.043017246
0000f0 7d 14 45 be 53 35 0d be 7d 01 d8 bc bc 79 15 3e
       -0.19246097 -0.13789873 -0.026367897 0.14597219
000100 95 21 b6 3d 67 78 34 3d b6 f5 3a bc 30 b5 27 3e
       0.08893124 0.044060137 -0.011411121 0.16377711
000110 c0 1a 70 be f5 4e ed 3d 59 cc 9e 3e 9f be 46 3e
       -0.23447704 0.115873255 0.3101528 0.19408654
000120 29 7a d4 3d 96 a7 8a 3e 3a 66 45 bd 46 ba 16 be
       0.10374863 0.27080983 -0.048193194 -0.14719495
000130 f9 16 a0 3e 6b ef 05 be c6 2d 6a 3d f5 26 de bc
       0.31267527 -0.13079612 0.05717256 -0.027118186
000140 5d 0f 9f be b9 43 ca 3c f2 97 9b bc 85 2f 6b 3e
       -0.3106641 0.024690496 -0.018993352 0.22967346
000150 2d 3d 2e bd d5 fb 82 be 36 81 05 3e f4 b7 21 bd
       -0.04253881 -0.25582758 0.13037571 -0.039482072
000160 a6 46 91 be 05 1b ad 3c 23 fa 18 3e f2 f4 19 bd
       -0.28374213 0.021131048 0.1493917 -0.037587114
000170 2a 98 0b be 80 60 1b 3e 93 4e 30 3d f2 0e b9 bd
       -0.13632265 0.1517353 0.043043684 -0.09036054
000180 32 50 41 bd 1f 32 57 3e 52 9d cc 3b a6 98 38 3e
       -0.04719562 0.21015213 0.00624434 0.18026981
000190 ab a6 c0 3d b8 c4 a7 3d 9a b3 01 3e 26 72 8c bd
       0.094067894 0.08191818 0.12666169 -0.068577096
0001a0 84 6d 25 3e a5 76 bc bd 34 a5 e3 3d eb 86 8a 3d
       0.16155058 -0.09202317 0.11115494 0.06764015
0001b0 20 7a 81 3d bc 25 06 3e 66 0f 06 be d2 8a 04 be
       0.063221216 0.13100332 -0.13091812 -0.12943581
0001c0 25 fe aa bd d8 78 58 3e b6 5e 77 3e e0 4c 11 be
       -0.083492555 0.21139848 0.24157223 -0.14189482
0001d0 28 37 8d 3d bb 56 8c 3d 54 47 00 3e a2 0a dc bb
       0.06895286 0.0685248 0.1252721 -0.0067151347
0001e0 fc 15 c5 bd b5 15 f1 bc 60 0b af 3b 5e c0 e3 bd
       -0.09623334 -0.029429296 0.005341932 -0.111206755
0001f0 4e 4c 49 be 04 dd 86 3e bd ea 4f 3e 83 ac a3 bc
       -0.19658014 0.26340497 0.2030439 -0.019979721
000200 30 eb 40 bc d5 49 ec 3d 0d db bf be a9 26 ba 3d
       -0.011774823 0.1153752 -0.3747181 0.09089405
000210 44 78 b5 bd 60 0a 9a bc 6b 6e 70 be 0f d5 4f 3d
       -0.088608295 -0.018803775 -0.23479621 0.050740298
000220 ed 3e 4c 3d ef 7f 89 3e e9 6d 01 3e 79 65 a6 3b
       0.0498647 0.26855418 0.12639584 0.0050780145
000230 b0 53 cf bd 86 89 6d bd c2 56 28 be 83 74 a4 3d
       -0.10123384 -0.05799248 -0.16439345 0.08030035
000240 18 6f 04 be 8b 15 16 bc e0 41 b2 bd 25 07 d0 3d
       -0.12933004 -0.00916041 -0.08703971 0.10157613
000250 e6 d4 83 3e 19 6a a6 bd 52 4f 1e be 4a 1e f9 3d
       0.25748366 -0.08125705 -0.15459946 0.1216398
000260 c1 c9 fb bd 5a 00 cb be 04 38 a7 bd cc b7 aa bd
       -0.12294341 -0.39648706 -0.08164981 -0.08335838
000270 59 de 0f 3e fc ec 0d 3e c0 40 cc 3d ce 99 35 3d
       0.14049663 0.13859934 0.099732876 0.044336133
000280 d2 39 16 be dd 0a f7 3c fd 2f 70 be d0 f7 2f 3e
       -0.14670494 0.030156547 -0.23455806 0.17184377
000290 8d ac 0a be 0a 1b a4 3e b7 da 6d bd 93 83 3a 3e
       -0.13542385 0.3205188 -0.05806991 0.18214254
0002a0 d2 9e b6 be 0a 1b 47 3e c7 52 9e bc 49 4d dd bd
       -0.35668045 0.19443908 -0.01932658 -0.108057566
0002b0 8b 5c 3b 3e 22 78 11 3e fa 81 1a 3e e2 4d a4 bc
       0.18297021 0.14205983 0.15088645 -0.020056669
0002c0 43 1f 24 3c 4a 13 88 bd eb bf 16 3e ab ce 49 3e
       0.010017219 -0.06644304 0.14721648 0.19707744
0002d0 22 94 a6 be 94 7e 4a be eb c9 7d 3c 3c 41 f7 ba
       -0.3253489 -0.19774848 0.0154900355 -0.0018864046
0002e0 ea bf 43 bc 76 23 6d 3e 97 c4 4a 3e 79 f7 04 3e
       -0.011947611 0.23158059 0.19801556 0.12985028
0002f0 36 a4 46 3d a6 3d 87 3e 1c f4 ba bd a5 e1 ab 3c
       0.048496448 0.26414222 -0.091285914 0.02098162
000300 9b d6 38 bc bd 43 33 bc 0d 4f 4b 3e 65 d9 30 be
       -0.011281635 -0.010941443 0.19854374 -0.1727043
000310 b5 7f 38 be 09 dc 5d be bd be 92 3c 5d 2b 87 be
       -0.18017466 -0.21665968 0.017913217 -0.2640027
000320 6a 46 87 3e 8a 28 25 be 7a 25 5d be 1d d4 9a be
       0.2642091 -0.16128746 -0.21596327 -0.30239955
000330 9c 37 8a 3d 6b 2c 56 be 3f 01 95 3e 81 9b ba bd
       0.06748888 -0.20915382 0.29102513 -0.09111691
000340 6b bf 16 3e 9f 48 3b 3e fb 9e a6 3e 82 35 e6 bd
       0.14721458 0.18289421 0.32543167 -0.112406746
000350 44 f2 7a be 88 3d de bd d2 10 b5 3e 47 e5 3b bd
       -0.2450648 -0.1085158 0.35364395 -0.045872953
000360 42 6f 76 3e 47 99 a3 bc 38 4a a6 bd e0 a4 48 be
       0.24065879 -0.01997055 -0.08119625 -0.19594145
000370 76 25 a3 3e d6 fa d5 bd 48 9f a4 3d 51 3a 79 be
       0.31864518 -0.10448234 0.08038193 -0.24338652
000380 30 a4 80 3d 88 3c f3 bc 8b 74 16 3e c8 47 37 3e
       0.06281316 -0.02969195 0.14692895 0.17898476
000390 8a 4f 52 3e 5d 08 08 be 59 11 87 bc 92 7f a2 3c
       0.20538154 -0.1328444 -0.016487764 0.01983622
0003a0 10 4e 05 3e b4 35 9d 3d a7 db 65 3e 2a 18 87 bc
       0.1301806 0.07676259 0.22447072 -0.016491015
0003b0 7f 7f 9b 3e ea 9f 9d 3c e3 ee 13 3e d3 e2 5d 3e
       0.3037071 0.019241292 0.14446597 0.21668558
0003c0 de ff 25 3e 9d 41 9d bd 59 54 18 3d f4 c0 ff 38
       0.16210887 -0.0767853 0.037189815 0.00012195288
0003d0 7e 4d 86 be 99 ac 08 be 1b ef 64 3d fb 08 bf 3e
       -0.26230997 -0.13347091 0.05589209 0.3731154
0003e0 7d 15 29 3e fb 6d e3 bd fe 21 61 3e a7 ae ea 3d
       0.16512103 -0.111049615 0.21985623 0.114590935
0003f0 cf c1 ed bd 25 5e a3 3e d0 f7 be 3e 12 66 b6 bd
       -0.11609232 0.31907764 0.3729844 -0.08906187

decoder.0.bias f4 [128]
000000 48 27 c6 3d a4 75 24 3d f7 0f 01 be 6b 03 a2 3e
       0.09675461 0.040151253 -0.12603746 0.31643233
000010 af d8 7e 3e 3a ed 08 bf ab 35 b6 3e 6a 06 80 be
       0.24887346 -0.5348698 0.3558782 -0.25004894
000020 a2 25 35 bd 34 79 c3 3e c0 6a d9 be 16 c9 e2 3e
       -0.044225343 0.38178408 -0.42464256 0.4429404
000030 41 b2 eb 3e 33 d8 f6 3e 4b 95 e3 3d 74 23 d5 3e
       0.46034434 0.48211822 0.1111246 0.4162861
000040 8c 16 88 3e 24 80 89 3d 7d 6f fa be db a5 b5 3c
       0.26579702 0.06713894 -0.48913184 0.022173813
000050 1a 7c c6 3e cc 1e 53 3e 0b be 10 bf 9b 75 c0 be
       0.38766557 0.20617217 -0.5653998 -0.37589726
000060 5f 18 bb 3e a6 b5 ee 3d 18 70 24 3f 3e a1 06 bd
       0.3654203 0.116557404 0.6423354 -0.032868616
000070 2e 17 96 bd dc 53 be bd 06 23 d9 3d 6f 3c 65 bc
       -0.0732864 -0.09293339 0.10602383 -0.013991459
000080 cf 9a ed 3d 49 40 84 3d 1c 59 17 3c 5d 24 b3 be
       0.11601793 0.06457574 0.009237554 -0.3498868
000090 97 12 70 3e 83 fd c8 3e 49 e1 91 3e 7e cf 3a be
       0.23444591 0.39255914 0.2849219 -0.18243214
0000a0 c6 d6 35 3e fc fe 88 3e 9d 66 97 bd fe 75 9c be
       0.17757711 0.26757038 -0.07392619 -0.3055877
0000b0 0b 55 12 3e 2a 9f 3b 3e 4e 7c ec 3e 7a 06 61 3e
       0.14290254 0.18322435 0.46188587 0.21975127
0000c0 33 39 44 be ae 3b 1d 3f f3 92 84 3e ff 94 7f 3e
       -0.19162445 0.6141919 0.25893363 0.24959181
0000d0 e9 13 50 3e ab 4e 18 3f 48 45 18 3f 94 67 10 3e
       0.20320095 0.5949504 0.59480715 0.14102012
0000e0 3f 84 6a 3e 2f ac 6c 3e 84 4f c3 3d 97 4b 37 3f
       0.2290201 0.23112558 0.09536651 0.71599716
0000f0 0b 64 27 3e 05 49 f6 bd 32 02 4d bc a8 ee e6 3e
       0.16346757 -0.12025646 -0.01251273 0.45103955
000100 bf 52 53 3d 1b cb ea 3e 7f 3a de 3e d4 fd 26 bf
       0.051592585 0.45858082 0.43404004 -0.6523106
000110 cf c2 f3 bd db 8e e1 3d 91 c9 26 3f 08 33 21 be
       -0.11902391 0.11013576 0.65151316 -0.15742123
000120 1c 3f 09 be 0a 3a 16 be dc f0 a9 3d 49 7d d9 3d
       -0.1340298 -0.14670578 0.082978934 0.10619599
000130 07 f1 ab 3e 44 60 3b 3e 8a 1e 93 3d a8 1b 9f be
       0.33582327 0.18298441 0.07183559 -0.31075788
000140 96 15 1d bf 94 0a 1e 3e e8 c8 83 3e 16 32 8a be
       -0.6136106 0.15433723 0.25739217 -0.26991338
000150 e0 bf e1 3d 43 e4 68 3d 49 7e 67 3e 67 03 fe 3e
       0.110229254 0.056858312 0.22606768 0.4961197
000160 84 bd 13 3f cf bd c1 3e 36 d9 7c be e1 7e 4c 3e
       0.5771105 0.37840125 -0.24692234 0.19970275
000170 d0 74 3e 3e 77 74 ae 3e 71 b6 c5 3e 1d 24 fe 3c
       0.18599248 0.3407323 0.38615754 0.03102308
000180 73 99 78 bc 16 3e 5b 3d 17 c1 b2 3e 97 bb 20 be
       -0.015173304 0.053526007 0.3491294 -0.1569656
000190 af b3 ab 3d 05 5e 5a 3e 15 46 3a 3e a7 fb ec be
       0.08383881 0.21324928 0.18190797 -0.46285746
0001a0 67 7c c9 3e a9 33 5a 3e 37 6d a6 3e 53 22 8a 3e
       0.39352724 0.2130877 0.325052 0.26979312
0001b0 08 fc 63 3d 3f b4 8f be 83 fa 46 3d f6 4f 19 3c
       0.055660278 -0.28067204 0.04857875 0.009357443
0001c0 89 1b 19 3e 92 14 a8 3e b2 a1 6f 3e 65 ba 39 3f
       0.1495191 0.32828194 0.23401526 0.7255004
0001d0 a8 08 c4 3e d0 14 61 3d 25 de 67 3e 1a c1 0d 3f
       0.38287854 0.05495149 0.22643335 0.55372775
0001e0 33 44 df 3d f6 00 1e 3e 62 5d a5 3e fc 8f 26 3e
       0.1090168 0.15430054 0.32297808 0.16265863
0001f0 f3 ab b3 3d ff 43 4c 3e 9f 21 a7 3d 96 71 cf bd
       0.08773031 0.19947813 0.081607096 -0.10129087

decoder.2.weight f4 [784, 128]
000000 b9 59 64 bd 72 ba 0b 3d 6c e5 18 3d c8 13 da bd
       -0.05574963 0.034113355 0.03732817 -0.10648304
000010 da 49 d2 bc 11 16 7e bd 9e b6 2b bd 2c 30 62 be
       -0.02566998 -0.062032763 -0.041922204 -0.22088689
000020 9c 04 d1 3b 90 0a d2 bd 6a bd 85 bd 6e ce 5c bd
       0.0063787233 -0.10255921 -0.065302685 -0.053907804
000030 89 ce 80 bc 6a 12 8d bb fb 21 2d bd e5 77 e2 bc
       -0.015723484 -0.0043051736 -0.042268734 -0.02764506
000040 da ad 0f 3b 3b fe 40 bd 3e 75 9b bd 97 98 a9 bd
       0.0021923692 -0.047117453 -0.075907215 -0.08281057
000050 c6 4c 20 bd cc 75 c7 bd fc 12 0d be 3b cb 44 bd
       -0.039135717 -0.09739265 -0.13776773 -0.04804538
000060 e4 74 02 bc 3e 74 52 bd 83 43 08 3d a6 ae 98 bd
       -0.007962439 -0.05138039 0.03326751 -0.074551865
000070 bf 82 7b bd 6b 63 2b 3d 04 50 a4 3c 6c 12 d8 bc
       -0.061403986 0.04184286 0.020057686 -0.026375972
000080 4b ce 13 bc c3 60 cb bd 92 25 19 3d ab ef e8 bd
       -0.009021352 -0.09930565 0.037389345 -0.11373838
000090 6b 87 b7 bd 8b 6f 0c 3b f9 1e 04 3d 28 48 18 3d
       -0.08961376 0.002142879 0.0322561 0.03717819
0000a0 bf 35 49 3d 7a f2 55 3d 1e 83 c9 bd 37 55 29 3d
       0.049123522 0.052233197 -0.09839462 0.041341033
0000b0 40 51 3c bd 33 18 e8 bd 22 86 5b bd 44 2d 57 bb
       -0.045975924 -0.11332741 -0.053594716 -0.0032833377
0000c0 a6 53 1b bd fb 8d 0a bc e1 f2 02 bc 14 f9 10 bc
       -0.03792157 -0.008456702 -0.007992477 -0.008848447
0000d0 ed c0 0f bd 50 f5 59 3d 11 e2 cf 3c 1e 0e 36 3c
       -0.035096098 0.053212464 0.025376352 0.011111764
0000e0 f6 36 15 be b4 d4 67 bd 6b 1e 87 bd 7c 37 86 bd
       -0.14571747 -0.056599334 -0.06597599 -0.065535516
0000f0 70 a6 24 3d 07 d5 dd 3b b3 35 58 3d 74 50 cc bd
       0.04019779 0.0067697796 0.052785587 -0.09976283
000100 16 79 ec bb 23 da c9 bb 17 7c 4d 3d 52 e1 ad bd
       -0.007216583 -0.006160037 0.05016717 -0.08490242
000110 4c b8 d6 3c 53 49 58 3d 88 c9 d9 bd 7f aa 72 bd
       0.026210926 0.052804302 -0.10634142 -0.05924463
000120 65 a6 c3 bd de 5f 7f 3d e4 e1 b1 bd e5 92 74 3d
       -0.095532216 0.062347285 -0.08685663 0.059710402
000130 d8 bf 4b bd e8 a2 7a bd 06 f5 04 3d fa 74 29 bd
       -0.049743503 -0.061190516 0.032460235 -0.041371323
000140 fb 2e 14 be 02 51 88 bd 8f 17 f8 bc e3 63 13 bd
       -0.14471047 -0.06656076 -0.030284671 -0.03598393
000150 df 34 df bd c8 57 78 bd 18 a7 cd 3c 03 5f 15 bd
       -0.10898756 -0.06063059 0.02510409 -0.036467563
000160 7c 60 8d bd d9 1a e9 bd ff b3 b7 bd be af 70 bd
       -0.069031686 -0.11382074 -0.089698784 -0.05876135
000170 2e ec a0 3c af 57 b1 bc 0f da a7 bd 4a 8c 6c bd
       0.01964387 -0.021648256 -0.08195888 -0.057750978
000180 f9 ba 4b bc 8d 61 20 bc a0 b5 32 bd 84 72 e5 3a
       -0.0124347145 -0.009788883 -0.043630242 0.0017505442
000190 ec 6c e7 3c 40 fe e7 bd 9f b5 97 bd 6e 29 1a bc
       0.02825018 -0.11327791 -0.07407688 -0.009409292
0001a0 4c 64 14 bd 53 18 1c bd 8f 18 04 be d6 ad c0 bd
       -0.036228463 -0.038109135 -0.12899993 -0.094081566
0001b0 07 dc 1c bd 9f ee 38 bd b1 36 d7 bd dc 0f f0 3c
       -0.038295772 -0.04514944 -0.105084784 0.029304437
0001c0 d0 f0 2f 3d 42 c2 c7 3c ae fd a3 bd 04 b6 46 bd
       0.042954266 0.024384622 -0.0800737 -0.048513427
0001d0 65 63 9d bd 7a 23 af bb 60 58 8d bd f0 39 94 bd
       -0.076849736 -0.0053448053 -0.06901622 -0.07237613
0001e0 2d 4f c1 3c a4 bd df bc a9 17 7b bd 0f ef 80 3d
       0.023597324 -0.027312107 -0.06130186 0.06295597
0001f0 d6 30 35 bd 6f b3 76 3d d0 9c 4f 3d 66 7c e9 bd
       -0.044236027 0.060229715 0.050686657 -0.1140068
000200 c7 c1 34 bd 38 3d 93 bd da 75 09 3d a7 1e 09 be
       -0.044130113 -0.07189411 0.033559658 -0.13390599
000210 10 d7 af 3c 89 d1 df bd 8b b7 45 bd 52 81 55 be
       0.021464854 -0.109286375 -0.048270743 -0.20850113
000220 96 f6 c3 3b bb 8b 3b 3d 9c 6f 82 bd f9 57 5e bd
       0.005980323 0.045787554 -0.06368944 -0.054283116
000230 11 77 8a bd f5 4a 9f bd a4 6d f9 bd 67 66 9f bc
       -0.06760991 -0.07777969 -0.121791154 -0.019458009
000240 5e c1 cf bd 97 ea 2c 3c 94 eb 42 be 67 30 ac 3c
       -0.10144304 0.010553977 -0.19035178 0.021019174
000250 97 c5 72 bd 15 7f 84 3c 2d 16 2f be 48 7d 19 3d
       -0.059270468 0.016173879 -0.17098303 0.037472993
000260 5c 31 10 bd 33 28 e6 bd 7d 6a bc bd d3 c9 8a bd
       -0.035203323 -0.11238136 -0.091999985 -0.06776776
000270 d7 39 6e 3b 45 10 da 3c 17 fc 89 bd f0 cf 00 be
       0.0036350393 0.026619086 -0.067375354 -0.12579322
000280 12 e4 70 3d fc 01 20 bd ce 81 0e 3a 63 1c 1d be
       0.058811255 -0.039064392 0.00054362125 -0.1534286
000290 d3 9a 2a bc 13 19 2b bd 72 70 75 3c 3e 0a 54 bd
       -0.0104128895 -0.04177196 0.014980422 -0.05176758
0002a0 d3 80 dd bd c0 f0 ac bd b6 08 dd bd dd c0 17 3d
       -0.10815587 -0.08444357 -0.10792677 0.037049163
0002b0 6a 65 ca bd e0 fa 86 bd 49 a4 13 bc 71 bc eb 3c
       -0.098826244 -0.06590819 -0.009011337 0.02877638
0002c0 af 78 2f 3d b2 3d 36 bd 21 ab 18 bd a9 f8 b3 bc
       0.042839702 -0.04449243 -0.037272576 -0.021969156
0002d0 3c 2b 8a bd 61 f7 8e 3d 13 a9 e2 3b bd 62 87 bb
       -0.067465276 0.069807775 0.006917128 -0.0041316436
0002e0 0d 2d 04 be 30 f7 46 3d ad 5b f0 3b bc 6a 6e 3d
       -0.1290781 0.04857558 0.0073351474 0.05820726
0002f0 fc 4b 49 3b dc a6 af bd 02 be e7 bd d4 32 c5 bd
       0.0030715456 -0.08576748 -0.11315538 -0.09628835
000300 93 47 17 3c 38 0d 86 3d fe 98 1e 3d f3 7d 13 be
       0.009233373 0.0654549 0.038720123 -0.14403515
000310 39 a2 e1 bd 52 58 d5 bd c1 13 62 bd 58 fb 8d bd
       -0.1101727 -0.104172364 -0.05519462 -0.06932706
000320 bd e2 c3 3c 37 58 bb bd 53 d9 dc bd 86 49 bf bd
       0.023911828 -0.09147685 -0.10783639 -0.09340195
000330 1b d4 4e 3d e7 27 0f bd 8f 66 14 bd 42 3f bd 3c
       0.05049525 -0.034950163 -0.03623062 0.023101453
000340 4a 3e dd bd f7 bb 73 3d 27 46 c6 3c 44 12 81 3d
       -0.10802896 0.05950543 0.024203373 0.06302312
000350 4c 54 2f bd 1f 25 52 3c 98 a5 31 3d 0b 08 d3 bd
       -0.042805 0.012826233 0.043370813 -0.103042684
000360 5d 1d 44 3d 34 a1 6b 3d 3f 37 80 bd 18 ac 4a 3d
       0.047879566 0.057526782 -0.06260537 0.049480528
000370 91 a3 45 3b 0f 9f 8b 3c ae 5f 8c bd fb 02 55 3d
       0.0030157308 0.017043618 -0.06854187 0.052004796
000380 9f f4 b0 bd 2d 38 38 bd 6b 30 96 bd a4 2c b3 bd
       -0.08640408 -0.04497545 -0.07333454 -0.08748749
000390 00 c6 a1 bd 3d d8 c8 3c ab 5d b9 bb e5 b7 ff 3c
       -0.07899094 0.024517173 -0.005656918 0.031215617
0003a0 fe 00 87 bd 43 b7 0c bd 85 ef 06 be 9c 7b 0d bd
       -0.06591986 -0.03435446 -0.13177307 -0.03454171
0003b0 2a ee 53 3d b5 cb f3 3c 23 7f 8b bd 36 39 51 3d
       0.051740803 0.029760221 -0.06811359 0.05107995
0003c0 b6 f5 b3 3c 13 8d 2b bd ab 92 34 bd 20 c7 5d bd
       0.02196775 -0.041882586 -0.044085186 -0.05414498
0003d0 51 21 81 bd 35 df 9f bc e1 44 1a be d2 d0 9d bd
       -0.06305183 -0.019515613 -0.15065338 -0.07705845
0003e0 0a 74 9c 3c c7 38 a0 bc e5 70 2b 3a e9 36 67 3d
       0.0190983 -0.019558324 0.0006539955 0.05644885
0003f0 81 30 7e bd b7 8e 85 bd 76 c5 dd bd 0d f6 d7 bd
       -0.062057976 -0.06521361 -0.10828678 -0.10544977

decoder.2.bias f4 [784]
000000 eb f8 a5 bc 92 a3 01 bd fb 33 b3 3b fa 42 db bd
       -0.020260295 -0.031650133 0.005468843 -0.10706134
000010 ed db 61 bd 76 b9 c3 bd 4c 2a 0a 3c 64 ad bf bd
       -0.05514138 -0.09556858 0.008432936 -0.093592435
000020 a3 c8 bf bc 74 ab a6 bb 4e 56 d1 bc 2e a4 bd bb
       -0.0234111 -0.005086357 -0.025553849 -0.005787394
000030 c7 76 a5 bd 1b b9 49 bd f8 41 89 3c f9 6a 31 3d
       -0.080792956 -0.049248796 0.01675509 0.043314908
000040 ee 1b ce bc b9 db 82 bc 31 ce 3f bd e6 d6 12 3c
       -0.025159802 -0.015973913 -0.0468275 0.008962369
000050 e3 eb d2 bd 22 f1 43 3d a2 44 68 3d e2 2e 52 bc
       -0.10298898 0.047837384 0.05670608 -0.012828561
000060 83 a0 86 3c 69 ba da bd a7 cf 90 bb 06 be 94 bc
       0.01643396 -0.10680086 -0.0044192853 -0.018157016
000070 e6 c1 6a bd dc 97 86 bd 99 5e 7a bc 91 b9 2f 3d
       -0.057313822 -0.065719336 -0.015281343 0.04290158
000080 0c 30 a8 bb a7 ca 91 bc 26 ca a4 bb 79 36 d0 3b
       -0.0051326808 -0.017796827 -0.005028981 0.00635415
000090 07 b5 74 bd 67 67 80 3c 44 4e 51 3d 79 fc b7 bd
       -0.059742954 0.015674306 0.05110003 -0.08983702
0000a0 bb 8c c0 bd 51 e2 0f 3d fc ac db 3c 91 6a 41 bd
       -0.09401842 0.03512794 0.026815884 -0.04722077
0000b0 44 9c b6 bb 25 04 9c 3c 98 58 39 3c f5 62 76 3d
       -0.0055728275 0.019044945 0.011312626 0.060152967
0000c0 5a 9a 15 bd 00 5c ab bd e8 f2 85 bd 77 a1 54 3d
       -0.036524154 -0.08367157 -0.06540471 0.051911797
0000d0 03 95 65 3d 1d 9e 63 bb 0c 5c 0c 3c ab b9 e3 bc
       0.05605031 -0.0034731694 0.008566868 -0.027798494
0000e0 2e 58 a8 bd b6 52 a7 3b 63 29 45 bd 00 86 00 3d
       -0.08219944 0.0051062955 -0.048135173 0.031377792
0000f0 93 6f ac 39 44 28 66 3d 4b 82 6f 3d a9 b3 73 3c
       0.00032889526 0.056190744 0.058473866 0.014874377
000100 6e d3 e7 bd 42 5f 70 3d 04 cc 84 bd 50 ad ba bd
       -0.11319624 0.058684595 -0.064842254 -0.09115088
000110 b5 c8 7d bd d6 72 5b 3c 69 1a 82 bd 43 f1 98 bc
       -0.061958987 0.013394078 -0.063526936 -0.01866973
000120 b0 02 52 bc d1 8e 36 3d 74 f1 6c 3b fd 1e f8 bd
       -0.012818024 0.044569794 0.003615466 -0.121152855
000130 11 f6 85 3d 80 74 5d bc 9a fe eb bb ff fd 67 3d
       0.06541074 -0.013516545 -0.0072019817 0.056638714
000140 25 db c5 bc ec b8 6b 3d 3e 14 e6 bc 2e 9c 65 3b
       -0.024152348 0.057549402 -0.028085824 0.0035035717
000150 67 5b 52 bd b6 67 a4 bd e5 45 0f bb ed 3f 70 3d
       -0.0513567 -0.08027594 -0.0021861729 0.058654714
000160 18 df a6 bd 75 f3 8b 3c 5a 22 be bd 73 c3 96 3a
       -0.081480205 0.017083863 -0.09283896 0.001150234
000170 78 17 8b bd 0b e4 c1 bc 1a 7a 83 3d ff d1 c3 bd
       -0.06791586 -0.02366831 0.064197734 -0.09561538
000180 bf 79 f7 bd 04 f7 d7 bd 2a b6 0d be de c7 2b be
       -0.12083768 -0.10545161 -0.13839021 -0.16775462
000190 a0 d5 be bd a9 0c 31 be 01 30 07 be f6 f5 11 3c
       -0.093180895 -0.17289986 -0.13201906 0.008908739
0001a0 27 d9 07 3d e1 0b ba 3d 9b 53 27 3d 74 a9 e0 bd
       0.033166077 0.09084297 0.040851217 -0.109698206
0001b0 b2 5c 55 bc e8 f2 5b bd 20 f3 e5 3c 4a f2 79 bb
       -0.013022589 -0.05369845 0.028070033 -0.00381388
0001c0 6b d5 39 bd 09 65 32 3d ce 91 c9 bd 7f f9 80 3d
       -0.045369547 0.043553386 -0.09842263 0.062975876
0001d0 59 e3 0b bd b7 9a e5 3c c9 28 a5 bd 2b 86 30 3d
       -0.034152362 0.028027875 -0.0806442 0.043096703
0001e0 6f 55 06 3c 3f c8 53 bc f9 15 6d bd 03 40 2b be
       0.00819908 -0.01292616 -0.057882283 -0.16723637
0001f0 50 d8 38 be 69 28 7b be 02 26 86 be 0c 05 9f be
       -0.18051267 -0.24527134 -0.26200873 -0.31058538
000200 60 2b 7d be 2e c4 56 be 40 ac 64 be 46 bf 01 bc
       -0.24723577 -0.20973274 -0.22331333 -0.007919138
000210 09 07 79 3d f6 53 4a 3d 8c b8 c4 3c 21 33 3f 3d
       0.060797725 0.049396478 0.02401378 0.04667962
000220 72 fb 9f bd 9d a7 a2 bd 19 23 6d bc eb 20 5b bc
       -0.07811631 -0.07942126 -0.0144737 -0.0133745475
000230 4e b4 90 bc f0 12 87 bd 97 5c 74 bd 93 7b 07 3d
       -0.017664101 -0.06595409 -0.059658613 0.033076834
000240 df 62 e3 bd 6e b9 ab 3c 9a 52 2f 3d 7b 0a d9 bd
       -0.111028425 0.020962443 0.042803384 -0.10597702
000250 54 d8 aa bd f9 c6 66 bd 7f d2 84 bd d3 c2 d5 bd
       -0.083420426 -0.0563421 -0.064854614 -0.104375504
000260 1c 3d 1d be a5 85 37 be 37 42 7b be d1 d0 6d be
       -0.15355343 -0.17922075 -0.24536978 -0.23224188
000270 24 41 4d be 72 8d 45 be e5 03 64 be 07 aa 12 be
       -0.2004438 -0.19292238 -0.2226711 -0.14322673
000280 e6 5f 21 be b8 d3 a9 3c 25 47 72 bd d7 78 4d 3c
       -0.15759239 0.020730838 -0.05914988 0.0125410175
000290 45 ba c2 bd f3 c4 19 bd ea 8e e0 bc 07 fb 9c bd
       -0.09508184 -0.03754134 -0.027411897 -0.07665067
0002a0 a1 30 cb bd 27 c9 63 3d a6 83 a4 bd fc 26 63 3c
       -0.099213846 0.055611756 -0.080329224 0.013864275
0002b0 0f 9b 89 bd 77 2b 2c bc fd 7f 1f 3d fb 8a 79 bd
       -0.06719028 -0.01050841 0.03894042 -0.060923558
0002c0 2a 47 30 bd 88 07 12 bd 62 c6 c8 bd ba 9d 1f be
       -0.043036617 -0.035651714 -0.098034635 -0.15587512
0002d0 35 90 28 be 33 55 2c be 30 60 c8 bd 6c 4b ec bd
       -0.1646126 -0.16829376 -0.09783971 -0.11537823
0002e0 81 51 32 be 44 be 09 be 68 73 07 be 43 43 60 be
       -0.17413904 -0.13451487 -0.13227618 -0.21900658
0002f0 bd 9b 8f be 03 7e 36 be cb 63 a2 bd 3a 67 a3 3d
       -0.28048506 -0.17821507 -0.0792919 0.07978673
000300 80 19 59 3d ed 8e ec bc 7b 73 4d bd 12 8e 3b bb
       0.053002834 -0.028876746 -0.05015896 -0.0028618616
000310 9f c6 30 bd 65 83 8e 3c 0c 13 8c bd 79 24 e0 3c
       -0.04315817 0.017396638 -0.068395704 0.027361142
000320 c1 48 d3 bb 6f be bf 3d 79 c4 2b 3d 48 7e 12 be
       -0.006447882 0.09362494 0.041935418 -0.14305985
000330 1b cd 1d be f6 c5 9f bd 55 44 38 bd 7e 97 29 be
       -0.15410273 -0.0780143 -0.04498704 -0.16561696
000340 76 02 0f be 1c 8b 4a be 40 1b 5f be 55 84 57 be
       -0.13965783 -0.19779629 -0.21787739 -0.21046574
000350 7d fb 85 be e9 ee 8f be de 56 87 be 96 92 b3 be
       -0.26168433 -0.2811196 -0.26433462 -0.35072774
000360 4b de c2 be 40 8f e6 bd 8b 7e bd 3a 84 1f 32 3d
       -0.3806022 -0.112577915 0.0014457268 0.043487087
000370 0f 10 62 3c c0 0e 1d bc b4 b3 c5 bd 64 6b 18 3d
       0.013797774 -0.009586036 -0.09653416 0.03721179
000380 33 91 8e bb ba 48 46 3d ae 80 53 3d 36 d8 4f 3d
       -0.004350805 0.0484092 0.05163639 0.050743304
000390 c8 5c 58 3d ab ea 94 3d 46 4a 01 3d 3b 7b 0b be
       0.052822858 0.07271322 0.031564973 -0.13621227
0003a0 7f ee 65 bd 77 40 ba bd 67 44 12 be 7d a9 25 be
       -0.05613565 -0.09094327 -0.14283906 -0.16177936
0003b0 ec f5 31 be c9 69 3d be 69 ff 88 be 1e 18 5b be
       -0.17378968 -0.18497385 -0.26757362 -0.21395919
0003c0 85 90 37 be 3e 22 6d be 9e 32 8a be e6 06 bf be
       -0.17926224 -0.23157594 -0.26991743 -0.3730995
0003d0 18 8f 67 be fd b8 8c be 14 cb e1 bd 17 ac 29 be
       -0.2261318 -0.27484885 -0.11025062 -0.16569553
0003e0 55 71 cb bd b8 00 43 be bc 02 7e bb 05 07 73 bd
       -0.09933726 -0.19043243 -0.0038758954 -0.059332866
0003f0 b5 98 41 3d 4b 55 7c bd 39 45 80 bc 55 53 d7 bd
       0.047264773 -0.06160478 -0.015658008 -0.10513941
